…
36, 100.58909090909091, 92.29818181818182, 56.89454545454546, 95.68727272727273, 156.03636363636363, 203.57818181818183, 188.26909090909092], 'conf_thr': 0.001, 'nms_thr': 0.5, 'iou_thr': 0.4, 'label_flag': 'coco_80', 'val': '../../../datasets/coco2017/val2017.txt', 'train': '../../../datasets/coco2017/train2017.txt', 'names': './configs/coco.names'}
initialize_weights...
----------------------------------------------------------------
        Layer (type)               Output Shape         Param #
================================================================
            Conv2d-1           [-1, 24, 48, 48]             648
       BatchNorm2d-2           [-1, 24, 48, 48]              48
              ReLU-3           [-1, 24, 48, 48]               0
         MaxPool2d-4           [-1, 24, 24, 24]               0
            Conv2d-5           [-1, 24, 12, 12]             216
       BatchNorm2d-6           [-1, 24, 12, 12]              48
            Conv2d-7           [-1, 24, 12, 12]             576
       BatchNorm2d-8           [-1, 24, 12, 12]              48
              ReLU-9           [-1, 24, 12, 12]               0
           Conv2d-10           [-1, 24, 24, 24]             576
      BatchNorm2d-11           [-1, 24, 24, 24]              48
             ReLU-12           [-1, 24, 24, 24]               0
           Conv2d-13           [-1, 24, 12, 12]             216
      BatchNorm2d-14           [-1, 24, 12, 12]              48
           Conv2d-15           [-1, 24, 12, 12]             576
      BatchNorm2d-16           [-1, 24, 12, 12]              48
             ReLU-17           [-1, 24, 12, 12]               0
  ShuffleV2Block_-18           [-1, 48, 12, 12]               0
           Conv2d-19           [-1, 24, 12, 12]             576
      BatchNorm2d-20           [-1, 24, 12, 12]              48
             ReLU-21           [-1, 24, 12, 12]               0
           Conv2d-22           [-1, 24, 12, 12]             216
      BatchNorm2d-23           [-1, 24, 12, 12]              48
           Conv2d-24           [-1, 24, 12, 12]             576
      BatchNorm2d-25           [-1, 24, 12, 12]              48
             ReLU-26           [-1, 24, 12, 12]               0
  ShuffleV2Block_-27           [-1, 48, 12, 12]               0
           Conv2d-28           [-1, 24, 12, 12]             576
      BatchNorm2d-29           [-1, 24, 12, 12]              48
             ReLU-30           [-1, 24, 12, 12]               0
           Conv2d-31           [-1, 24, 12, 12]             216
      BatchNorm2d-32           [-1, 24, 12, 12]              48
           Conv2d-33           [-1, 24, 12, 12]             576
      BatchNorm2d-34           [-1, 24, 12, 12]              48
             ReLU-35           [-1, 24, 12, 12]               0
  ShuffleV2Block_-36           [-1, 48, 12, 12]               0
           Conv2d-37           [-1, 24, 12, 12]             576
      BatchNorm2d-38           [-1, 24, 12, 12]              48
             ReLU-39           [-1, 24, 12, 12]               0
           Conv2d-40           [-1, 24, 12, 12]             216
      BatchNorm2d-41           [-1, 24, 12, 12]              48
           Conv2d-42           [-1, 24, 12, 12]             576
      BatchNorm2d-43           [-1, 24, 12, 12]              48
             ReLU-44           [-1, 24, 12, 12]               0
  ShuffleV2Block_-45           [-1, 48, 12, 12]               0
           Conv2d-46             [-1, 48, 6, 6]             432
      BatchNorm2d-47             [-1, 48, 6, 6]              96
           Conv2d-48             [-1, 48, 6, 6]           2,304
      BatchNorm2d-49             [-1, 48, 6, 6]              96
             ReLU-50             [-1, 48, 6, 6]               0
           Conv2d-51           [-1, 48, 12, 12]           2,304
      BatchNorm2d-52           [-1, 48, 12, 12]              96
             ReLU-53           [-1, 48, 12, 12]               0
           Conv2d-54             [-1, 48, 6, 6]             432
      BatchNorm2d-55             [-1, 48, 6, 6]              96
           Conv2d-56             [-1, 48, 6, 6]           2,304
      BatchNorm2d-57             [-1, 48, 6, 6]              96
             ReLU-58             [-1, 48, 6, 6]               0
  ShuffleV2Block_-59             [-1, 96, 6, 6]               0
           Conv2d-60             [-1, 48, 6, 6]           2,304
      BatchNorm2d-61             [-1, 48, 6, 6]              96
             ReLU-62             [-1, 48, 6, 6]               0
           Conv2d-63             [-1, 48, 6, 6]             432
      BatchNorm2d-64             [-1, 48, 6, 6]              96
           Conv2d-65             [-1, 48, 6, 6]           2,304
      BatchNorm2d-66             [-1, 48, 6, 6]              96
             ReLU-67             [-1, 48, 6, 6]               0
  ShuffleV2Block_-68             [-1, 96, 6, 6]               0
           Conv2d-69             [-1, 48, 6, 6]           2,304
      BatchNorm2d-70             [-1, 48, 6, 6]              96
             ReLU-71             [-1, 48, 6, 6]               0
           Conv2d-72             [-1, 48, 6, 6]             432
      BatchNorm2d-73             [-1, 48, 6, 6]              96
           Conv2d-74             [-1, 48, 6, 6]           2,304
      BatchNorm2d-75             [-1, 48, 6, 6]              96
             ReLU-76             [-1, 48, 6, 6]               0
  ShuffleV2Block_-77             [-1, 96, 6, 6]               0
           Conv2d-78             [-1, 48, 6, 6]           2,304
      BatchNorm2d-79             [-1, 48, 6, 6]              96
             ReLU-80             [-1, 48, 6, 6]               0
           Conv2d-81             [-1, 48, 6, 6]             432
      BatchNorm2d-82             [-1, 48, 6, 6]              96
           Conv2d-83             [-1, 48, 6, 6]           2,304
      BatchNorm2d-84             [-1, 48, 6, 6]              96
             ReLU-85             [-1, 48, 6, 6]               0
  ShuffleV2Block_-86             [-1, 96, 6, 6]               0
           Conv2d-87             [-1, 48, 6, 6]           2,304
      BatchNorm2d-88             [-1, 48, 6, 6]              96
             ReLU-89             [-1, 48, 6, 6]               0
           Conv2d-90             [-1, 48, 6, 6]             432
      BatchNorm2d-91             [-1, 48, 6, 6]              96
           Conv2d-92             [-1, 48, 6, 6]           2,304
      BatchNorm2d-93             [-1, 48, 6, 6]              96
             ReLU-94             [-1, 48, 6, 6]               0
  ShuffleV2Block_-95             [-1, 96, 6, 6]               0
           Conv2d-96             [-1, 48, 6, 6]           2,304
      BatchNorm2d-97             [-1, 48, 6, 6]              96
             ReLU-98             [-1, 48, 6, 6]               0
           Conv2d-99             [-1, 48, 6, 6]             432
     BatchNorm2d-100             [-1, 48, 6, 6]              96
          Conv2d-101             [-1, 48, 6, 6]           2,304
     BatchNorm2d-102             [-1, 48, 6, 6]              96
            ReLU-103             [-1, 48, 6, 6]               0
 ShuffleV2Block_-104             [-1, 96, 6, 6]               0
          Conv2d-105             [-1, 48, 6, 6]           2,304
     BatchNorm2d-106             [-1, 48, 6, 6]              96
            ReLU-107             [-1, 48, 6, 6]               0
          Conv2d-108             [-1, 48, 6, 6]             432
     BatchNorm2d-109             [-1, 48, 6, 6]              96
          Conv2d-110             [-1, 48, 6, 6]           2,304
     BatchNorm2d-111             [-1, 48, 6, 6]              96
            ReLU-112             [-1, 48, 6, 6]               0
 ShuffleV2Block_-113             [-1, 96, 6, 6]               0
          Conv2d-114             [-1, 48, 6, 6]           2,304
     BatchNorm2d-115             [-1, 48, 6, 6]              96
            ReLU-116             [-1, 48, 6, 6]               0
          Conv2d-117             [-1, 48, 6, 6]             432
     BatchNorm2d-118             [-1, 48, 6, 6]              96
          Conv2d-119             [-1, 48, 6, 6]           2,304
     BatchNorm2d-120             [-1, 48, 6, 6]              96
            ReLU-121             [-1, 48, 6, 6]               0
 ShuffleV2Block_-122             [-1, 96, 6, 6]               0
          Conv2d-123             [-1, 96, 6, 6]             864
     BatchNorm2d-124             [-1, 96, 6, 6]             192
          Conv2d-125             [-1, 96, 6, 6]           9,216
     BatchNorm2d-126             [-1, 96, 6, 6]             192
            ReLU-127             [-1, 96, 6, 6]               0
          Conv2d-128           [-1, 96, 12, 12]           9,216
     BatchNorm2d-129           [-1, 96, 12, 12]             192
            ReLU-130           [-1, 96, 12, 12]               0
          Conv2d-131             [-1, 96, 6, 6]             864
     BatchNorm2d-132             [-1, 96, 6, 6]             192
          Conv2d-133             [-1, 96, 6, 6]           9,216
     BatchNorm2d-134             [-1, 96, 6, 6]             192
            ReLU-135             [-1, 96, 6, 6]               0
 ShuffleV2Block_-136            [-1, 192, 6, 6]               0
          Conv2d-137             [-1, 96, 6, 6]           9,216
     BatchNorm2d-138             [-1, 96, 6, 6]             192
            ReLU-139             [-1, 96, 6, 6]               0
          Conv2d-140             [-1, 96, 6, 6]             864
     BatchNorm2d-141             [-1, 96, 6, 6]             192
          Conv2d-142             [-1, 96, 6, 6]           9,216
     BatchNorm2d-143             [-1, 96, 6, 6]             192
            ReLU-144             [-1, 96, 6, 6]               0
 ShuffleV2Block_-145            [-1, 192, 6, 6]               0
          Conv2d-146             [-1, 96, 6, 6]           9,216
     BatchNorm2d-147             [-1, 96, 6, 6]             192
            ReLU-148             [-1, 96, 6, 6]               0
          Conv2d-149             [-1, 96, 6, 6]             864
     BatchNorm2d-150             [-1, 96, 6, 6]             192
          Conv2d-151             [-1, 96, 6, 6]           9,216
     BatchNorm2d-152             [-1, 96, 6, 6]             192
            ReLU-153             [-1, 96, 6, 6]               0
 ShuffleV2Block_-154            [-1, 192, 6, 6]               0
          Conv2d-155             [-1, 96, 6, 6]           9,216
     BatchNorm2d-156             [-1, 96, 6, 6]             192
            ReLU-157             [-1, 96, 6, 6]               0
          Conv2d-158             [-1, 96, 6, 6]             864
     BatchNorm2d-159             [-1, 96, 6, 6]             192
          Conv2d-160             [-1, 96, 6, 6]           9,216
     BatchNorm2d-161             [-1, 96, 6, 6]             192
            ReLU-162             [-1, 96, 6, 6]               0
 ShuffleV2Block_-163            [-1, 192, 6, 6]               0
  ShuffleNetV2Sp-164  [[-1, 96, 12, 12], [-1, 192, 6, 6]]               0
          Conv2d-165             [-1, 72, 6, 6]          13,824
     BatchNorm2d-166             [-1, 72, 6, 6]             144
            ReLU-167             [-1, 72, 6, 6]               0
          Conv2d-168             [-1, 72, 6, 6]           1,800
     BatchNorm2d-169             [-1, 72, 6, 6]             144
            ReLU-170             [-1, 72, 6, 6]               0
          Conv2d-171             [-1, 72, 6, 6]           5,184
     BatchNorm2d-172             [-1, 72, 6, 6]             144
          Conv2d-173             [-1, 72, 6, 6]           1,800
     BatchNorm2d-174             [-1, 72, 6, 6]             144
            ReLU-175             [-1, 72, 6, 6]               0
          Conv2d-176             [-1, 72, 6, 6]           5,184
     BatchNorm2d-177             [-1, 72, 6, 6]             144
     DWConvblock-178             [-1, 72, 6, 6]               0
          Conv2d-179             [-1, 72, 6, 6]           1,800
     BatchNorm2d-180             [-1, 72, 6, 6]             144
            ReLU-181             [-1, 72, 6, 6]               0
          Conv2d-182             [-1, 72, 6, 6]           5,184
     BatchNorm2d-183             [-1, 72, 6, 6]             144
          Conv2d-184             [-1, 72, 6, 6]           1,800
     BatchNorm2d-185             [-1, 72, 6, 6]             144
            ReLU-186             [-1, 72, 6, 6]               0
          Conv2d-187             [-1, 72, 6, 6]           5,184
     BatchNorm2d-188             [-1, 72, 6, 6]             144
     DWConvblock-189             [-1, 72, 6, 6]               0
          Conv2d-190           [-1, 72, 12, 12]          20,736
     BatchNorm2d-191           [-1, 72, 12, 12]             144
            ReLU-192           [-1, 72, 12, 12]               0
          Conv2d-193           [-1, 72, 12, 12]           1,800
     BatchNorm2d-194           [-1, 72, 12, 12]             144
            ReLU-195           [-1, 72, 12, 12]               0
          Conv2d-196           [-1, 72, 12, 12]           5,184
     BatchNorm2d-197           [-1, 72, 12, 12]             144
          Conv2d-198           [-1, 72, 12, 12]           1,800
     BatchNorm2d-199           [-1, 72, 12, 12]             144
            ReLU-200           [-1, 72, 12, 12]               0
          Conv2d-201           [-1, 72, 12, 12]           5,184
     BatchNorm2d-202           [-1, 72, 12, 12]             144
     DWConvblock-203           [-1, 72, 12, 12]               0
          Conv2d-204           [-1, 72, 12, 12]           1,800
     BatchNorm2d-205           [-1, 72, 12, 12]             144
            ReLU-206           [-1, 72, 12, 12]               0
          Conv2d-207           [-1, 72, 12, 12]           5,184
     BatchNorm2d-208           [-1, 72, 12, 12]             144
          Conv2d-209           [-1, 72, 12, 12]           1,800
     BatchNorm2d-210           [-1, 72, 12, 12]             144
            ReLU-211           [-1, 72, 12, 12]               0
          Conv2d-212           [-1, 72, 12, 12]           5,184
     BatchNorm2d-213           [-1, 72, 12, 12]             144
     DWConvblock-214           [-1, 72, 12, 12]               0
        LightFPN-215  [[-1, 72, 12, 12], [-1, 72, 12, 12], [-1, 72, 12, 12], [-1, 72, 6, 6], [-1, 72, 6, 6], [-1, 72, 6, 6]]               0
          Conv2d-216           [-1, 12, 12, 12]             876
          Conv2d-217            [-1, 3, 12, 12]             219
          Conv2d-218           [-1, 80, 12, 12]           5,840
          Conv2d-219             [-1, 12, 6, 6]             876
          Conv2d-220              [-1, 3, 6, 6]             219
          Conv2d-221             [-1, 80, 6, 6]           5,840
================================================================
Total params: 250,030
Trainable params: 250,030
Non-trainable params: 0
----------------------------------------------------------------
Input size (MB): 0.42
Forward/backward pass size (MB): 720.94
Params size (MB): 0.95
Estimated Total Size (MB): 722.32
----------------------------------------------------------------
Initialize weights: model/backbone/backbone.pth
…
