Neural Network Tools for STM32AI v1.7.0 (STM.ai v8.0.1-19451)
Created date          : 2024-07-17 17:23:32
Parameters            : generate --name network_2 -m results/deploy\coco_person_0009\tflite\model_post.tflite --type tflite --compression none --verbosity 1 --workspace results/deploy\coco_person_0009\temp --output results/deploy\coco_person_0009\Edge_AI\model --allocate-inputs --series stm32h7 --allocate-outputs

Exec/report summary (generate)
--------------------------------------------------------------------------------------------------------------------------------------------
model file         :   F:\MyWork\PyWork\gd32ai-modelzoo\object_detection\yolov10\results\deploy\coco_person_0009\tflite\model_post.tflite   
type               :   tflite                                                                                                               
c_name             :   network_2                                                                                                            
compression        :   none                                                                                                                 
options            :   allocate-inputs, allocate-outputs                                                                                    
optimization       :   balanced                                                                                                             
target/series      :   stm32h7                                                                                                              
workspace dir      :   F:\MyWork\PyWork\gd32ai-modelzoo\object_detection\yolov10\results\deploy\coco_person_0009\temp                       
output dir         :   F:\MyWork\PyWork\gd32ai-modelzoo\object_detection\yolov10\results\deploy\coco_person_0009\Edge_AI\model              
model_fmt          :   ss/sa per-channel                                                                                                    
model_name         :   model_post                                                                                                           
model_hash         :   e0774b814ce14459667f40eea632ca67                                                                                     
params #           :   174,225 items (180.15 KiB)                                                                                           
--------------------------------------------------------------------------------------------------------------------------------------------
input 1/1          :   'serving_default_input_20' (domain:activations/**default**)                                                          
                   :   49152 items, 48.00 KiB, ai_i8, s=0.01866242, zp=-128, (1,32,32,48)                                                   
output 1/1         :   'conversion_101' (domain:activations/**default**)                                                                    
                   :   1280 items, 5.00 KiB, ai_float, float, (1,256,1,5)                                                                   
macc               :   27,841,829                                                                                                           
weights (ro)       :   182,940 B (178.65 KiB) (1 segment) / -513,960(-73.7%) vs float model                                                 
activations (rw)   :   125,236 B (122.30 KiB) (1 segment) *                                                                                 
ram (total)        :   125,236 B (122.30 KiB) = 125,236 + 0 + 0                                                                             
--------------------------------------------------------------------------------------------------------------------------------------------
(*) 'input'/'output' buffers can be used from the activations buffer

Model name - model_post ['serving_default_input_20'] ['conversion_101']
------ -------------------------------------------- ---------------------------- --------------- ----------- -------------------------- --- --------------- ------------------ ---------------------------- 
m_id   layer (type,original)                        oshape                       param/size             macc               connected to   | c_size          c_macc             c_type                       
------ -------------------------------------------- ---------------------------- --------------- ----------- -------------------------- --- --------------- ------------------ ---------------------------- 
0      serving_default_input_20 (Input, )           [b:1,h:32,w:32,c:48]                                                                  |                                    pad_oi8[0]                   
       pad_0 (Pad, PAD)                             [b:1,h:34,w:34,c:48]                                       serving_default_input_20   |                                    
------ -------------------------------------------- ---------------------------- --------------- ----------- -------------------------- --- --------------- ------------------ ---------------------------- 
1      conv2d_1 (Conv2D, DEPTHWISE_CONV_2D)         [b:1,h:16,w:16,c:48]         480/624             110,640                      pad_0   |                                    conv2d_oi8[62]               
------ -------------------------------------------- ---------------------------- --------------- ----------- -------------------------- --- --------------- ------------------ ---------------------------- 
2      conv2d_2 (Conv2D, CONV_2D)                   [b:1,h:16,w:16,c:96]         4,704/4,992       1,179,744                   conv2d_1   |                                    conv2d_oi8[63]               
------ -------------------------------------------- ---------------------------- --------------- ----------- -------------------------- --- --------------- ------------------ ---------------------------- 
3      conv2d_3 (Conv2D, DEPTHWISE_CONV_2D)         [b:1,h:16,w:16,c:48]         480/624             110,640                      pad_0   |                                    conv2d_oi8[1]                
------ -------------------------------------------- ---------------------------- --------------- ----------- -------------------------- --- --------------- ------------------ ---------------------------- 
4      conv2d_4 (Conv2D, CONV_2D)                   [b:1,h:16,w:16,c:96]         4,704/4,992       1,179,744                   conv2d_3   |                                    conv2d_oi8[2]                
------ -------------------------------------------- ---------------------------- --------------- ----------- -------------------------- --- --------------- ------------------ ---------------------------- 
5      gather_5 (Gather, GATHER)                    [b:1,h:16,w:16,c:48]         48/192                                        conv2d_4   |                                    gather_oi8[14]               
------ -------------------------------------------- ---------------------------- --------------- ----------- -------------------------- --- --------------- ------------------ ---------------------------- 
6      gather_6 (Gather, GATHER)                    [b:1,h:16,w:16,c:48]         48/192                                        conv2d_4   |                                    gather_oi8[3]                
------ -------------------------------------------- ---------------------------- --------------- ----------- -------------------------- --- --------------- ------------------ ---------------------------- 
7      conv2d_7 (Conv2D, DEPTHWISE_CONV_2D)         [b:1,h:16,w:16,c:48]         480/624             110,640                   gather_6   |                                    pad_oi8/conv2d_oi8[4, 5]     
       nl_7_nl (Nonlinearity, DEPTHWISE_CONV_2D)    [b:1,h:16,w:16,c:48]                              12,288                   conv2d_7   |                 -12,288(-100.0%)   
------ -------------------------------------------- ---------------------------- --------------- ----------- -------------------------- --- --------------- ------------------ ---------------------------- 
8      conv2d_8 (Conv2D, CONV_2D)                   [b:1,h:16,w:16,c:48]         2,352/2,496         589,872                    nl_7_nl   |                                    conv2d_oi8[6]                
       nl_8_nl (Nonlinearity, CONV_2D)              [b:1,h:16,w:16,c:48]                              12,288                   conv2d_8   |                 -12,288(-100.0%)   
------ -------------------------------------------- ---------------------------- --------------- ----------- -------------------------- --- --------------- ------------------ ---------------------------- 
9      eltwise_9 (Eltwise, ADD)                     [b:1,h:16,w:16,c:48]                              12,288                   gather_6   |                                    eltwise_integer_oi8[7]       
                                                                                                                                nl_8_nl   | 
------ -------------------------------------------- ---------------------------- --------------- ----------- -------------------------- --- --------------- ------------------ ---------------------------- 
10     gather_10 (Gather, GATHER)                   [b:1,h:16,w:16,c:24]         24/96                                        eltwise_9   |                                    gather_oi8[13]               
------ -------------------------------------------- ---------------------------- --------------- ----------- -------------------------- --- --------------- ------------------ ---------------------------- 
11     gather_11 (Gather, GATHER)                   [b:1,h:16,w:16,c:24]         24/96                                        eltwise_9   |                                    gather_oi8[8]                
------ -------------------------------------------- ---------------------------- --------------- ----------- -------------------------- --- --------------- ------------------ ---------------------------- 
12     conv2d_12 (Conv2D, DEPTHWISE_CONV_2D)        [b:1,h:16,w:16,c:24]         240/312              55,320                  gather_11   |                                    pad_oi8/conv2d_oi8[9, 10]    
       nl_12_nl (Nonlinearity, DEPTHWISE_CONV_2D)   [b:1,h:16,w:16,c:24]                               6,144                  conv2d_12   |                 -6,144(-100.0%)    
------ -------------------------------------------- ---------------------------- --------------- ----------- -------------------------- --- --------------- ------------------ ---------------------------- 
13     conv2d_13 (Conv2D, CONV_2D)                  [b:1,h:16,w:16,c:24]         600/672             147,480                   nl_12_nl   |                                    conv2d_oi8[11]               
       nl_13_nl (Nonlinearity, CONV_2D)             [b:1,h:16,w:16,c:24]                               6,144                  conv2d_13   |                 -6,144(-100.0%)    
------ -------------------------------------------- ---------------------------- --------------- ----------- -------------------------- --- --------------- ------------------ ---------------------------- 
14     eltwise_14 (Eltwise, ADD)                    [b:1,h:16,w:16,c:24]                               6,144                  gather_11   |                                    eltwise_integer_oi8[12]      
                                                                                                                               nl_13_nl   | 
------ -------------------------------------------- ---------------------------- --------------- ----------- -------------------------- --- --------------- ------------------ ---------------------------- 
15     concat_15 (Concat, CONCATENATION)            [b:1,h:16,w:16,c:96]                                                       gather_5   |                                    concat_oi8[15]               
                                                                                                                              gather_10   | 
                                                                                                                             eltwise_14   | 
------ -------------------------------------------- ---------------------------- --------------- ----------- -------------------------- --- --------------- ------------------ ---------------------------- 
16     conv2d_16 (Conv2D, CONV_2D)                  [b:1,h:16,w:16,c:96]         9,312/9,600       2,359,392                  concat_15   |                                    conv2d_oi8[16]               
       nl_16_nl (Nonlinearity, CONV_2D)             [b:1,h:16,w:16,c:96]                              24,576                  conv2d_16   |                 -24,576(-100.0%)   
------ -------------------------------------------- ---------------------------- --------------- ----------- -------------------------- --- --------------- ------------------ ---------------------------- 
17     pad_17 (Pad, PAD)                            [b:1,h:18,w:18,c:96]                                                       nl_16_nl   |                                    pad_oi8[17]                  
------ -------------------------------------------- ---------------------------- --------------- ----------- -------------------------- --- --------------- ------------------ ---------------------------- 
18     conv2d_18 (Conv2D, DEPTHWISE_CONV_2D)        [b:1,h:8,w:8,c:96]           960/1,248            55,392                     pad_17   |                                    conv2d_oi8[18]               
------ -------------------------------------------- ---------------------------- --------------- ----------- -------------------------- --- --------------- ------------------ ---------------------------- 
19     conv2d_19 (Conv2D, CONV_2D)                  [b:1,h:8,w:8,c:192]          18,624/19,200     1,179,840                  conv2d_18   |                                    conv2d_oi8[19]               
------ -------------------------------------------- ---------------------------- --------------- ----------- -------------------------- --- --------------- ------------------ ---------------------------- 
20     gather_20 (Gather, GATHER)                   [b:1,h:8,w:8,c:96]           96/384                                       conv2d_19   |                                    gather_oi8[25]               
------ -------------------------------------------- ---------------------------- --------------- ----------- -------------------------- --- --------------- ------------------ ---------------------------- 
21     gather_21 (Gather, GATHER)                   [b:1,h:8,w:8,c:96]           96/384                                       conv2d_19   |                                    gather_oi8[20]               
------ -------------------------------------------- ---------------------------- --------------- ----------- -------------------------- --- --------------- ------------------ ---------------------------- 
22     conv2d_22 (Conv2D, DEPTHWISE_CONV_2D)        [b:1,h:8,w:8,c:96]           960/1,248            55,392                  gather_21   |                                    pad_oi8/conv2d_oi8[21, 22]   
       nl_22_nl (Nonlinearity, DEPTHWISE_CONV_2D)   [b:1,h:8,w:8,c:96]                                 6,144                  conv2d_22   |                 -6,144(-100.0%)    
------ -------------------------------------------- ---------------------------- --------------- ----------- -------------------------- --- --------------- ------------------ ---------------------------- 
23     conv2d_23 (Conv2D, CONV_2D)                  [b:1,h:8,w:8,c:96]           9,312/9,600         589,920                   nl_22_nl   |                                    conv2d_oi8[23]               
       nl_23_nl (Nonlinearity, CONV_2D)             [b:1,h:8,w:8,c:96]                                 6,144                  conv2d_23   |                 -6,144(-100.0%)    
------ -------------------------------------------- ---------------------------- --------------- ----------- -------------------------- --- --------------- ------------------ ---------------------------- 
24     eltwise_24 (Eltwise, ADD)                    [b:1,h:8,w:8,c:96]                                 6,144                  gather_21   |                                    eltwise_integer_oi8[24]      
                                                                                                                               nl_23_nl   | 
------ -------------------------------------------- ---------------------------- --------------- ----------- -------------------------- --- --------------- ------------------ ---------------------------- 
25     concat_25 (Concat, CONCATENATION)            [b:1,h:8,w:8,c:192]                                                       gather_20   |                                    concat_oi8[26]               
                                                                                                                             eltwise_24   | 
------ -------------------------------------------- ---------------------------- --------------- ----------- -------------------------- --- --------------- ------------------ ---------------------------- 
26     conv2d_26 (Conv2D, CONV_2D)                  [b:1,h:8,w:8,c:192]          37,056/37,632     2,359,488                  concat_25   |                                    conv2d_oi8[27]               
       nl_26_nl (Nonlinearity, CONV_2D)             [b:1,h:8,w:8,c:192]                               12,288                  conv2d_26   |                 -12,288(-100.0%)   
------ -------------------------------------------- ---------------------------- --------------- ----------- -------------------------- --- --------------- ------------------ ---------------------------- 
27     gather_27 (Gather, GATHER)                   [b:1,h:8,w:8,c:48]           48/192                                        nl_26_nl   |                                    gather_oi8[34]               
------ -------------------------------------------- ---------------------------- --------------- ----------- -------------------------- --- --------------- ------------------ ---------------------------- 
28     gather_28 (Gather, GATHER)                   [b:1,h:8,w:8,c:48]           48/192                                        nl_26_nl   |                                    gather_oi8[32]               
------ -------------------------------------------- ---------------------------- --------------- ----------- -------------------------- --- --------------- ------------------ ---------------------------- 
29     pool_29 (Pool, MAX_POOL_2D)                  [b:1,h:8,w:8,c:48]                                27,648                  gather_28   |                                    pool_oi8[33]                 
------ -------------------------------------------- ---------------------------- --------------- ----------- -------------------------- --- --------------- ------------------ ---------------------------- 
30     gather_30 (Gather, GATHER)                   [b:1,h:8,w:8,c:48]           48/192                                        nl_26_nl   |                                    gather_oi8[30]               
------ -------------------------------------------- ---------------------------- --------------- ----------- -------------------------- --- --------------- ------------------ ---------------------------- 
31     pool_31 (Pool, MAX_POOL_2D)                  [b:1,h:8,w:8,c:48]                                76,800                  gather_30   |                                    pool_oi8[31]                 
------ -------------------------------------------- ---------------------------- --------------- ----------- -------------------------- --- --------------- ------------------ ---------------------------- 
32     gather_32 (Gather, GATHER)                   [b:1,h:8,w:8,c:48]           48/192                                        nl_26_nl   |                                    gather_oi8[28]               
------ -------------------------------------------- ---------------------------- --------------- ----------- -------------------------- --- --------------- ------------------ ---------------------------- 
33     pool_33 (Pool, MAX_POOL_2D)                  [b:1,h:8,w:8,c:48]                               150,528                  gather_32   |                                    pool_oi8[29]                 
------ -------------------------------------------- ---------------------------- --------------- ----------- -------------------------- --- --------------- ------------------ ---------------------------- 
34     concat_34 (Concat, CONCATENATION)            [b:1,h:8,w:8,c:192]                                                       gather_27   |                                    concat_oi8[35]               
                                                                                                                                pool_29   | 
                                                                                                                                pool_31   | 
                                                                                                                                pool_33   | 
------ -------------------------------------------- ---------------------------- --------------- ----------- -------------------------- --- --------------- ------------------ ---------------------------- 
35     conv2d_35 (Conv2D, CONV_2D)                  [b:1,h:8,w:8,c:96]           18,528/18,816     1,179,744                  concat_34   |                                    conv2d_oi8[36]               
------ -------------------------------------------- ---------------------------- --------------- ----------- -------------------------- --- --------------- ------------------ ---------------------------- 
36     pack_36 (Pack, PACK)                         [b:1,h:8,w:8,d:2,c:96]                                                    conv2d_35   |                                    pack_oi8[37]                 
                                                                                                                              conv2d_35   | 
------ -------------------------------------------- ---------------------------- --------------- ----------- -------------------------- --- --------------- ------------------ ---------------------------- 
37     pack_37 (Pack, PACK)                         [b:1,h:8,w:2,d:8,e:2,c:96]                                                  pack_36   |                                    pack_oi8[38]                 
                                                                                                                                pack_36   | 
------ -------------------------------------------- ---------------------------- --------------- ----------- -------------------------- --- --------------- ------------------ ---------------------------- 
38     reshape_38 (Reshape, RESHAPE)                [b:1,h:16,w:16,c:96]                                                        pack_37   |                                    
------ -------------------------------------------- ---------------------------- --------------- ----------- -------------------------- --- --------------- ------------------ ---------------------------- 
39     eltwise_39 (Eltwise, ADD)                    [b:1,h:16,w:16,c:96]                              24,576                   nl_16_nl   |                                    eltwise_integer_oi8[39]      
                                                                                                                             reshape_38   | 
------ -------------------------------------------- ---------------------------- --------------- ----------- -------------------------- --- --------------- ------------------ ---------------------------- 
40     gather_40 (Gather, GATHER)                   [b:1,h:16,w:16,c:48]         48/192                                      eltwise_39   |                                    gather_oi8[59]               
------ -------------------------------------------- ---------------------------- --------------- ----------- -------------------------- --- --------------- ------------------ ---------------------------- 
41     gather_41 (Gather, GATHER)                   [b:1,h:16,w:16,c:48]         48/192                                      eltwise_39   |                                    gather_oi8[40]               
------ -------------------------------------------- ---------------------------- --------------- ----------- -------------------------- --- --------------- ------------------ ---------------------------- 
42     conv2d_42 (Conv2D, DEPTHWISE_CONV_2D)        [b:1,h:16,w:16,c:48]         480/624             110,640                  gather_41   |                                    pad_oi8/conv2d_oi8[41, 42]   
       nl_42_nl (Nonlinearity, DEPTHWISE_CONV_2D)   [b:1,h:16,w:16,c:48]                              12,288                  conv2d_42   |                 -12,288(-100.0%)   
------ -------------------------------------------- ---------------------------- --------------- ----------- -------------------------- --- --------------- ------------------ ---------------------------- 
43     conv2d_43 (Conv2D, CONV_2D)                  [b:1,h:16,w:16,c:48]         2,352/2,496         589,872                   nl_42_nl   |                                    conv2d_oi8[43]               
       nl_43_nl (Nonlinearity, CONV_2D)             [b:1,h:16,w:16,c:48]                              12,288                  conv2d_43   |                 -12,288(-100.0%)   
------ -------------------------------------------- ---------------------------- --------------- ----------- -------------------------- --- --------------- ------------------ ---------------------------- 
44     pad_44 (Pad, PAD)                            [b:1,h:22,w:22,c:48]                                                       nl_43_nl   |                                    
------ -------------------------------------------- ---------------------------- --------------- ----------- -------------------------- --- --------------- ------------------ ---------------------------- 
45     conv2d_45 (Conv2D, DEPTHWISE_CONV_2D)        [b:1,h:16,w:16,c:48]         2,400/2,544         602,160                     pad_44   |                                    conv2d_oi8[44]               
       nl_45_nl (Nonlinearity, DEPTHWISE_CONV_2D)   [b:1,h:16,w:16,c:48]                              12,288                  conv2d_45   |                 -12,288(-100.0%)   
------ -------------------------------------------- ---------------------------- --------------- ----------- -------------------------- --- --------------- ------------------ ---------------------------- 
46     conv2d_46 (Conv2D, CONV_2D)                  [b:1,h:16,w:16,c:48]         2,352/2,496         589,872                   nl_45_nl   |                                    conv2d_oi8[45]               
       nl_46_nl (Nonlinearity, CONV_2D)             [b:1,h:16,w:16,c:48]                              12,288                  conv2d_46   |                 -12,288(-100.0%)   
------ -------------------------------------------- ---------------------------- --------------- ----------- -------------------------- --- --------------- ------------------ ---------------------------- 
47     conv2d_47 (Conv2D, DEPTHWISE_CONV_2D)        [b:1,h:16,w:16,c:48]         480/624             110,640                   nl_46_nl   |                                    pad_oi8/conv2d_oi8[46, 47]   
       nl_47_nl (Nonlinearity, DEPTHWISE_CONV_2D)   [b:1,h:16,w:16,c:48]                              12,288                  conv2d_47   |                 -12,288(-100.0%)   
------ -------------------------------------------- ---------------------------- --------------- ----------- -------------------------- --- --------------- ------------------ ---------------------------- 
48     eltwise_48 (Eltwise, ADD)                    [b:1,h:16,w:16,c:48]                              12,288                  gather_41   |                                    eltwise_integer_oi8[48]      
                                                                                                                               nl_47_nl   | 
------ -------------------------------------------- ---------------------------- --------------- ----------- -------------------------- --- --------------- ------------------ ---------------------------- 
49     gather_49 (Gather, GATHER)                   [b:1,h:16,w:16,c:24]         24/96                                       eltwise_48   |                                    gather_oi8[58]               
------ -------------------------------------------- ---------------------------- --------------- ----------- -------------------------- --- --------------- ------------------ ---------------------------- 
50     gather_50 (Gather, GATHER)                   [b:1,h:16,w:16,c:24]         24/96                                       eltwise_48   |                                    gather_oi8[49]               
------ -------------------------------------------- ---------------------------- --------------- ----------- -------------------------- --- --------------- ------------------ ---------------------------- 
51     conv2d_51 (Conv2D, DEPTHWISE_CONV_2D)        [b:1,h:16,w:16,c:24]         240/312              55,320                  gather_50   |                                    pad_oi8/conv2d_oi8[50, 51]   
       nl_51_nl (Nonlinearity, DEPTHWISE_CONV_2D)   [b:1,h:16,w:16,c:24]                               6,144                  conv2d_51   |                 -6,144(-100.0%)    
------ -------------------------------------------- ---------------------------- --------------- ----------- -------------------------- --- --------------- ------------------ ---------------------------- 
52     conv2d_52 (Conv2D, CONV_2D)                  [b:1,h:16,w:16,c:24]         600/672             147,480                   nl_51_nl   |                                    conv2d_oi8[52]               
       nl_52_nl (Nonlinearity, CONV_2D)             [b:1,h:16,w:16,c:24]                               6,144                  conv2d_52   |                 -6,144(-100.0%)    
------ -------------------------------------------- ---------------------------- --------------- ----------- -------------------------- --- --------------- ------------------ ---------------------------- 
53     pad_53 (Pad, PAD)                            [b:1,h:22,w:22,c:24]                                                       nl_52_nl   |                                    
------ -------------------------------------------- ---------------------------- --------------- ----------- -------------------------- --- --------------- ------------------ ---------------------------- 
54     conv2d_54 (Conv2D, DEPTHWISE_CONV_2D)        [b:1,h:16,w:16,c:24]         1,200/1,272         301,080                     pad_53   |                                    conv2d_oi8[53]               
       nl_54_nl (Nonlinearity, DEPTHWISE_CONV_2D)   [b:1,h:16,w:16,c:24]                               6,144                  conv2d_54   |                 -6,144(-100.0%)    
------ -------------------------------------------- ---------------------------- --------------- ----------- -------------------------- --- --------------- ------------------ ---------------------------- 
55     conv2d_55 (Conv2D, CONV_2D)                  [b:1,h:16,w:16,c:24]         600/672             147,480                   nl_54_nl   |                                    conv2d_oi8[54]               
       nl_55_nl (Nonlinearity, CONV_2D)             [b:1,h:16,w:16,c:24]                               6,144                  conv2d_55   |                 -6,144(-100.0%)    
------ -------------------------------------------- ---------------------------- --------------- ----------- -------------------------- --- --------------- ------------------ ---------------------------- 
56     conv2d_56 (Conv2D, DEPTHWISE_CONV_2D)        [b:1,h:16,w:16,c:24]         240/312              55,320                   nl_55_nl   |                                    pad_oi8/conv2d_oi8[55, 56]   
       nl_56_nl (Nonlinearity, DEPTHWISE_CONV_2D)   [b:1,h:16,w:16,c:24]                               6,144                  conv2d_56   |                 -6,144(-100.0%)    
------ -------------------------------------------- ---------------------------- --------------- ----------- -------------------------- --- --------------- ------------------ ---------------------------- 
57     eltwise_57 (Eltwise, ADD)                    [b:1,h:16,w:16,c:24]                               6,144                  gather_50   |                                    eltwise_integer_oi8[57]      
                                                                                                                               nl_56_nl   | 
------ -------------------------------------------- ---------------------------- --------------- ----------- -------------------------- --- --------------- ------------------ ---------------------------- 
58     concat_58 (Concat, CONCATENATION)            [b:1,h:16,w:16,c:96]                                                      gather_40   |                                    concat_oi8[60]               
                                                                                                                              gather_49   | 
                                                                                                                             eltwise_57   | 
------ -------------------------------------------- ---------------------------- --------------- ----------- -------------------------- --- --------------- ------------------ ---------------------------- 
59     conv2d_59 (Conv2D, CONV_2D)                  [b:1,h:16,w:16,c:96]         9,312/9,600       2,359,392                  concat_58   |                                    conv2d_oi8[61]               
       nl_59_nl (Nonlinearity, CONV_2D)             [b:1,h:16,w:16,c:96]                              24,576                  conv2d_59   |                 -24,576(-100.0%)   
------ -------------------------------------------- ---------------------------- --------------- ----------- -------------------------- --- --------------- ------------------ ---------------------------- 
60     eltwise_60 (Eltwise, ADD)                    [b:1,h:16,w:16,c:96]                              24,576                   nl_59_nl   |                                    eltwise_integer_oi8[64]      
                                                                                                                               conv2d_2   | 
------ -------------------------------------------- ---------------------------- --------------- ----------- -------------------------- --- --------------- ------------------ ---------------------------- 
61     gather_61 (Gather, GATHER)                   [b:1,h:16,w:16,c:48]         48/192                                      eltwise_60   |                                    gather_oi8[84]               
------ -------------------------------------------- ---------------------------- --------------- ----------- -------------------------- --- --------------- ------------------ ---------------------------- 
62     gather_62 (Gather, GATHER)                   [b:1,h:16,w:16,c:48]         48/192                                      eltwise_60   |                                    gather_oi8[65]               
------ -------------------------------------------- ---------------------------- --------------- ----------- -------------------------- --- --------------- ------------------ ---------------------------- 
63     conv2d_63 (Conv2D, DEPTHWISE_CONV_2D)        [b:1,h:16,w:16,c:48]         480/624             110,640                  gather_62   |                                    pad_oi8/conv2d_oi8[66, 67]   
       nl_63_nl (Nonlinearity, DEPTHWISE_CONV_2D)   [b:1,h:16,w:16,c:48]                              12,288                  conv2d_63   |                 -12,288(-100.0%)   
------ -------------------------------------------- ---------------------------- --------------- ----------- -------------------------- --- --------------- ------------------ ---------------------------- 
64     conv2d_64 (Conv2D, CONV_2D)                  [b:1,h:16,w:16,c:48]         2,352/2,496         589,872                   nl_63_nl   |                                    conv2d_oi8[68]               
       nl_64_nl (Nonlinearity, CONV_2D)             [b:1,h:16,w:16,c:48]                              12,288                  conv2d_64   |                 -12,288(-100.0%)   
------ -------------------------------------------- ---------------------------- --------------- ----------- -------------------------- --- --------------- ------------------ ---------------------------- 
65     pad_65 (Pad, PAD)                            [b:1,h:22,w:22,c:48]                                                       nl_64_nl   |                                    
------ -------------------------------------------- ---------------------------- --------------- ----------- -------------------------- --- --------------- ------------------ ---------------------------- 
66     conv2d_66 (Conv2D, DEPTHWISE_CONV_2D)        [b:1,h:16,w:16,c:48]         2,400/2,544         602,160                     pad_65   |                                    conv2d_oi8[69]               
       nl_66_nl (Nonlinearity, DEPTHWISE_CONV_2D)   [b:1,h:16,w:16,c:48]                              12,288                  conv2d_66   |                 -12,288(-100.0%)   
------ -------------------------------------------- ---------------------------- --------------- ----------- -------------------------- --- --------------- ------------------ ---------------------------- 
67     conv2d_67 (Conv2D, CONV_2D)                  [b:1,h:16,w:16,c:48]         2,352/2,496         589,872                   nl_66_nl   |                                    conv2d_oi8[70]               
       nl_67_nl (Nonlinearity, CONV_2D)             [b:1,h:16,w:16,c:48]                              12,288                  conv2d_67   |                 -12,288(-100.0%)   
------ -------------------------------------------- ---------------------------- --------------- ----------- -------------------------- --- --------------- ------------------ ---------------------------- 
68     conv2d_68 (Conv2D, DEPTHWISE_CONV_2D)        [b:1,h:16,w:16,c:48]         480/624             110,640                   nl_67_nl   |                                    pad_oi8/conv2d_oi8[71, 72]   
       nl_68_nl (Nonlinearity, DEPTHWISE_CONV_2D)   [b:1,h:16,w:16,c:48]                              12,288                  conv2d_68   |                 -12,288(-100.0%)   
------ -------------------------------------------- ---------------------------- --------------- ----------- -------------------------- --- --------------- ------------------ ---------------------------- 
69     eltwise_69 (Eltwise, ADD)                    [b:1,h:16,w:16,c:48]                              12,288                  gather_62   |                                    eltwise_integer_oi8[73]      
                                                                                                                               nl_68_nl   | 
------ -------------------------------------------- ---------------------------- --------------- ----------- -------------------------- --- --------------- ------------------ ---------------------------- 
70     gather_70 (Gather, GATHER)                   [b:1,h:16,w:16,c:24]         24/96                                       eltwise_69   |                                    gather_oi8[83]               
------ -------------------------------------------- ---------------------------- --------------- ----------- -------------------------- --- --------------- ------------------ ---------------------------- 
71     gather_71 (Gather, GATHER)                   [b:1,h:16,w:16,c:24]         24/96                                       eltwise_69   |                                    gather_oi8[74]               
------ -------------------------------------------- ---------------------------- --------------- ----------- -------------------------- --- --------------- ------------------ ---------------------------- 
72     conv2d_72 (Conv2D, DEPTHWISE_CONV_2D)        [b:1,h:16,w:16,c:24]         240/312              55,320                  gather_71   |                                    pad_oi8/conv2d_oi8[75, 76]   
       nl_72_nl (Nonlinearity, DEPTHWISE_CONV_2D)   [b:1,h:16,w:16,c:24]                               6,144                  conv2d_72   |                 -6,144(-100.0%)    
------ -------------------------------------------- ---------------------------- --------------- ----------- -------------------------- --- --------------- ------------------ ---------------------------- 
73     conv2d_73 (Conv2D, CONV_2D)                  [b:1,h:16,w:16,c:24]         600/672             147,480                   nl_72_nl   |                                    conv2d_oi8[77]               
       nl_73_nl (Nonlinearity, CONV_2D)             [b:1,h:16,w:16,c:24]                               6,144                  conv2d_73   |                 -6,144(-100.0%)    
------ -------------------------------------------- ---------------------------- --------------- ----------- -------------------------- --- --------------- ------------------ ---------------------------- 
74     pad_74 (Pad, PAD)                            [b:1,h:22,w:22,c:24]                                                       nl_73_nl   |                                    
------ -------------------------------------------- ---------------------------- --------------- ----------- -------------------------- --- --------------- ------------------ ---------------------------- 
75     conv2d_75 (Conv2D, DEPTHWISE_CONV_2D)        [b:1,h:16,w:16,c:24]         1,200/1,272         301,080                     pad_74   |                                    conv2d_oi8[78]               
       nl_75_nl (Nonlinearity, DEPTHWISE_CONV_2D)   [b:1,h:16,w:16,c:24]                               6,144                  conv2d_75   |                 -6,144(-100.0%)    
------ -------------------------------------------- ---------------------------- --------------- ----------- -------------------------- --- --------------- ------------------ ---------------------------- 
76     conv2d_76 (Conv2D, CONV_2D)                  [b:1,h:16,w:16,c:24]         600/672             147,480                   nl_75_nl   |                                    conv2d_oi8[79]               
       nl_76_nl (Nonlinearity, CONV_2D)             [b:1,h:16,w:16,c:24]                               6,144                  conv2d_76   |                 -6,144(-100.0%)    
------ -------------------------------------------- ---------------------------- --------------- ----------- -------------------------- --- --------------- ------------------ ---------------------------- 
77     conv2d_77 (Conv2D, DEPTHWISE_CONV_2D)        [b:1,h:16,w:16,c:24]         240/312              55,320                   nl_76_nl   |                                    pad_oi8/conv2d_oi8[80, 81]   
       nl_77_nl (Nonlinearity, DEPTHWISE_CONV_2D)   [b:1,h:16,w:16,c:24]                               6,144                  conv2d_77   |                 -6,144(-100.0%)    
------ -------------------------------------------- ---------------------------- --------------- ----------- -------------------------- --- --------------- ------------------ ---------------------------- 
78     eltwise_78 (Eltwise, ADD)                    [b:1,h:16,w:16,c:24]                               6,144                  gather_71   |                                    eltwise_integer_oi8[82]      
                                                                                                                               nl_77_nl   | 
------ -------------------------------------------- ---------------------------- --------------- ----------- -------------------------- --- --------------- ------------------ ---------------------------- 
79     concat_79 (Concat, CONCATENATION)            [b:1,h:16,w:16,c:96]                                                      gather_61   |                                    concat_oi8[85]               
                                                                                                                              gather_70   | 
                                                                                                                             eltwise_78   | 
------ -------------------------------------------- ---------------------------- --------------- ----------- -------------------------- --- --------------- ------------------ ---------------------------- 
80     conv2d_80 (Conv2D, CONV_2D)                  [b:1,h:16,w:16,c:96]         9,312/9,600       2,359,392                  concat_79   |                                    conv2d_oi8[86]               
       nl_80_nl (Nonlinearity, CONV_2D)             [b:1,h:16,w:16,c:96]                              24,576                  conv2d_80   |                 -24,576(-100.0%)   
------ -------------------------------------------- ---------------------------- --------------- ----------- -------------------------- --- --------------- ------------------ ---------------------------- 
81     conv2d_81 (Conv2D, CONV_2D)                  [b:1,h:16,w:16,c:1]          97/100               24,577                   nl_80_nl   | -100(-100.0%)   -24,577(-100.0%)   
------ -------------------------------------------- ---------------------------- --------------- ----------- -------------------------- --- --------------- ------------------ ---------------------------- 
82     nl_82 (Nonlinearity, LOGISTIC)               [b:1,h:16,w:16,c:1]                                2,560                  conv2d_81   | +100(+100.0%)   +22,273(+870.0%)   conv2d_oi8[96]               
------ -------------------------------------------- ---------------------------- --------------- ----------- -------------------------- --- --------------- ------------------ ---------------------------- 
83     conversion_83 (Conversion, QUANTIZE)         [b:1,h:16,w:16,c:1]                                  512                      nl_82   |                 -512(-100.0%)      
------ -------------------------------------------- ---------------------------- --------------- ----------- -------------------------- --- --------------- ------------------ ---------------------------- 
84     pad_84 (Pad, PAD)                            [b:1,h:20,w:20,c:96]                                                       nl_80_nl   |                                    
------ -------------------------------------------- ---------------------------- --------------- ----------- -------------------------- --- --------------- ------------------ ---------------------------- 
85     conv2d_85 (Conv2D, DEPTHWISE_CONV_2D)        [b:1,h:16,w:16,c:96]         2,496/2,784         614,496                     pad_84   |                                    conv2d_oi8[87]               
       nl_85_nl (Nonlinearity, DEPTHWISE_CONV_2D)   [b:1,h:16,w:16,c:96]                              24,576                  conv2d_85   |                 -24,576(-100.0%)   
------ -------------------------------------------- ---------------------------- --------------- ----------- -------------------------- --- --------------- ------------------ ---------------------------- 
86     conv2d_86 (Conv2D, CONV_2D)                  [b:1,h:16,w:16,c:96]         9,312/9,600       2,359,392                   nl_85_nl   |                                    conv2d_oi8[88]               
       nl_86_nl (Nonlinearity, CONV_2D)             [b:1,h:16,w:16,c:96]                              24,576                  conv2d_86   |                 -24,576(-100.0%)   
------ -------------------------------------------- ---------------------------- --------------- ----------- -------------------------- --- --------------- ------------------ ---------------------------- 
87     pad_87 (Pad, PAD)                            [b:1,h:20,w:20,c:96]                                                       nl_86_nl   |                                    
------ -------------------------------------------- ---------------------------- --------------- ----------- -------------------------- --- --------------- ------------------ ---------------------------- 
88     conv2d_88 (Conv2D, DEPTHWISE_CONV_2D)        [b:1,h:16,w:16,c:96]         2,496/2,784         614,496                     pad_87   |                                    conv2d_oi8[89]               
       nl_88_nl (Nonlinearity, DEPTHWISE_CONV_2D)   [b:1,h:16,w:16,c:96]                              24,576                  conv2d_88   |                 -24,576(-100.0%)   
------ -------------------------------------------- ---------------------------- --------------- ----------- -------------------------- --- --------------- ------------------ ---------------------------- 
89     conv2d_89 (Conv2D, CONV_2D)                  [b:1,h:16,w:16,c:96]         9,312/9,600       2,359,392                   nl_88_nl   |                                    conv2d_oi8[90]               
       nl_89_nl (Nonlinearity, CONV_2D)             [b:1,h:16,w:16,c:96]                              24,576                  conv2d_89   |                 -24,576(-100.0%)   
------ -------------------------------------------- ---------------------------- --------------- ----------- -------------------------- --- --------------- ------------------ ---------------------------- 
90     conv2d_90 (Conv2D, CONV_2D)                  [b:1,h:16,w:16,c:4]          388/400              98,308                   nl_89_nl   |                                    conv2d_oi8[91]               
------ -------------------------------------------- ---------------------------- --------------- ----------- -------------------------- --- --------------- ------------------ ---------------------------- 
91     gather_91 (Gather, GATHER)                   [b:1,h:16,w:16,c:2]          2/8                                          conv2d_90   |                                    gather_oi8[94]               
------ -------------------------------------------- ---------------------------- --------------- ----------- -------------------------- --- --------------- ------------------ ---------------------------- 
92     nl_92 (Nonlinearity, TANH)                   [b:1,h:16,w:16,c:2]                                5,120                  gather_91   |                 -4,608(-90.0%)     nl_oi8[95]                   
------ -------------------------------------------- ---------------------------- --------------- ----------- -------------------------- --- --------------- ------------------ ---------------------------- 
93     conversion_93 (Conversion, QUANTIZE)         [b:1,h:16,w:16,c:2]                                1,024                      nl_92   |                 -1,024(-100.0%)    
------ -------------------------------------------- ---------------------------- --------------- ----------- -------------------------- --- --------------- ------------------ ---------------------------- 
94     gather_94 (Gather, GATHER)                   [b:1,h:16,w:16,c:2]          2/8                                          conv2d_90   |                                    gather_oi8[92]               
------ -------------------------------------------- ---------------------------- --------------- ----------- -------------------------- --- --------------- ------------------ ---------------------------- 
95     nl_95 (Nonlinearity, LOGISTIC)               [b:1,h:16,w:16,c:2]                                5,120                  gather_94   |                 -4,608(-90.0%)     nl_oi8[93]                   
------ -------------------------------------------- ---------------------------- --------------- ----------- -------------------------- --- --------------- ------------------ ---------------------------- 
96     conversion_96 (Conversion, QUANTIZE)         [b:1,h:16,w:16,c:2]                                1,024                      nl_95   |                 -1,024(-100.0%)    
------ -------------------------------------------- ---------------------------- --------------- ----------- -------------------------- --- --------------- ------------------ ---------------------------- 
97     concat_97 (Concat, CONCATENATION)            [b:1,h:16,w:16,c:5]                                                   conversion_83   |                                    concat_oi8[97]               
                                                                                                                          conversion_93   | 
                                                                                                                          conversion_96   | 
------ -------------------------------------------- ---------------------------- --------------- ----------- -------------------------- --- --------------- ------------------ ---------------------------- 
98     transpose_98 (Transpose, TRANSPOSE)          [b:1,h:5,w:16,c:16]                                                       concat_97   |                                    transpose_oi8[98]            
------ -------------------------------------------- ---------------------------- --------------- ----------- -------------------------- --- --------------- ------------------ ---------------------------- 
99     reshape_99 (Reshape, RESHAPE)                [b:1,h:5,c:256]                                                        transpose_98   |                                    
------ -------------------------------------------- ---------------------------- --------------- ----------- -------------------------- --- --------------- ------------------ ---------------------------- 
100    transpose_100 (Transpose, TRANSPOSE)         [b:1,h:256,c:5]                                                          reshape_99   |                                    transpose_oi8[99]            
------ -------------------------------------------- ---------------------------- --------------- ----------- -------------------------- --- --------------- ------------------ ---------------------------- 
101    conversion_101 (Conversion, DEQUANTIZE)      [b:1,h:256,c:5]                                    2,560              transpose_100   |                                    converter_of32[o][100]       
------ -------------------------------------------- ---------------------------- --------------- ----------- -------------------------- --- --------------- ------------------ ---------------------------- 
model/c-model: macc=28,273,701/27,841,829 -431,872(-1.5%) weights=184,476/182,940 -1,536(-0.8%) activations=--/125,236 io=--/0



Generated C-graph summary
------------------------------------------------------------------------------------------------------------------------
model name            : model_post
c-name                : network_2
c-node #              : 101
c-array #             : 253
activations size      : 125236 (1 segment)
weights size          : 182940 (1 segment)
macc                  : 27841829
inputs                : ['serving_default_input_20_output']
outputs               : ['conversion_101_output']

C-Arrays (253)
------ --------------------------------- ------------- ------------------------- --------------- -------------- --------- 
c_id   name (*_array)                    item/size     domain/mem-pool           c-type          fmt            comment   
------ --------------------------------- ------------- ------------------------- --------------- -------------- --------- 
0      conv2d_4_scratch0                 1152/1152     activations/**default**   int8_t          s8                       
1      conv2d_81_bias                    1/4           weights/weights           const int32_t   ss32                     
2      conv2d_7_scratch0                 1777/1777     activations/**default**   int8_t          s8                       
3      conv2d_8_scratch0                 672/672       activations/**default**   int8_t          s8                       
4      conv2d_12_scratch0                889/889       activations/**default**   int8_t          s8                       
5      conv2d_13_scratch0                336/336       activations/**default**   int8_t          s8                       
6      conv2d_16_scratch0                1344/1344     activations/**default**   int8_t          s8                       
7      conv2d_18_scratch0                3553/3553     activations/**default**   int8_t          s8                       
8      conv2d_19_scratch0                2304/2304     activations/**default**   int8_t          s8                       
9      conv2d_22_scratch0                3553/3553     activations/**default**   int8_t          s8                       
10     conv2d_23_scratch0                1344/1344     activations/**default**   int8_t          s8                       
11     conv2d_26_scratch0                2688/2688     activations/**default**   int8_t          s8                       
12     conv2d_35_scratch0                1728/1728     activations/**default**   int8_t          s8                       
13     conv2d_42_scratch0                1777/1777     activations/**default**   int8_t          s8                       
14     conv2d_43_scratch0                672/672       activations/**default**   int8_t          s8                       
15     conv2d_45_scratch0                7537/7537     activations/**default**   int8_t          s8                       
16     conv2d_45_scratch1                12288/12288   activations/**default**   int8_t          sa8                      
17     conv2d_46_scratch0                672/672       activations/**default**   int8_t          s8                       
18     conv2d_3_weights                  432/432       weights/weights           const int8_t    ss8/ch(48)               
19     conv2d_47_scratch0                1777/1777     activations/**default**   int8_t          s8                       
20     conv2d_3_bias                     48/192        weights/weights           const int32_t   ss32/ch(48)              
21     conv2d_47_scratch1                12288/12288   activations/**default**   int8_t          sa8                      
22     conv2d_4_weights                  4608/4608     weights/weights           const int8_t    ss8/ch(96)               
23     conv2d_51_scratch0                889/889       activations/**default**   int8_t          s8                       
24     conv2d_4_bias                     96/384        weights/weights           const int32_t   ss32/ch(96)              
25     conv2d_52_scratch0                336/336       activations/**default**   int8_t          s8                       
26     gather_6_indices                  48/192        weights/weights           const int32_t   s32                      
27     conv2d_54_scratch0                3769/3769     activations/**default**   int8_t          s8                       
28     conv2d_7_weights                  432/432       weights/weights           const int8_t    ss8/ch(48)               
29     conv2d_54_scratch1                6144/6144     activations/**default**   int8_t          sa8                      
30     conv2d_7_bias                     48/192        weights/weights           const int32_t   ss32/ch(48)              
31     conv2d_55_scratch0                336/336       activations/**default**   int8_t          s8                       
32     conv2d_8_weights                  2304/2304     weights/weights           const int8_t    ss8/ch(48)               
33     conv2d_8_bias                     48/192        weights/weights           const int32_t   ss32/ch(48)              
34     conv2d_56_scratch0                889/889       activations/**default**   int8_t          s8                       
35     conv2d_56_scratch1                6144/6144     activations/**default**   int8_t          sa8                      
36     gather_11_indices                 24/96         weights/weights           const int32_t   s32                      
37     conv2d_12_weights                 216/216       weights/weights           const int8_t    ss8/ch(24)               
38     conv2d_59_scratch0                1344/1344     activations/**default**   int8_t          s8                       
39     conv2d_12_bias                    24/96         weights/weights           const int32_t   ss32/ch(24)              
40     conv2d_1_scratch0                 1777/1777     activations/**default**   int8_t          s8                       
41     conv2d_13_weights                 576/576       weights/weights           const int8_t    ss8/ch(24)               
42     conv2d_2_scratch0                 1152/1152     activations/**default**   int8_t          s8                       
43     conv2d_13_bias                    24/96         weights/weights           const int32_t   ss32/ch(24)              
44     conv2d_63_scratch0                1777/1777     activations/**default**   int8_t          s8                       
45     gather_10_indices                 24/96         weights/weights           const int32_t   s32                      
46     gather_5_indices                  48/192        weights/weights           const int32_t   s32                      
47     conv2d_64_scratch0                672/672       activations/**default**   int8_t          s8                       
48     conv2d_16_weights                 9216/9216     weights/weights           const int8_t    ss8/ch(96)               
49     conv2d_66_scratch0                7537/7537     activations/**default**   int8_t          s8                       
50     conv2d_16_bias                    96/384        weights/weights           const int32_t   ss32/ch(96)              
51     conv2d_66_scratch1                12288/12288   activations/**default**   int8_t          sa8                      
52     conv2d_18_weights                 864/864       weights/weights           const int8_t    ss8/ch(96)               
53     conv2d_67_scratch0                672/672       activations/**default**   int8_t          s8                       
54     conv2d_18_bias                    96/384        weights/weights           const int32_t   ss32/ch(96)              
55     conv2d_68_scratch0                1777/1777     activations/**default**   int8_t          s8                       
56     conv2d_19_weights                 18432/18432   weights/weights           const int8_t    ss8/ch(192)              
57     conv2d_68_scratch1                12288/12288   activations/**default**   int8_t          sa8                      
58     conv2d_19_bias                    192/768       weights/weights           const int32_t   ss32/ch(192)             
59     conv2d_72_scratch0                889/889       activations/**default**   int8_t          s8                       
60     gather_21_indices                 96/384        weights/weights           const int32_t   s32                      
61     conv2d_73_scratch0                336/336       activations/**default**   int8_t          s8                       
62     conv2d_22_weights                 864/864       weights/weights           const int8_t    ss8/ch(96)               
63     conv2d_22_bias                    96/384        weights/weights           const int32_t   ss32/ch(96)              
64     conv2d_75_scratch0                3769/3769     activations/**default**   int8_t          s8                       
65     conv2d_75_scratch1                6144/6144     activations/**default**   int8_t          sa8                      
66     conv2d_23_weights                 9216/9216     weights/weights           const int8_t    ss8/ch(96)               
67     conv2d_23_bias                    96/384        weights/weights           const int32_t   ss32/ch(96)              
68     conv2d_76_scratch0                336/336       activations/**default**   int8_t          s8                       
69     gather_20_indices                 96/384        weights/weights           const int32_t   s32                      
70     conv2d_77_scratch0                889/889       activations/**default**   int8_t          s8                       
71     conv2d_26_weights                 36864/36864   weights/weights           const int8_t    ss8/ch(192)              
72     conv2d_77_scratch1                6144/6144     activations/**default**   int8_t          sa8                      
73     conv2d_26_bias                    192/768       weights/weights           const int32_t   ss32/ch(192)             
74     conv2d_80_scratch0                1344/1344     activations/**default**   int8_t          s8                       
75     gather_32_indices                 48/192        weights/weights           const int32_t   s32                      
76     conv2d_85_scratch0                8161/8161     activations/**default**   int8_t          s8                       
77     gather_30_indices                 48/192        weights/weights           const int32_t   s32                      
78     conv2d_85_scratch1                24576/24576   activations/**default**   int8_t          sa8                      
79     conv2d_86_scratch0                1344/1344     activations/**default**   int8_t          s8                       
80     conv2d_88_scratch0                8161/8161     activations/**default**   int8_t          s8                       
81     conv2d_35_weights                 18432/18432   weights/weights           const int8_t    ss8/ch(96)               
82     conv2d_88_scratch1                24576/24576   activations/**default**   int8_t          sa8                      
83     conv2d_35_bias                    96/384        weights/weights           const int32_t   ss32/ch(96)              
84     conv2d_89_scratch0                1344/1344     activations/**default**   int8_t          s8                       
85     conv2d_89_scratch1                24576/24576   activations/**default**   int8_t          sa8                      
86     conv2d_42_weights                 432/432       weights/weights           const int8_t    ss8/ch(48)               
87     conv2d_90_scratch0                424/424       activations/**default**   int8_t          s8                       
88     conv2d_42_bias                    48/192        weights/weights           const int32_t   ss32/ch(48)              
89     conv2d_43_weights                 2304/2304     weights/weights           const int8_t    ss8/ch(48)               
90     conv2d_81_scratch0                384/384       activations/**default**   int8_t          s8                       
91     conv2d_81_scratch1                256/256       activations/**default**   int8_t          sa8                      
92     conv2d_43_bias                    48/192        weights/weights           const int32_t   ss32/ch(48)              
93     conv2d_45_weights                 2352/2352     weights/weights           const int8_t    ss8/ch(48)               
94     conv2d_45_bias                    48/192        weights/weights           const int32_t   ss32/ch(48)              
95     conv2d_46_weights                 2304/2304     weights/weights           const int8_t    ss8/ch(48)               
96     conv2d_46_bias                    48/192        weights/weights           const int32_t   ss32/ch(48)              
97     conv2d_47_weights                 432/432       weights/weights           const int8_t    ss8/ch(48)               
98     conv2d_47_bias                    48/192        weights/weights           const int32_t   ss32/ch(48)              
99     conv2d_51_weights                 216/216       weights/weights           const int8_t    ss8/ch(24)               
100    conv2d_51_bias                    24/96         weights/weights           const int32_t   ss32/ch(24)              
101    conv2d_52_weights                 576/576       weights/weights           const int8_t    ss8/ch(24)               
102    conv2d_52_bias                    24/96         weights/weights           const int32_t   ss32/ch(24)              
103    conv2d_54_weights                 1176/1176     weights/weights           const int8_t    ss8/ch(24)               
104    conv2d_54_bias                    24/96         weights/weights           const int32_t   ss32/ch(24)              
105    conv2d_55_weights                 576/576       weights/weights           const int8_t    ss8/ch(24)               
106    serving_default_input_20_output   49152/49152   activations/**default**   int8_t          sa8            /input    
107    pad_0_output                      55488/55488   activations/**default**   int8_t          sa8                      
108    conv2d_55_bias                    24/96         weights/weights           const int32_t   ss32/ch(24)              
109    conv2d_3_output                   12288/12288   activations/**default**   int8_t          sa8                      
110    conv2d_4_output                   24576/24576   activations/**default**   int8_t          sa8                      
111    conv2d_56_weights                 216/216       weights/weights           const int8_t    ss8/ch(24)               
112    gather_6_output                   12288/12288   activations/**default**   int8_t          sa8                      
113    conv2d_7_pad_before_output        15552/15552   activations/**default**   int8_t          sa8                      
114    conv2d_56_bias                    24/96         weights/weights           const int32_t   ss32/ch(24)              
115    conv2d_7_output                   12288/12288   activations/**default**   int8_t          sa8                      
116    conv2d_8_output                   12288/12288   activations/**default**   int8_t          sa8                      
117    eltwise_9_output                  12288/12288   activations/**default**   int8_t          sa8                      
118    gather_11_output                  6144/6144     activations/**default**   int8_t          sa8                      
119    conv2d_12_pad_before_output       7776/7776     activations/**default**   int8_t          sa8                      
120    conv2d_12_output                  6144/6144     activations/**default**   int8_t          sa8                      
121    conv2d_59_weights                 9216/9216     weights/weights           const int8_t    ss8/ch(96)               
122    conv2d_13_output                  6144/6144     activations/**default**   int8_t          sa8                      
123    eltwise_14_output                 6144/6144     activations/**default**   int8_t          sa8                      
124    conv2d_59_bias                    96/384        weights/weights           const int32_t   ss32/ch(96)              
125    gather_10_output                  6144/6144     activations/**default**   int8_t          sa8                      
126    gather_5_output                   12288/12288   activations/**default**   int8_t          sa8                      
127    conv2d_1_weights                  432/432       weights/weights           const int8_t    ss8/ch(48)               
128    concat_15_output                  24576/24576   activations/**default**   int8_t          sa8                      
129    conv2d_16_output                  24576/24576   activations/**default**   int8_t          sa8                      
130    conv2d_1_bias                     48/192        weights/weights           const int32_t   ss32/ch(48)              
131    conv2d_18_pad_before_output       31104/31104   activations/**default**   int8_t          sa8                      
132    conv2d_18_output                  6144/6144     activations/**default**   int8_t          sa8                      
133    conv2d_2_weights                  4608/4608     weights/weights           const int8_t    ss8/ch(96)               
134    conv2d_19_output                  12288/12288   activations/**default**   int8_t          sa8                      
135    gather_21_output                  6144/6144     activations/**default**   int8_t          sa8                      
136    conv2d_2_bias                     96/384        weights/weights           const int32_t   ss32/ch(96)              
137    conv2d_22_pad_before_output       9600/9600     activations/**default**   int8_t          sa8                      
138    conv2d_22_output                  6144/6144     activations/**default**   int8_t          sa8                      
139    conv2d_23_output                  6144/6144     activations/**default**   int8_t          sa8                      
140    eltwise_24_output                 6144/6144     activations/**default**   int8_t          sa8                      
141    conv2d_63_weights                 432/432       weights/weights           const int8_t    ss8/ch(48)               
142    gather_20_output                  6144/6144     activations/**default**   int8_t          sa8                      
143    concat_25_output                  12288/12288   activations/**default**   int8_t          sa8                      
144    conv2d_63_bias                    48/192        weights/weights           const int32_t   ss32/ch(48)              
145    conv2d_26_output                  12288/12288   activations/**default**   int8_t          sa8                      
146    gather_32_output                  3072/3072     activations/**default**   int8_t          sa8                      
147    conv2d_64_weights                 2304/2304     weights/weights           const int8_t    ss8/ch(48)               
148    pool_33_output                    3072/3072     activations/**default**   int8_t          sa8                      
149    gather_30_output                  3072/3072     activations/**default**   int8_t          sa8                      
150    conv2d_64_bias                    48/192        weights/weights           const int32_t   ss32/ch(48)              
151    pool_31_output                    3072/3072     activations/**default**   int8_t          sa8                      
152    gather_28_output                  3072/3072     activations/**default**   int8_t          sa8                      
153    conv2d_66_weights                 2352/2352     weights/weights           const int8_t    ss8/ch(48)               
154    pool_29_output                    3072/3072     activations/**default**   int8_t          sa8                      
155    gather_27_output                  3072/3072     activations/**default**   int8_t          sa8                      
156    conv2d_66_bias                    48/192        weights/weights           const int32_t   ss32/ch(48)              
157    concat_34_output                  12288/12288   activations/**default**   int8_t          sa8                      
158    conv2d_35_output                  6144/6144     activations/**default**   int8_t          sa8                      
159    conv2d_67_weights                 2304/2304     weights/weights           const int8_t    ss8/ch(48)               
160    pack_36_output                    12288/12288   activations/**default**   int8_t          sa8                      
161    pack_37_output                    24576/24576   activations/**default**   int8_t          sa8                      
162    conv2d_67_bias                    48/192        weights/weights           const int32_t   ss32/ch(48)              
163    eltwise_39_output                 24576/24576   activations/**default**   int8_t          sa8                      
164    gather_41_output                  12288/12288   activations/**default**   int8_t          sa8                      
165    conv2d_68_weights                 432/432       weights/weights           const int8_t    ss8/ch(48)               
166    conv2d_42_pad_before_output       15552/15552   activations/**default**   int8_t          sa8                      
167    conv2d_42_output                  12288/12288   activations/**default**   int8_t          sa8                      
168    conv2d_68_bias                    48/192        weights/weights           const int32_t   ss32/ch(48)              
169    conv2d_43_output                  12288/12288   activations/**default**   int8_t          sa8                      
170    conv2d_45_output                  12288/12288   activations/**default**   int8_t          sa8                      
171    conv2d_46_output                  12288/12288   activations/**default**   int8_t          sa8                      
172    conv2d_47_pad_before_output       15552/15552   activations/**default**   int8_t          sa8                      
173    conv2d_72_weights                 216/216       weights/weights           const int8_t    ss8/ch(24)               
174    conv2d_47_output                  12288/12288   activations/**default**   int8_t          sa8                      
175    eltwise_48_output                 12288/12288   activations/**default**   int8_t          sa8                      
176    conv2d_72_bias                    24/96         weights/weights           const int32_t   ss32/ch(24)              
177    gather_50_output                  6144/6144     activations/**default**   int8_t          sa8                      
178    conv2d_51_pad_before_output       7776/7776     activations/**default**   int8_t          sa8                      
179    conv2d_73_weights                 576/576       weights/weights           const int8_t    ss8/ch(24)               
180    conv2d_51_output                  6144/6144     activations/**default**   int8_t          sa8                      
181    conv2d_52_output                  6144/6144     activations/**default**   int8_t          sa8                      
182    conv2d_73_bias                    24/96         weights/weights           const int32_t   ss32/ch(24)              
183    conv2d_54_output                  6144/6144     activations/**default**   int8_t          sa8                      
184    conv2d_55_output                  6144/6144     activations/**default**   int8_t          sa8                      
185    conv2d_75_weights                 1176/1176     weights/weights           const int8_t    ss8/ch(24)               
186    conv2d_56_pad_before_output       7776/7776     activations/**default**   int8_t          sa8                      
187    conv2d_56_output                  6144/6144     activations/**default**   int8_t          sa8                      
188    conv2d_75_bias                    24/96         weights/weights           const int32_t   ss32/ch(24)              
189    eltwise_57_output                 6144/6144     activations/**default**   int8_t          sa8                      
190    gather_49_output                  6144/6144     activations/**default**   int8_t          sa8                      
191    conv2d_76_weights                 576/576       weights/weights           const int8_t    ss8/ch(24)               
192    gather_40_output                  12288/12288   activations/**default**   int8_t          sa8                      
193    concat_58_output                  24576/24576   activations/**default**   int8_t          sa8                      
194    conv2d_76_bias                    24/96         weights/weights           const int32_t   ss32/ch(24)              
195    conv2d_59_output                  24576/24576   activations/**default**   int8_t          sa8                      
196    conv2d_1_output                   12288/12288   activations/**default**   int8_t          sa8                      
197    conv2d_77_weights                 216/216       weights/weights           const int8_t    ss8/ch(24)               
198    conv2d_2_output                   24576/24576   activations/**default**   int8_t          sa8                      
199    eltwise_60_output                 24576/24576   activations/**default**   int8_t          sa8                      
200    conv2d_77_bias                    24/96         weights/weights           const int32_t   ss32/ch(24)              
201    gather_62_output                  12288/12288   activations/**default**   int8_t          sa8                      
202    conv2d_63_pad_before_output       15552/15552   activations/**default**   int8_t          sa8                      
203    conv2d_63_output                  12288/12288   activations/**default**   int8_t          sa8                      
204    conv2d_64_output                  12288/12288   activations/**default**   int8_t          sa8                      
205    conv2d_66_output                  12288/12288   activations/**default**   int8_t          sa8                      
206    conv2d_67_output                  12288/12288   activations/**default**   int8_t          sa8                      
207    conv2d_80_weights                 9216/9216     weights/weights           const int8_t    ss8/ch(96)               
208    conv2d_68_pad_before_output       15552/15552   activations/**default**   int8_t          sa8                      
209    conv2d_68_output                  12288/12288   activations/**default**   int8_t          sa8                      
210    conv2d_80_bias                    96/384        weights/weights           const int32_t   ss32/ch(96)              
211    eltwise_69_output                 12288/12288   activations/**default**   int8_t          sa8                      
212    gather_71_output                  6144/6144     activations/**default**   int8_t          sa8                      
213    conv2d_85_weights                 2400/2400     weights/weights           const int8_t    ss8/ch(96)               
214    conv2d_72_pad_before_output       7776/7776     activations/**default**   int8_t          sa8                      
215    conv2d_72_output                  6144/6144     activations/**default**   int8_t          sa8                      
216    conv2d_85_bias                    96/384        weights/weights           const int32_t   ss32/ch(96)              
217    conv2d_73_output                  6144/6144     activations/**default**   int8_t          sa8                      
218    conv2d_75_output                  6144/6144     activations/**default**   int8_t          sa8                      
219    conv2d_86_weights                 9216/9216     weights/weights           const int8_t    ss8/ch(96)               
220    conv2d_76_output                  6144/6144     activations/**default**   int8_t          sa8                      
221    conv2d_77_pad_before_output       7776/7776     activations/**default**   int8_t          sa8                      
222    conv2d_86_bias                    96/384        weights/weights           const int32_t   ss32/ch(96)              
223    conv2d_77_output                  6144/6144     activations/**default**   int8_t          sa8                      
224    eltwise_78_output                 6144/6144     activations/**default**   int8_t          sa8                      
225    conv2d_88_weights                 2400/2400     weights/weights           const int8_t    ss8/ch(96)               
226    gather_70_output                  6144/6144     activations/**default**   int8_t          sa8                      
227    gather_61_output                  12288/12288   activations/**default**   int8_t          sa8                      
228    conv2d_88_bias                    96/384        weights/weights           const int32_t   ss32/ch(96)              
229    concat_79_output                  24576/24576   activations/**default**   int8_t          sa8                      
230    conv2d_80_output                  24576/24576   activations/**default**   int8_t          sa8                      
231    conv2d_89_weights                 9216/9216     weights/weights           const int8_t    ss8/ch(96)               
232    conv2d_85_output                  24576/24576   activations/**default**   int8_t          sa8                      
233    conv2d_86_output                  24576/24576   activations/**default**   int8_t          sa8                      
234    conv2d_89_bias                    96/384        weights/weights           const int32_t   ss32/ch(96)              
235    conv2d_88_output                  24576/24576   activations/**default**   int8_t          sa8                      
236    conv2d_89_output                  24576/24576   activations/**default**   int8_t          sa8                      
237    conv2d_90_weights                 384/384       weights/weights           const int8_t    ss8/ch(4)                
238    conv2d_90_output                  1024/1024     activations/**default**   int8_t          sa8                      
239    gather_94_output                  512/512       activations/**default**   int8_t          sa8                      
240    conv2d_90_bias                    4/16          weights/weights           const int32_t   ss32/ch(4)               
241    nl_95_output                      512/512       activations/**default**   int8_t          sa8                      
242    gather_91_output                  512/512       activations/**default**   int8_t          sa8                      
243    gather_94_indices                 2/8           weights/weights           const int32_t   s32                      
244    nl_92_output                      512/512       activations/**default**   int8_t          ss8                      
245    conv2d_81_output                  256/256       activations/**default**   int8_t          sa8                      
246    gather_91_indices                 2/8           weights/weights           const int32_t   s32                      
247    concat_97_output                  1280/1280     activations/**default**   int8_t          sa8                      
248    transpose_98_output               1280/1280     activations/**default**   int8_t          sa8                      
249    conv2d_81_weights                 96/96         weights/weights           const int8_t    ss8                      
250    transpose_100_output              1280/1280     activations/**default**   int8_t          sa8                      
251    conversion_101_output             1280/5120     activations/**default**   float           float32        /output   
252    conv2d_3_scratch0                 1777/1777     activations/**default**   int8_t          s8                       
------ --------------------------------- ------------- ------------------------- --------------- -------------- --------- 

C-Layers (101)
------ ---------------------- ----- ------------------ --------- ------- ------------------------------------ ---------------------- 
c_id   name (*_layer)         id    layer_type         macc      rom     tensors                              shape (array id)       
------ ---------------------- ----- ------------------ --------- ------- ------------------------------------ ---------------------- 
0      pad_0                  0     pad                0         0       I: serving_default_input_20_output   (1,32,32,48) (106)     
                                                                         O: pad_0_output                      (1,34,34,48) (107)     
------ ---------------------- ----- ------------------ --------- ------- ------------------------------------ ---------------------- 
1      conv2d_3               3     conv2d             110640    624     I: pad_0_output                      (1,34,34,48) (107)     
                                                                         S: conv2d_3_scratch0                                        
                                                                         W: conv2d_3_weights                  (48,1,3,3) (18)        
                                                                         W: conv2d_3_bias                     (1,1,1,48) (20)        
                                                                         O: conv2d_3_output                   (1,16,16,48) (109)     
------ ---------------------- ----- ------------------ --------- ------- ------------------------------------ ---------------------- 
2      conv2d_4               4     conv2d             1179744   4992    I: conv2d_3_output                   (1,16,16,48) (109)     
                                                                         S: conv2d_4_scratch0                                        
                                                                         W: conv2d_4_weights                  (48,96,1,1) (22)       
                                                                         W: conv2d_4_bias                     (1,1,1,96) (24)        
                                                                         O: conv2d_4_output                   (1,16,16,96) (110)     
------ ---------------------- ----- ------------------ --------- ------- ------------------------------------ ---------------------- 
3      gather_6               6     gather             0         192     I: conv2d_4_output                   (1,16,16,96) (110)     
                                                                         W: gather_6_indices                  (1,1,48,1) (26)        
                                                                         O: gather_6_output                   (1,16,16,48) (112)     
------ ---------------------- ----- ------------------ --------- ------- ------------------------------------ ---------------------- 
4      conv2d_7_pad_before    7     pad                0         0       I: gather_6_output                   (1,16,16,48) (112)     
                                                                         O: conv2d_7_pad_before_output        (1,18,18,48) (113)     
------ ---------------------- ----- ------------------ --------- ------- ------------------------------------ ---------------------- 
5      conv2d_7               7     conv2d             110640    624     I: conv2d_7_pad_before_output        (1,18,18,48) (113)     
                                                                         S: conv2d_7_scratch0                                        
                                                                         W: conv2d_7_weights                  (48,1,3,3) (28)        
                                                                         W: conv2d_7_bias                     (1,1,1,48) (30)        
                                                                         O: conv2d_7_output                   (1,16,16,48) (115)     
------ ---------------------- ----- ------------------ --------- ------- ------------------------------------ ---------------------- 
6      conv2d_8               8     conv2d             589872    2496    I: conv2d_7_output                   (1,16,16,48) (115)     
                                                                         S: conv2d_8_scratch0                                        
                                                                         W: conv2d_8_weights                  (48,48,1,1) (32)       
                                                                         W: conv2d_8_bias                     (1,1,1,48) (33)        
                                                                         O: conv2d_8_output                   (1,16,16,48) (116)     
------ ---------------------- ----- ------------------ --------- ------- ------------------------------------ ---------------------- 
7      eltwise_9              9     eltwise_integer    12288     0       I: gather_6_output                   (1,16,16,48) (112)     
                                                                         I: conv2d_8_output                   (1,16,16,48) (116)     
                                                                         O: eltwise_9_output                  (1,16,16,48) (117)     
------ ---------------------- ----- ------------------ --------- ------- ------------------------------------ ---------------------- 
8      gather_11              11    gather             0         96      I: eltwise_9_output                  (1,16,16,48) (117)     
                                                                         W: gather_11_indices                 (1,1,24,1) (36)        
                                                                         O: gather_11_output                  (1,16,16,24) (118)     
------ ---------------------- ----- ------------------ --------- ------- ------------------------------------ ---------------------- 
9      conv2d_12_pad_before   12    pad                0         0       I: gather_11_output                  (1,16,16,24) (118)     
                                                                         O: conv2d_12_pad_before_output       (1,18,18,24) (119)     
------ ---------------------- ----- ------------------ --------- ------- ------------------------------------ ---------------------- 
10     conv2d_12              12    conv2d             55320     312     I: conv2d_12_pad_before_output       (1,18,18,24) (119)     
                                                                         S: conv2d_12_scratch0                                       
                                                                         W: conv2d_12_weights                 (24,1,3,3) (37)        
                                                                         W: conv2d_12_bias                    (1,1,1,24) (39)        
                                                                         O: conv2d_12_output                  (1,16,16,24) (120)     
------ ---------------------- ----- ------------------ --------- ------- ------------------------------------ ---------------------- 
11     conv2d_13              13    conv2d             147480    672     I: conv2d_12_output                  (1,16,16,24) (120)     
                                                                         S: conv2d_13_scratch0                                       
                                                                         W: conv2d_13_weights                 (24,24,1,1) (41)       
                                                                         W: conv2d_13_bias                    (1,1,1,24) (43)        
                                                                         O: conv2d_13_output                  (1,16,16,24) (122)     
------ ---------------------- ----- ------------------ --------- ------- ------------------------------------ ---------------------- 
12     eltwise_14             14    eltwise_integer    6144      0       I: gather_11_output                  (1,16,16,24) (118)     
                                                                         I: conv2d_13_output                  (1,16,16,24) (122)     
                                                                         O: eltwise_14_output                 (1,16,16,24) (123)     
------ ---------------------- ----- ------------------ --------- ------- ------------------------------------ ---------------------- 
13     gather_10              10    gather             0         96      I: eltwise_9_output                  (1,16,16,48) (117)     
                                                                         W: gather_10_indices                 (1,1,24,1) (45)        
                                                                         O: gather_10_output                  (1,16,16,24) (125)     
------ ---------------------- ----- ------------------ --------- ------- ------------------------------------ ---------------------- 
14     gather_5               5     gather             0         192     I: conv2d_4_output                   (1,16,16,96) (110)     
                                                                         W: gather_5_indices                  (1,1,48,1) (46)        
                                                                         O: gather_5_output                   (1,16,16,48) (126)     
------ ---------------------- ----- ------------------ --------- ------- ------------------------------------ ---------------------- 
15     concat_15              15    concat             0         0       I: gather_5_output                   (1,16,16,48) (126)     
                                                                         I: gather_10_output                  (1,16,16,24) (125)     
                                                                         I: eltwise_14_output                 (1,16,16,24) (123)     
                                                                         O: concat_15_output                  (1,16,16,96) (128)     
------ ---------------------- ----- ------------------ --------- ------- ------------------------------------ ---------------------- 
16     conv2d_16              16    conv2d             2359392   9600    I: concat_15_output                  (1,16,16,96) (128)     
                                                                         S: conv2d_16_scratch0                                       
                                                                         W: conv2d_16_weights                 (96,96,1,1) (48)       
                                                                         W: conv2d_16_bias                    (1,1,1,96) (50)        
                                                                         O: conv2d_16_output                  (1,16,16,96) (129)     
------ ---------------------- ----- ------------------ --------- ------- ------------------------------------ ---------------------- 
17     conv2d_18_pad_before   17    pad                0         0       I: conv2d_16_output                  (1,16,16,96) (129)     
                                                                         O: conv2d_18_pad_before_output       (1,18,18,96) (131)     
------ ---------------------- ----- ------------------ --------- ------- ------------------------------------ ---------------------- 
18     conv2d_18              18    conv2d             55392     1248    I: conv2d_18_pad_before_output       (1,18,18,96) (131)     
                                                                         S: conv2d_18_scratch0                                       
                                                                         W: conv2d_18_weights                 (96,1,3,3) (52)        
                                                                         W: conv2d_18_bias                    (1,1,1,96) (54)        
                                                                         O: conv2d_18_output                  (1,8,8,96) (132)       
------ ---------------------- ----- ------------------ --------- ------- ------------------------------------ ---------------------- 
19     conv2d_19              19    conv2d             1179840   19200   I: conv2d_18_output                  (1,8,8,96) (132)       
                                                                         S: conv2d_19_scratch0                                       
                                                                         W: conv2d_19_weights                 (96,192,1,1) (56)      
                                                                         W: conv2d_19_bias                    (1,1,1,192) (58)       
                                                                         O: conv2d_19_output                  (1,8,8,192) (134)      
------ ---------------------- ----- ------------------ --------- ------- ------------------------------------ ---------------------- 
20     gather_21              21    gather             0         384     I: conv2d_19_output                  (1,8,8,192) (134)      
                                                                         W: gather_21_indices                 (1,1,96,1) (60)        
                                                                         O: gather_21_output                  (1,8,8,96) (135)       
------ ---------------------- ----- ------------------ --------- ------- ------------------------------------ ---------------------- 
21     conv2d_22_pad_before   22    pad                0         0       I: gather_21_output                  (1,8,8,96) (135)       
                                                                         O: conv2d_22_pad_before_output       (1,10,10,96) (137)     
------ ---------------------- ----- ------------------ --------- ------- ------------------------------------ ---------------------- 
22     conv2d_22              22    conv2d             55392     1248    I: conv2d_22_pad_before_output       (1,10,10,96) (137)     
                                                                         S: conv2d_22_scratch0                                       
                                                                         W: conv2d_22_weights                 (96,1,3,3) (62)        
                                                                         W: conv2d_22_bias                    (1,1,1,96) (63)        
                                                                         O: conv2d_22_output                  (1,8,8,96) (138)       
------ ---------------------- ----- ------------------ --------- ------- ------------------------------------ ---------------------- 
23     conv2d_23              23    conv2d             589920    9600    I: conv2d_22_output                  (1,8,8,96) (138)       
                                                                         S: conv2d_23_scratch0                                       
                                                                         W: conv2d_23_weights                 (96,96,1,1) (66)       
                                                                         W: conv2d_23_bias                    (1,1,1,96) (67)        
                                                                         O: conv2d_23_output                  (1,8,8,96) (139)       
------ ---------------------- ----- ------------------ --------- ------- ------------------------------------ ---------------------- 
24     eltwise_24             24    eltwise_integer    6144      0       I: gather_21_output                  (1,8,8,96) (135)       
                                                                         I: conv2d_23_output                  (1,8,8,96) (139)       
                                                                         O: eltwise_24_output                 (1,8,8,96) (140)       
------ ---------------------- ----- ------------------ --------- ------- ------------------------------------ ---------------------- 
25     gather_20              20    gather             0         384     I: conv2d_19_output                  (1,8,8,192) (134)      
                                                                         W: gather_20_indices                 (1,1,96,1) (69)        
                                                                         O: gather_20_output                  (1,8,8,96) (142)       
------ ---------------------- ----- ------------------ --------- ------- ------------------------------------ ---------------------- 
26     concat_25              25    concat             0         0       I: gather_20_output                  (1,8,8,96) (142)       
                                                                         I: eltwise_24_output                 (1,8,8,96) (140)       
                                                                         O: concat_25_output                  (1,8,8,192) (143)      
------ ---------------------- ----- ------------------ --------- ------- ------------------------------------ ---------------------- 
27     conv2d_26              26    conv2d             2359488   37632   I: concat_25_output                  (1,8,8,192) (143)      
                                                                         S: conv2d_26_scratch0                                       
                                                                         W: conv2d_26_weights                 (192,192,1,1) (71)     
                                                                         W: conv2d_26_bias                    (1,1,1,192) (73)       
                                                                         O: conv2d_26_output                  (1,8,8,192) (145)      
------ ---------------------- ----- ------------------ --------- ------- ------------------------------------ ---------------------- 
28     gather_32              32    gather             0         192     I: conv2d_26_output                  (1,8,8,192) (145)      
                                                                         W: gather_32_indices                 (1,1,48,1) (75)        
                                                                         O: gather_32_output                  (1,8,8,48) (146)       
------ ---------------------- ----- ------------------ --------- ------- ------------------------------------ ---------------------- 
29     pool_33                33    pool               150528    0       I: gather_32_output                  (1,8,8,48) (146)       
                                                                         O: pool_33_output                    (1,8,8,48) (148)       
------ ---------------------- ----- ------------------ --------- ------- ------------------------------------ ---------------------- 
30     gather_30              30    gather             0         192     I: conv2d_26_output                  (1,8,8,192) (145)      
                                                                         W: gather_30_indices                 (1,1,48,1) (77)        
                                                                         O: gather_30_output                  (1,8,8,48) (149)       
------ ---------------------- ----- ------------------ --------- ------- ------------------------------------ ---------------------- 
31     pool_31                31    pool               76800     0       I: gather_30_output                  (1,8,8,48) (149)       
                                                                         O: pool_31_output                    (1,8,8,48) (151)       
------ ---------------------- ----- ------------------ --------- ------- ------------------------------------ ---------------------- 
32     gather_28              28    gather             0         192     I: conv2d_26_output                  (1,8,8,192) (145)      
                                                                         W: gather_6_indices                  (1,1,48,1) (26)        
                                                                         O: gather_28_output                  (1,8,8,48) (152)       
------ ---------------------- ----- ------------------ --------- ------- ------------------------------------ ---------------------- 
33     pool_29                29    pool               27648     0       I: gather_28_output                  (1,8,8,48) (152)       
                                                                         O: pool_29_output                    (1,8,8,48) (154)       
------ ---------------------- ----- ------------------ --------- ------- ------------------------------------ ---------------------- 
34     gather_27              27    gather             0         192     I: conv2d_26_output                  (1,8,8,192) (145)      
                                                                         W: gather_5_indices                  (1,1,48,1) (46)        
                                                                         O: gather_27_output                  (1,8,8,48) (155)       
------ ---------------------- ----- ------------------ --------- ------- ------------------------------------ ---------------------- 
35     concat_34              34    concat             0         0       I: gather_27_output                  (1,8,8,48) (155)       
                                                                         I: pool_29_output                    (1,8,8,48) (154)       
                                                                         I: pool_31_output                    (1,8,8,48) (151)       
                                                                         I: pool_33_output                    (1,8,8,48) (148)       
                                                                         O: concat_34_output                  (1,8,8,192) (157)      
------ ---------------------- ----- ------------------ --------- ------- ------------------------------------ ---------------------- 
36     conv2d_35              35    conv2d             1179744   18816   I: concat_34_output                  (1,8,8,192) (157)      
                                                                         S: conv2d_35_scratch0                                       
                                                                         W: conv2d_35_weights                 (192,96,1,1) (81)      
                                                                         W: conv2d_35_bias                    (1,1,1,96) (83)        
                                                                         O: conv2d_35_output                  (1,8,8,96) (158)       
------ ---------------------- ----- ------------------ --------- ------- ------------------------------------ ---------------------- 
37     pack_36                36    pack               0         0       I: conv2d_35_output                  (1,8,8,96) (158)       
                                                                         I: conv2d_35_output                  (1,8,8,96) (158)       
                                                                         O: pack_36_output                    (1,8,8,2,96) (160)     
------ ---------------------- ----- ------------------ --------- ------- ------------------------------------ ---------------------- 
38     pack_37                37    pack               0         0       I: pack_36_output                    (1,8,8,2,96) (160)     
                                                                         I: pack_36_output                    (1,8,8,2,96) (160)     
                                                                         O: pack_37_output                    (1,8,2,8,2,96) (161)   
------ ---------------------- ----- ------------------ --------- ------- ------------------------------------ ---------------------- 
39     eltwise_39             39    eltwise_integer    24576     0       I: conv2d_16_output                  (1,16,16,96) (129)     
                                                                         I: pack_37_output0                   (1,16,16,96) (161)     
                                                                         O: eltwise_39_output                 (1,16,16,96) (163)     
------ ---------------------- ----- ------------------ --------- ------- ------------------------------------ ---------------------- 
40     gather_41              41    gather             0         192     I: eltwise_39_output                 (1,16,16,96) (163)     
                                                                         W: gather_6_indices                  (1,1,48,1) (26)        
                                                                         O: gather_41_output                  (1,16,16,48) (164)     
------ ---------------------- ----- ------------------ --------- ------- ------------------------------------ ---------------------- 
41     conv2d_42_pad_before   42    pad                0         0       I: gather_41_output                  (1,16,16,48) (164)     
                                                                         O: conv2d_42_pad_before_output       (1,18,18,48) (166)     
------ ---------------------- ----- ------------------ --------- ------- ------------------------------------ ---------------------- 
42     conv2d_42              42    conv2d             110640    624     I: conv2d_42_pad_before_output       (1,18,18,48) (166)     
                                                                         S: conv2d_42_scratch0                                       
                                                                         W: conv2d_42_weights                 (48,1,3,3) (86)        
                                                                         W: conv2d_42_bias                    (1,1,1,48) (88)        
                                                                         O: conv2d_42_output                  (1,16,16,48) (167)     
------ ---------------------- ----- ------------------ --------- ------- ------------------------------------ ---------------------- 
43     conv2d_43              43    conv2d             589872    2496    I: conv2d_42_output                  (1,16,16,48) (167)     
                                                                         S: conv2d_43_scratch0                                       
                                                                         W: conv2d_43_weights                 (48,48,1,1) (89)       
                                                                         W: conv2d_43_bias                    (1,1,1,48) (92)        
                                                                         O: conv2d_43_output                  (1,16,16,48) (169)     
------ ---------------------- ----- ------------------ --------- ------- ------------------------------------ ---------------------- 
44     conv2d_45              45    conv2d             602160    2544    I: conv2d_43_output                  (1,16,16,48) (169)     
                                                                         S: conv2d_45_scratch0                                       
                                                                         S: conv2d_45_scratch1                                       
                                                                         W: conv2d_45_weights                 (48,1,7,7) (93)        
                                                                         W: conv2d_45_bias                    (1,1,1,48) (94)        
                                                                         O: conv2d_45_output                  (1,16,16,48) (170)     
------ ---------------------- ----- ------------------ --------- ------- ------------------------------------ ---------------------- 
45     conv2d_46              46    conv2d             589872    2496    I: conv2d_45_output                  (1,16,16,48) (170)     
                                                                         S: conv2d_46_scratch0                                       
                                                                         W: conv2d_46_weights                 (48,48,1,1) (95)       
                                                                         W: conv2d_46_bias                    (1,1,1,48) (96)        
                                                                         O: conv2d_46_output                  (1,16,16,48) (171)     
------ ---------------------- ----- ------------------ --------- ------- ------------------------------------ ---------------------- 
46     conv2d_47_pad_before   47    pad                0         0       I: conv2d_46_output                  (1,16,16,48) (171)     
                                                                         O: conv2d_47_pad_before_output       (1,18,18,48) (172)     
------ ---------------------- ----- ------------------ --------- ------- ------------------------------------ ---------------------- 
47     conv2d_47              47    conv2d             110640    624     I: conv2d_47_pad_before_output       (1,18,18,48) (172)     
                                                                         S: conv2d_47_scratch0                                       
                                                                         S: conv2d_47_scratch1                                       
                                                                         W: conv2d_47_weights                 (48,1,3,3) (97)        
                                                                         W: conv2d_47_bias                    (1,1,1,48) (98)        
                                                                         O: conv2d_47_output                  (1,16,16,48) (174)     
------ ---------------------- ----- ------------------ --------- ------- ------------------------------------ ---------------------- 
48     eltwise_48             48    eltwise_integer    12288     0       I: gather_41_output                  (1,16,16,48) (164)     
                                                                         I: conv2d_47_output                  (1,16,16,48) (174)     
                                                                         O: eltwise_48_output                 (1,16,16,48) (175)     
------ ---------------------- ----- ------------------ --------- ------- ------------------------------------ ---------------------- 
49     gather_50              50    gather             0         96      I: eltwise_48_output                 (1,16,16,48) (175)     
                                                                         W: gather_11_indices                 (1,1,24,1) (36)        
                                                                         O: gather_50_output                  (1,16,16,24) (177)     
------ ---------------------- ----- ------------------ --------- ------- ------------------------------------ ---------------------- 
50     conv2d_51_pad_before   51    pad                0         0       I: gather_50_output                  (1,16,16,24) (177)     
                                                                         O: conv2d_51_pad_before_output       (1,18,18,24) (178)     
------ ---------------------- ----- ------------------ --------- ------- ------------------------------------ ---------------------- 
51     conv2d_51              51    conv2d             55320     312     I: conv2d_51_pad_before_output       (1,18,18,24) (178)     
                                                                         S: conv2d_51_scratch0                                       
                                                                         W: conv2d_51_weights                 (24,1,3,3) (99)        
                                                                         W: conv2d_51_bias                    (1,1,1,24) (100)       
                                                                         O: conv2d_51_output                  (1,16,16,24) (180)     
------ ---------------------- ----- ------------------ --------- ------- ------------------------------------ ---------------------- 
52     conv2d_52              52    conv2d             147480    672     I: conv2d_51_output                  (1,16,16,24) (180)     
                                                                         S: conv2d_52_scratch0                                       
                                                                         W: conv2d_52_weights                 (24,24,1,1) (101)      
                                                                         W: conv2d_52_bias                    (1,1,1,24) (102)       
                                                                         O: conv2d_52_output                  (1,16,16,24) (181)     
------ ---------------------- ----- ------------------ --------- ------- ------------------------------------ ---------------------- 
53     conv2d_54              54    conv2d             301080    1272    I: conv2d_52_output                  (1,16,16,24) (181)     
                                                                         S: conv2d_54_scratch0                                       
                                                                         S: conv2d_54_scratch1                                       
                                                                         W: conv2d_54_weights                 (24,1,7,7) (103)       
                                                                         W: conv2d_54_bias                    (1,1,1,24) (104)       
                                                                         O: conv2d_54_output                  (1,16,16,24) (183)     
------ ---------------------- ----- ------------------ --------- ------- ------------------------------------ ---------------------- 
54     conv2d_55              55    conv2d             147480    672     I: conv2d_54_output                  (1,16,16,24) (183)     
                                                                         S: conv2d_55_scratch0                                       
                                                                         W: conv2d_55_weights                 (24,24,1,1) (105)      
                                                                         W: conv2d_55_bias                    (1,1,1,24) (108)       
                                                                         O: conv2d_55_output                  (1,16,16,24) (184)     
------ ---------------------- ----- ------------------ --------- ------- ------------------------------------ ---------------------- 
55     conv2d_56_pad_before   56    pad                0         0       I: conv2d_55_output                  (1,16,16,24) (184)     
                                                                         O: conv2d_56_pad_before_output       (1,18,18,24) (186)     
------ ---------------------- ----- ------------------ --------- ------- ------------------------------------ ---------------------- 
56     conv2d_56              56    conv2d             55320     312     I: conv2d_56_pad_before_output       (1,18,18,24) (186)     
                                                                         S: conv2d_56_scratch0                                       
                                                                         S: conv2d_56_scratch1                                       
                                                                         W: conv2d_56_weights                 (24,1,3,3) (111)       
                                                                         W: conv2d_56_bias                    (1,1,1,24) (114)       
                                                                         O: conv2d_56_output                  (1,16,16,24) (187)     
------ ---------------------- ----- ------------------ --------- ------- ------------------------------------ ---------------------- 
57     eltwise_57             57    eltwise_integer    6144      0       I: gather_50_output                  (1,16,16,24) (177)     
                                                                         I: conv2d_56_output                  (1,16,16,24) (187)     
                                                                         O: eltwise_57_output                 (1,16,16,24) (189)     
------ ---------------------- ----- ------------------ --------- ------- ------------------------------------ ---------------------- 
58     gather_49              49    gather             0         96      I: eltwise_48_output                 (1,16,16,48) (175)     
                                                                         W: gather_10_indices                 (1,1,24,1) (45)        
                                                                         O: gather_49_output                  (1,16,16,24) (190)     
------ ---------------------- ----- ------------------ --------- ------- ------------------------------------ ---------------------- 
59     gather_40              40    gather             0         192     I: eltwise_39_output                 (1,16,16,96) (163)     
                                                                         W: gather_5_indices                  (1,1,48,1) (46)        
                                                                         O: gather_40_output                  (1,16,16,48) (192)     
------ ---------------------- ----- ------------------ --------- ------- ------------------------------------ ---------------------- 
60     concat_58              58    concat             0         0       I: gather_40_output                  (1,16,16,48) (192)     
                                                                         I: gather_49_output                  (1,16,16,24) (190)     
                                                                         I: eltwise_57_output                 (1,16,16,24) (189)     
                                                                         O: concat_58_output                  (1,16,16,96) (193)     
------ ---------------------- ----- ------------------ --------- ------- ------------------------------------ ---------------------- 
61     conv2d_59              59    conv2d             2359392   9600    I: concat_58_output                  (1,16,16,96) (193)     
                                                                         S: conv2d_59_scratch0                                       
                                                                         W: conv2d_59_weights                 (96,96,1,1) (121)      
                                                                         W: conv2d_59_bias                    (1,1,1,96) (124)       
                                                                         O: conv2d_59_output                  (1,16,16,96) (195)     
------ ---------------------- ----- ------------------ --------- ------- ------------------------------------ ---------------------- 
62     conv2d_1               1     conv2d             110640    624     I: pad_0_output                      (1,34,34,48) (107)     
                                                                         S: conv2d_1_scratch0                                        
                                                                         W: conv2d_1_weights                  (48,1,3,3) (127)       
                                                                         W: conv2d_1_bias                     (1,1,1,48) (130)       
                                                                         O: conv2d_1_output                   (1,16,16,48) (196)     
------ ---------------------- ----- ------------------ --------- ------- ------------------------------------ ---------------------- 
63     conv2d_2               2     conv2d             1179744   4992    I: conv2d_1_output                   (1,16,16,48) (196)     
                                                                         S: conv2d_2_scratch0                                        
                                                                         W: conv2d_2_weights                  (48,96,1,1) (133)      
                                                                         W: conv2d_2_bias                     (1,1,1,96) (136)       
                                                                         O: conv2d_2_output                   (1,16,16,96) (198)     
------ ---------------------- ----- ------------------ --------- ------- ------------------------------------ ---------------------- 
64     eltwise_60             60    eltwise_integer    24576     0       I: conv2d_59_output                  (1,16,16,96) (195)     
                                                                         I: conv2d_2_output                   (1,16,16,96) (198)     
                                                                         O: eltwise_60_output                 (1,16,16,96) (199)     
------ ---------------------- ----- ------------------ --------- ------- ------------------------------------ ---------------------- 
65     gather_62              62    gather             0         192     I: eltwise_60_output                 (1,16,16,96) (199)     
                                                                         W: gather_6_indices                  (1,1,48,1) (26)        
                                                                         O: gather_62_output                  (1,16,16,48) (201)     
------ ---------------------- ----- ------------------ --------- ------- ------------------------------------ ---------------------- 
66     conv2d_63_pad_before   63    pad                0         0       I: gather_62_output                  (1,16,16,48) (201)     
                                                                         O: conv2d_63_pad_before_output       (1,18,18,48) (202)     
------ ---------------------- ----- ------------------ --------- ------- ------------------------------------ ---------------------- 
67     conv2d_63              63    conv2d             110640    624     I: conv2d_63_pad_before_output       (1,18,18,48) (202)     
                                                                         S: conv2d_63_scratch0                                       
                                                                         W: conv2d_63_weights                 (48,1,3,3) (141)       
                                                                         W: conv2d_63_bias                    (1,1,1,48) (144)       
                                                                         O: conv2d_63_output                  (1,16,16,48) (203)     
------ ---------------------- ----- ------------------ --------- ------- ------------------------------------ ---------------------- 
68     conv2d_64              64    conv2d             589872    2496    I: conv2d_63_output                  (1,16,16,48) (203)     
                                                                         S: conv2d_64_scratch0                                       
                                                                         W: conv2d_64_weights                 (48,48,1,1) (147)      
                                                                         W: conv2d_64_bias                    (1,1,1,48) (150)       
                                                                         O: conv2d_64_output                  (1,16,16,48) (204)     
------ ---------------------- ----- ------------------ --------- ------- ------------------------------------ ---------------------- 
69     conv2d_66              66    conv2d             602160    2544    I: conv2d_64_output                  (1,16,16,48) (204)     
                                                                         S: conv2d_66_scratch0                                       
                                                                         S: conv2d_66_scratch1                                       
                                                                         W: conv2d_66_weights                 (48,1,7,7) (153)       
                                                                         W: conv2d_66_bias                    (1,1,1,48) (156)       
                                                                         O: conv2d_66_output                  (1,16,16,48) (205)     
------ ---------------------- ----- ------------------ --------- ------- ------------------------------------ ---------------------- 
70     conv2d_67              67    conv2d             589872    2496    I: conv2d_66_output                  (1,16,16,48) (205)     
                                                                         S: conv2d_67_scratch0                                       
                                                                         W: conv2d_67_weights                 (48,48,1,1) (159)      
                                                                         W: conv2d_67_bias                    (1,1,1,48) (162)       
                                                                         O: conv2d_67_output                  (1,16,16,48) (206)     
------ ---------------------- ----- ------------------ --------- ------- ------------------------------------ ---------------------- 
71     conv2d_68_pad_before   68    pad                0         0       I: conv2d_67_output                  (1,16,16,48) (206)     
                                                                         O: conv2d_68_pad_before_output       (1,18,18,48) (208)     
------ ---------------------- ----- ------------------ --------- ------- ------------------------------------ ---------------------- 
72     conv2d_68              68    conv2d             110640    624     I: conv2d_68_pad_before_output       (1,18,18,48) (208)     
                                                                         S: conv2d_68_scratch0                                       
                                                                         S: conv2d_68_scratch1                                       
                                                                         W: conv2d_68_weights                 (48,1,3,3) (165)       
                                                                         W: conv2d_68_bias                    (1,1,1,48) (168)       
                                                                         O: conv2d_68_output                  (1,16,16,48) (209)     
------ ---------------------- ----- ------------------ --------- ------- ------------------------------------ ---------------------- 
73     eltwise_69             69    eltwise_integer    12288     0       I: gather_62_output                  (1,16,16,48) (201)     
                                                                         I: conv2d_68_output                  (1,16,16,48) (209)     
                                                                         O: eltwise_69_output                 (1,16,16,48) (211)     
------ ---------------------- ----- ------------------ --------- ------- ------------------------------------ ---------------------- 
74     gather_71              71    gather             0         96      I: eltwise_69_output                 (1,16,16,48) (211)     
                                                                         W: gather_11_indices                 (1,1,24,1) (36)        
                                                                         O: gather_71_output                  (1,16,16,24) (212)     
------ ---------------------- ----- ------------------ --------- ------- ------------------------------------ ---------------------- 
75     conv2d_72_pad_before   72    pad                0         0       I: gather_71_output                  (1,16,16,24) (212)     
                                                                         O: conv2d_72_pad_before_output       (1,18,18,24) (214)     
------ ---------------------- ----- ------------------ --------- ------- ------------------------------------ ---------------------- 
76     conv2d_72              72    conv2d             55320     312     I: conv2d_72_pad_before_output       (1,18,18,24) (214)     
                                                                         S: conv2d_72_scratch0                                       
                                                                         W: conv2d_72_weights                 (24,1,3,3) (173)       
                                                                         W: conv2d_72_bias                    (1,1,1,24) (176)       
                                                                         O: conv2d_72_output                  (1,16,16,24) (215)     
------ ---------------------- ----- ------------------ --------- ------- ------------------------------------ ---------------------- 
77     conv2d_73              73    conv2d             147480    672     I: conv2d_72_output                  (1,16,16,24) (215)     
                                                                         S: conv2d_73_scratch0                                       
                                                                         W: conv2d_73_weights                 (24,24,1,1) (179)      
                                                                         W: conv2d_73_bias                    (1,1,1,24) (182)       
                                                                         O: conv2d_73_output                  (1,16,16,24) (217)     
------ ---------------------- ----- ------------------ --------- ------- ------------------------------------ ---------------------- 
78     conv2d_75              75    conv2d             301080    1272    I: conv2d_73_output                  (1,16,16,24) (217)     
                                                                         S: conv2d_75_scratch0                                       
                                                                         S: conv2d_75_scratch1                                       
                                                                         W: conv2d_75_weights                 (24,1,7,7) (185)       
                                                                         W: conv2d_75_bias                    (1,1,1,24) (188)       
                                                                         O: conv2d_75_output                  (1,16,16,24) (218)     
------ ---------------------- ----- ------------------ --------- ------- ------------------------------------ ---------------------- 
79     conv2d_76              76    conv2d             147480    672     I: conv2d_75_output                  (1,16,16,24) (218)     
                                                                         S: conv2d_76_scratch0                                       
                                                                         W: conv2d_76_weights                 (24,24,1,1) (191)      
                                                                         W: conv2d_76_bias                    (1,1,1,24) (194)       
                                                                         O: conv2d_76_output                  (1,16,16,24) (220)     
------ ---------------------- ----- ------------------ --------- ------- ------------------------------------ ---------------------- 
80     conv2d_77_pad_before   77    pad                0         0       I: conv2d_76_output                  (1,16,16,24) (220)     
                                                                         O: conv2d_77_pad_before_output       (1,18,18,24) (221)     
------ ---------------------- ----- ------------------ --------- ------- ------------------------------------ ---------------------- 
81     conv2d_77              77    conv2d             55320     312     I: conv2d_77_pad_before_output       (1,18,18,24) (221)     
                                                                         S: conv2d_77_scratch0                                       
                                                                         S: conv2d_77_scratch1                                       
                                                                         W: conv2d_77_weights                 (24,1,3,3) (197)       
                                                                         W: conv2d_77_bias                    (1,1,1,24) (200)       
                                                                         O: conv2d_77_output                  (1,16,16,24) (223)     
------ ---------------------- ----- ------------------ --------- ------- ------------------------------------ ---------------------- 
82     eltwise_78             78    eltwise_integer    6144      0       I: gather_71_output                  (1,16,16,24) (212)     
                                                                         I: conv2d_77_output                  (1,16,16,24) (223)     
                                                                         O: eltwise_78_output                 (1,16,16,24) (224)     
------ ---------------------- ----- ------------------ --------- ------- ------------------------------------ ---------------------- 
83     gather_70              70    gather             0         96      I: eltwise_69_output                 (1,16,16,48) (211)     
                                                                         W: gather_10_indices                 (1,1,24,1) (45)        
                                                                         O: gather_70_output                  (1,16,16,24) (226)     
------ ---------------------- ----- ------------------ --------- ------- ------------------------------------ ---------------------- 
84     gather_61              61    gather             0         192     I: eltwise_60_output                 (1,16,16,96) (199)     
                                                                         W: gather_5_indices                  (1,1,48,1) (46)        
                                                                         O: gather_61_output                  (1,16,16,48) (227)     
------ ---------------------- ----- ------------------ --------- ------- ------------------------------------ ---------------------- 
85     concat_79              79    concat             0         0       I: gather_61_output                  (1,16,16,48) (227)     
                                                                         I: gather_70_output                  (1,16,16,24) (226)     
                                                                         I: eltwise_78_output                 (1,16,16,24) (224)     
                                                                         O: concat_79_output                  (1,16,16,96) (229)     
------ ---------------------- ----- ------------------ --------- ------- ------------------------------------ ---------------------- 
86     conv2d_80              80    conv2d             2359392   9600    I: concat_79_output                  (1,16,16,96) (229)     
                                                                         S: conv2d_80_scratch0                                       
                                                                         W: conv2d_80_weights                 (96,96,1,1) (207)      
                                                                         W: conv2d_80_bias                    (1,1,1,96) (210)       
                                                                         O: conv2d_80_output                  (1,16,16,96) (230)     
------ ---------------------- ----- ------------------ --------- ------- ------------------------------------ ---------------------- 
87     conv2d_85              85    conv2d             614496    2784    I: conv2d_80_output                  (1,16,16,96) (230)     
                                                                         S: conv2d_85_scratch0                                       
                                                                         S: conv2d_85_scratch1                                       
                                                                         W: conv2d_85_weights                 (96,1,5,5) (213)       
                                                                         W: conv2d_85_bias                    (1,1,1,96) (216)       
                                                                         O: conv2d_85_output                  (1,16,16,96) (232)     
------ ---------------------- ----- ------------------ --------- ------- ------------------------------------ ---------------------- 
88     conv2d_86              86    conv2d             2359392   9600    I: conv2d_85_output                  (1,16,16,96) (232)     
                                                                         S: conv2d_86_scratch0                                       
                                                                         W: conv2d_86_weights                 (96,96,1,1) (219)      
                                                                         W: conv2d_86_bias                    (1,1,1,96) (222)       
                                                                         O: conv2d_86_output                  (1,16,16,96) (233)     
------ ---------------------- ----- ------------------ --------- ------- ------------------------------------ ---------------------- 
89     conv2d_88              88    conv2d             614496    2784    I: conv2d_86_output                  (1,16,16,96) (233)     
                                                                         S: conv2d_88_scratch0                                       
                                                                         S: conv2d_88_scratch1                                       
                                                                         W: conv2d_88_weights                 (96,1,5,5) (225)       
                                                                         W: conv2d_88_bias                    (1,1,1,96) (228)       
                                                                         O: conv2d_88_output                  (1,16,16,96) (235)     
------ ---------------------- ----- ------------------ --------- ------- ------------------------------------ ---------------------- 
90     conv2d_89              89    conv2d             2359392   9600    I: conv2d_88_output                  (1,16,16,96) (235)     
                                                                         S: conv2d_89_scratch0                                       
                                                                         S: conv2d_89_scratch1                                       
                                                                         W: conv2d_89_weights                 (96,96,1,1) (231)      
                                                                         W: conv2d_89_bias                    (1,1,1,96) (234)       
                                                                         O: conv2d_89_output                  (1,16,16,96) (236)     
------ ---------------------- ----- ------------------ --------- ------- ------------------------------------ ---------------------- 
91     conv2d_90              90    conv2d             98308     400     I: conv2d_89_output                  (1,16,16,96) (236)     
                                                                         S: conv2d_90_scratch0                                       
                                                                         W: conv2d_90_weights                 (96,4,1,1) (237)       
                                                                         W: conv2d_90_bias                    (1,1,1,4) (240)        
                                                                         O: conv2d_90_output                  (1,16,16,4) (238)      
------ ---------------------- ----- ------------------ --------- ------- ------------------------------------ ---------------------- 
92     gather_94              94    gather             0         8       I: conv2d_90_output                  (1,16,16,4) (238)      
                                                                         W: gather_94_indices                 (1,1,2,1) (243)        
                                                                         O: gather_94_output                  (1,16,16,2) (239)      
------ ---------------------- ----- ------------------ --------- ------- ------------------------------------ ---------------------- 
93     nl_95                  95    nl                 512       0       I: gather_94_output                  (1,16,16,2) (239)      
                                                                         O: nl_95_output                      (1,16,16,2) (241)      
------ ---------------------- ----- ------------------ --------- ------- ------------------------------------ ---------------------- 
94     gather_91              91    gather             0         8       I: conv2d_90_output                  (1,16,16,4) (238)      
                                                                         W: gather_91_indices                 (1,1,2,1) (246)        
                                                                         O: gather_91_output                  (1,16,16,2) (242)      
------ ---------------------- ----- ------------------ --------- ------- ------------------------------------ ---------------------- 
95     nl_92                  92    nl                 512       0       I: gather_91_output                  (1,16,16,2) (242)      
                                                                         O: nl_92_output                      (1,16,16,2) (244)      
------ ---------------------- ----- ------------------ --------- ------- ------------------------------------ ---------------------- 
96     conv2d_81              82    conv2d             24833     100     I: conv2d_80_output                  (1,16,16,96) (230)     
                                                                         S: conv2d_81_scratch0                                       
                                                                         S: conv2d_81_scratch1                                       
                                                                         W: conv2d_81_weights                 (96,1,1,1) (249)       
                                                                         W: conv2d_81_bias                    (1,1,1,1) (1)          
                                                                         O: conv2d_81_output                  (1,16,16,1) (245)      
------ ---------------------- ----- ------------------ --------- ------- ------------------------------------ ---------------------- 
97     concat_97              97    concat             0         0       I: conv2d_81_output                  (1,16,16,1) (245)      
                                                                         I: nl_92_output                      (1,16,16,2) (244)      
                                                                         I: nl_95_output                      (1,16,16,2) (241)      
                                                                         O: concat_97_output                  (1,16,16,5) (247)      
------ ---------------------- ----- ------------------ --------- ------- ------------------------------------ ---------------------- 
98     transpose_98           98    transpose          0         0       I: concat_97_output                  (1,16,16,5) (247)      
                                                                         O: transpose_98_output               (1,5,16,16) (248)      
------ ---------------------- ----- ------------------ --------- ------- ------------------------------------ ---------------------- 
99     transpose_100          100   transpose          0         0       I: transpose_98_output0              (1,5,1,256) (248)      
                                                                         O: transpose_100_output              (1,256,1,5) (250)      
------ ---------------------- ----- ------------------ --------- ------- ------------------------------------ ---------------------- 
100    conversion_101         101   converter          2560      0       I: transpose_100_output              (1,256,1,5) (250)      
                                                                         O: conversion_101_output             (1,256,1,5) (251)      
------ ---------------------- ----- ------------------ --------- ------- ------------------------------------ ---------------------- 



Number of operations per c-layer
------- ------ ------------------------------ ------------ ------------- --------- ---------- 
c_id    m_id   name (type)                             #op          type    #param   sparsity 
------- ------ ------------------------------ ------------ ------------- --------- ---------- 
0       0      pad_0 (pad)                               0    smul_s8_s8           
1       3      conv2d_3 (conv2d)                   110,640    smul_s8_s8       480     0.0042 
2       4      conv2d_4 (conv2d)                 1,179,744    smul_s8_s8     4,704     0.0181 
3       6      gather_6 (gather)                         0   smul_s8_s32        48     0.0000 
4       7      conv2d_7_pad_before (pad)                 0    smul_s8_s8           
5       7      conv2d_7 (conv2d)                   110,640    smul_s8_s8       480     0.0042 
6       8      conv2d_8 (conv2d)                   589,872    smul_s8_s8     2,352     0.0098 
7       9      eltwise_9 (eltwise_integer)          12,288    smul_s8_s8           
8       11     gather_11 (gather)                        0   smul_s8_s32        24     0.0000 
9       12     conv2d_12_pad_before (pad)                0    smul_s8_s8           
10      12     conv2d_12 (conv2d)                   55,320    smul_s8_s8       240     0.0042 
11      13     conv2d_13 (conv2d)                  147,480    smul_s8_s8       600     0.0050 
12      14     eltwise_14 (eltwise_integer)          6,144    smul_s8_s8           
13      10     gather_10 (gather)                        0   smul_s8_s32        24     0.0417 
14      5      gather_5 (gather)                         0   smul_s8_s32        48     0.0208 
15      15     concat_15 (concat)                        0      op_s8_s8           
16      16     conv2d_16 (conv2d)                2,359,392    smul_s8_s8     9,312     0.0095 
17      17     conv2d_18_pad_before (pad)                0    smul_s8_s8           
18      18     conv2d_18 (conv2d)                   55,392    smul_s8_s8       960     0.0052 
19      19     conv2d_19 (conv2d)                1,179,840    smul_s8_s8    18,624     0.0129 
20      21     gather_21 (gather)                        0   smul_s8_s32        96     0.0000 
21      22     conv2d_22_pad_before (pad)                0    smul_s8_s8           
22      22     conv2d_22 (conv2d)                   55,392    smul_s8_s8       960     0.0021 
23      23     conv2d_23 (conv2d)                  589,920    smul_s8_s8     9,312     0.0078 
24      24     eltwise_24 (eltwise_integer)          6,144    smul_s8_s8           
25      20     gather_20 (gather)                        0   smul_s8_s32        96     0.0104 
26      25     concat_25 (concat)                        0      op_s8_s8           
27      26     conv2d_26 (conv2d)                2,359,488    smul_s8_s8    37,056     0.0087 
28      32     gather_32 (gather)                        0   smul_s8_s32        48     0.0000 
29      33     pool_33 (pool)                      150,528      op_s8_s8           
30      30     gather_30 (gather)                        0   smul_s8_s32        48     0.0000 
31      31     pool_31 (pool)                       76,800      op_s8_s8           
32      28     gather_28 (gather)                        0   smul_s8_s32        48     0.0000 
33      29     pool_29 (pool)                       27,648      op_s8_s8           
34      27     gather_27 (gather)                        0   smul_s8_s32        48     0.0208 
35      34     concat_34 (concat)                        0      op_s8_s8           
36      35     conv2d_35 (conv2d)                1,179,744    smul_s8_s8    18,528     0.0091 
37      36     pack_36 (pack)                            0      op_s8_s8           
38      37     pack_37 (pack)                            0      op_s8_s8           
39      39     eltwise_39 (eltwise_integer)         24,576    smul_s8_s8           
40      41     gather_41 (gather)                        0   smul_s8_s32        48     0.0000 
41      42     conv2d_42_pad_before (pad)                0    smul_s8_s8           
42      42     conv2d_42 (conv2d)                  110,640    smul_s8_s8       480     0.0042 
43      43     conv2d_43 (conv2d)                  589,872    smul_s8_s8     2,352     0.0098 
44      45     conv2d_45 (conv2d)                  602,160    smul_s8_s8     2,400     0.0133 
45      46     conv2d_46 (conv2d)                  589,872    smul_s8_s8     2,352     0.0077 
46      47     conv2d_47_pad_before (pad)                0    smul_s8_s8           
47      47     conv2d_47 (conv2d)                  110,640    smul_s8_s8       480     0.0021 
48      48     eltwise_48 (eltwise_integer)         12,288    smul_s8_s8           
49      50     gather_50 (gather)                        0   smul_s8_s32        24     0.0000 
50      51     conv2d_51_pad_before (pad)                0    smul_s8_s8           
51      51     conv2d_51 (conv2d)                   55,320    smul_s8_s8       240     0.0042 
52      52     conv2d_52 (conv2d)                  147,480    smul_s8_s8       600     0.0000 
53      54     conv2d_54 (conv2d)                  301,080    smul_s8_s8     1,200     0.0142 
54      55     conv2d_55 (conv2d)                  147,480    smul_s8_s8       600     0.0050 
55      56     conv2d_56_pad_before (pad)                0    smul_s8_s8           
56      56     conv2d_56 (conv2d)                   55,320    smul_s8_s8       240     0.0042 
57      57     eltwise_57 (eltwise_integer)          6,144    smul_s8_s8           
58      49     gather_49 (gather)                        0   smul_s8_s32        24     0.0417 
59      40     gather_40 (gather)                        0   smul_s8_s32        48     0.0208 
60      58     concat_58 (concat)                        0      op_s8_s8           
61      59     conv2d_59 (conv2d)                2,359,392    smul_s8_s8     9,312     0.0078 
62      1      conv2d_1 (conv2d)                   110,640    smul_s8_s8       480     0.0042 
63      2      conv2d_2 (conv2d)                 1,179,744    smul_s8_s8     4,704     0.0181 
64      60     eltwise_60 (eltwise_integer)         24,576    smul_s8_s8           
65      62     gather_62 (gather)                        0   smul_s8_s32        48     0.0000 
66      63     conv2d_63_pad_before (pad)                0    smul_s8_s8           
67      63     conv2d_63 (conv2d)                  110,640    smul_s8_s8       480     0.0104 
68      64     conv2d_64 (conv2d)                  589,872    smul_s8_s8     2,352     0.0115 
69      66     conv2d_66 (conv2d)                  602,160    smul_s8_s8     2,400     0.0258 
70      67     conv2d_67 (conv2d)                  589,872    smul_s8_s8     2,352     0.0077 
71      68     conv2d_68_pad_before (pad)                0    smul_s8_s8           
72      68     conv2d_68 (conv2d)                  110,640    smul_s8_s8       480     0.0104 
73      69     eltwise_69 (eltwise_integer)         12,288    smul_s8_s8           
74      71     gather_71 (gather)                        0   smul_s8_s32        24     0.0000 
75      72     conv2d_72_pad_before (pad)                0    smul_s8_s8           
76      72     conv2d_72 (conv2d)                   55,320    smul_s8_s8       240     0.0125 
77      73     conv2d_73 (conv2d)                  147,480    smul_s8_s8       600     0.0050 
78      75     conv2d_75 (conv2d)                  301,080    smul_s8_s8     1,200     0.0217 
79      76     conv2d_76 (conv2d)                  147,480    smul_s8_s8       600     0.0033 
80      77     conv2d_77_pad_before (pad)                0    smul_s8_s8           
81      77     conv2d_77 (conv2d)                   55,320    smul_s8_s8       240     0.0000 
82      78     eltwise_78 (eltwise_integer)          6,144    smul_s8_s8           
83      70     gather_70 (gather)                        0   smul_s8_s32        24     0.0417 
84      61     gather_61 (gather)                        0   smul_s8_s32        48     0.0208 
85      79     concat_79 (concat)                        0      op_s8_s8           
86      80     conv2d_80 (conv2d)                2,359,392    smul_s8_s8     9,312     0.0098 
87      85     conv2d_85 (conv2d)                  614,496    smul_s8_s8     2,496     0.0172 
88      86     conv2d_86 (conv2d)                2,359,392    smul_s8_s8     9,312     0.0135 
89      88     conv2d_88 (conv2d)                  614,496    smul_s8_s8     2,496     0.0333 
90      89     conv2d_89 (conv2d)                2,359,392    smul_s8_s8     9,312     0.0249 
91      90     conv2d_90 (conv2d)                   98,308    smul_s8_s8       388     0.0567 
92      94     gather_94 (gather)                        0   smul_s8_s32         2     0.0000 
93      95     nl_95 (nl)                              512      op_s8_s8           
94      91     gather_91 (gather)                        0   smul_s8_s32         2     0.5000 
95      92     nl_92 (nl)                              512      op_s8_s8           
96      82     conv2d_81 (conv2d)                   24,833    smul_s8_s8        97     0.0103 
97      97     concat_97 (concat)                        0      op_s8_s8           
98      98     transpose_98 (transpose)                  0    smul_s8_s8           
99      100    transpose_100 (transpose)                 0    smul_s8_s8           
100     101    conversion_101 (converter)            2,560   smul_s8_f32           
------- ------ ------------------------------ ------------ ------------- --------- ---------- 
total                                           27,841,829                 174,225     0.0117 

Number of operation types
---------------- ------------ ----------- 
operation type              #           % 
---------------- ------------ ----------- 
smul_s8_s8         27,583,269       99.1% 
smul_s8_s32                 0        0.0% 
op_s8_s8              256,000        0.9% 
smul_s8_f32             2,560        0.0% 

Complexity report (model)
------ -------------------------- ------------------------- ------------------------- ---------- 
m_id   name                       c_macc                    c_rom                     c_id       
------ -------------------------- ------------------------- ------------------------- ---------- 
0      serving_default_input_20   |                  0.0%   |                  0.0%   [0]        
1      conv2d_1                   |                  0.4%   |                  0.3%   [62]       
2      conv2d_2                   ||||||||           4.2%   ||                 2.7%   [63]       
3      conv2d_3                   |                  0.4%   |                  0.3%   [1]        
4      conv2d_4                   ||||||||           4.2%   ||                 2.7%   [2]        
5      gather_5                   |                  0.0%   |                  0.1%   [14]       
6      gather_6                   |                  0.0%   |                  0.1%   [3]        
7      conv2d_7                   |                  0.4%   |                  0.3%   [4, 5]     
8      conv2d_8                   ||||               2.1%   |                  1.4%   [6]        
9      eltwise_9                  |                  0.0%   |                  0.0%   [7]        
10     gather_10                  |                  0.0%   |                  0.1%   [13]       
11     gather_11                  |                  0.0%   |                  0.1%   [8]        
12     conv2d_12                  |                  0.2%   |                  0.2%   [9, 10]    
13     conv2d_13                  |                  0.5%   |                  0.4%   [11]       
14     eltwise_14                 |                  0.0%   |                  0.0%   [12]       
15     concat_15                  |                  0.0%   |                  0.0%   [15]       
16     conv2d_16                  |||||||||||||||    8.5%   ||||               5.2%   [16]       
17     pad_17                     |                  0.0%   |                  0.0%   [17]       
18     conv2d_18                  |                  0.2%   |                  0.7%   [18]       
19     conv2d_19                  ||||||||           4.2%   ||||||||          10.5%   [19]       
20     gather_20                  |                  0.0%   |                  0.2%   [25]       
21     gather_21                  |                  0.0%   |                  0.2%   [20]       
22     conv2d_22                  |                  0.2%   |                  0.7%   [21, 22]   
23     conv2d_23                  ||||               2.1%   ||||               5.2%   [23]       
24     eltwise_24                 |                  0.0%   |                  0.0%   [24]       
25     concat_25                  |                  0.0%   |                  0.0%   [26]       
26     conv2d_26                  ||||||||||||||||   8.5%   ||||||||||||||||  20.6%   [27]       
27     gather_27                  |                  0.0%   |                  0.1%   [34]       
28     gather_28                  |                  0.0%   |                  0.1%   [32]       
29     pool_29                    |                  0.1%   |                  0.0%   [33]       
30     gather_30                  |                  0.0%   |                  0.1%   [30]       
31     pool_31                    |                  0.3%   |                  0.0%   [31]       
32     gather_32                  |                  0.0%   |                  0.1%   [28]       
33     pool_33                    |                  0.5%   |                  0.0%   [29]       
34     concat_34                  |                  0.0%   |                  0.0%   [35]       
35     conv2d_35                  ||||||||           4.2%   ||||||||          10.3%   [36]       
36     pack_36                    |                  0.0%   |                  0.0%   [37]       
37     pack_37                    |                  0.0%   |                  0.0%   [38]       
39     eltwise_39                 |                  0.1%   |                  0.0%   [39]       
40     gather_40                  |                  0.0%   |                  0.1%   [59]       
41     gather_41                  |                  0.0%   |                  0.1%   [40]       
42     conv2d_42                  |                  0.4%   |                  0.3%   [41, 42]   
43     conv2d_43                  ||||               2.1%   |                  1.4%   [43]       
45     conv2d_45                  ||||               2.2%   ||                 1.4%   [44]       
46     conv2d_46                  ||||               2.1%   |                  1.4%   [45]       
47     conv2d_47                  |                  0.4%   |                  0.3%   [46, 47]   
48     eltwise_48                 |                  0.0%   |                  0.0%   [48]       
49     gather_49                  |                  0.0%   |                  0.1%   [58]       
50     gather_50                  |                  0.0%   |                  0.1%   [49]       
51     conv2d_51                  |                  0.2%   |                  0.2%   [50, 51]   
52     conv2d_52                  |                  0.5%   |                  0.4%   [52]       
54     conv2d_54                  ||                 1.1%   |                  0.7%   [53]       
55     conv2d_55                  |                  0.5%   |                  0.4%   [54]       
56     conv2d_56                  |                  0.2%   |                  0.2%   [55, 56]   
57     eltwise_57                 |                  0.0%   |                  0.0%   [57]       
58     concat_58                  |                  0.0%   |                  0.0%   [60]       
59     conv2d_59                  |||||||||||||||    8.5%   ||||               5.2%   [61]       
60     eltwise_60                 |                  0.1%   |                  0.0%   [64]       
61     gather_61                  |                  0.0%   |                  0.1%   [84]       
62     gather_62                  |                  0.0%   |                  0.1%   [65]       
63     conv2d_63                  |                  0.4%   |                  0.3%   [66, 67]   
64     conv2d_64                  ||||               2.1%   |                  1.4%   [68]       
66     conv2d_66                  ||||               2.2%   ||                 1.4%   [69]       
67     conv2d_67                  ||||               2.1%   |                  1.4%   [70]       
68     conv2d_68                  |                  0.4%   |                  0.3%   [71, 72]   
69     eltwise_69                 |                  0.0%   |                  0.0%   [73]       
70     gather_70                  |                  0.0%   |                  0.1%   [83]       
71     gather_71                  |                  0.0%   |                  0.1%   [74]       
72     conv2d_72                  |                  0.2%   |                  0.2%   [75, 76]   
73     conv2d_73                  |                  0.5%   |                  0.4%   [77]       
75     conv2d_75                  ||                 1.1%   |                  0.7%   [78]       
76     conv2d_76                  |                  0.5%   |                  0.4%   [79]       
77     conv2d_77                  |                  0.2%   |                  0.2%   [80, 81]   
78     eltwise_78                 |                  0.0%   |                  0.0%   [82]       
79     concat_79                  |                  0.0%   |                  0.0%   [85]       
80     conv2d_80                  |||||||||||||||    8.5%   ||||               5.2%   [86]       
82     nl_82                      |                  0.1%   |                  0.1%   [96]       
85     conv2d_85                  ||||               2.2%   ||                 1.5%   [87]       
86     conv2d_86                  |||||||||||||||    8.5%   ||||               5.2%   [88]       
88     conv2d_88                  ||||               2.2%   ||                 1.5%   [89]       
89     conv2d_89                  |||||||||||||||    8.5%   ||||               5.2%   [90]       
90     conv2d_90                  |                  0.4%   |                  0.2%   [91]       
91     gather_91                  |                  0.0%   |                  0.0%   [94]       
92     nl_92                      |                  0.0%   |                  0.0%   [95]       
94     gather_94                  |                  0.0%   |                  0.0%   [92]       
95     nl_95                      |                  0.0%   |                  0.0%   [93]       
97     concat_97                  |                  0.0%   |                  0.0%   [97]       
98     transpose_98               |                  0.0%   |                  0.0%   [98]       
100    transpose_100              |                  0.0%   |                  0.0%   [99]       
101    conversion_101             |                  0.0%   |                  0.0%   [100]      
------ -------------------------- ------------------------- ------------------------- ---------- 
macc=27,841,829 weights=182,940 act=125,236 ram_io=0

Generated files (7)
--------------------------------------------------------------------------------------------------------------------------------- 
F:\MyWork\PyWork\gd32ai-modelzoo\object_detection\yolov10\results\deploy\coco_person_0009\Edge_AI\model\network_2_config.h        
F:\MyWork\PyWork\gd32ai-modelzoo\object_detection\yolov10\results\deploy\coco_person_0009\Edge_AI\model\network_2.h               
F:\MyWork\PyWork\gd32ai-modelzoo\object_detection\yolov10\results\deploy\coco_person_0009\Edge_AI\model\network_2.c               
F:\MyWork\PyWork\gd32ai-modelzoo\object_detection\yolov10\results\deploy\coco_person_0009\Edge_AI\model\network_2_data_params.h   
F:\MyWork\PyWork\gd32ai-modelzoo\object_detection\yolov10\results\deploy\coco_person_0009\Edge_AI\model\network_2_data_params.c   
F:\MyWork\PyWork\gd32ai-modelzoo\object_detection\yolov10\results\deploy\coco_person_0009\Edge_AI\model\network_2_data.h          
F:\MyWork\PyWork\gd32ai-modelzoo\object_detection\yolov10\results\deploy\coco_person_0009\Edge_AI\model\network_2_data.c          
