Neural Network Tools for STM32AI v1.7.0 (STM.ai v8.0.1-19451)
Created date          : 2024-03-25 11:58:27
Parameters            : generate --name network_1 -m results/deploy\food-101_0000\tflite\model.tflite --type tflite --compression none --verbosity 1 --workspace results/deploy\food-101_0000\temp --output results/deploy\food-101_0000\Edge_AI\model --allocate-inputs --series stm32h7 --allocate-outputs

Exec/report summary (generate)
-------------------------------------------------------------------------------------------------------------------------------------------
model file         :   F:\MyWork\PyWork\gd32ai-modelzoo\image_classification\ml_fastvit\results\deploy\food-101_0000\tflite\model.tflite   
type               :   tflite                                                                                                              
c_name             :   network_1                                                                                                           
compression        :   none                                                                                                                
options            :   allocate-inputs, allocate-outputs                                                                                   
optimization       :   balanced                                                                                                            
target/series      :   stm32h7                                                                                                             
workspace dir      :   F:\MyWork\PyWork\gd32ai-modelzoo\image_classification\ml_fastvit\results\deploy\food-101_0000\temp                  
output dir         :   F:\MyWork\PyWork\gd32ai-modelzoo\image_classification\ml_fastvit\results\deploy\food-101_0000\Edge_AI\model         
model_fmt          :   ss/sa per-channel                                                                                                   
model_name         :   model                                                                                                               
model_hash         :   e46a539bab22aec15f387904ce83fb6c                                                                                    
params #           :   279,054 items (282.86 KiB)                                                                                          
-------------------------------------------------------------------------------------------------------------------------------------------
input 1/1          :   'serving_default_input_10' (domain:activations/**default**)                                                         
                   :   150528 items, 147.00 KiB, ai_i8, s=0.01865845, zp=-14, (1,224,224,3)                                                
output 1/1         :   'conversion_82' (domain:activations/**default**)                                                                    
                   :   101 items, 404 B, ai_float, float, (1,1,1,101)                                                                      
macc               :   54,270,639                                                                                                          
weights (ro)       :   289,656 B (282.87 KiB) (1 segment) / -826,560(-74.1%) vs float model                                                
activations (rw)   :   317,700 B (310.25 KiB) (1 segment) *                                                                                
ram (total)        :   317,700 B (310.25 KiB) = 317,700 + 0 + 0                                                                            
-------------------------------------------------------------------------------------------------------------------------------------------
(*) 'input'/'output' buffers can be used from the activations buffer

Model name - model ['serving_default_input_10'] ['conversion_82']
------ ---------------------------------------------------------------- -------------------------- --------------- ----------- ------------------------------------------------ --- ------------------ --------------------- ---------------------------- 
m_id   layer (type,original)                                            oshape                     param/size             macc                                     connected to   | c_size             c_macc                c_type                       
------ ---------------------------------------------------------------- -------------------------- --------------- ----------- ------------------------------------------------ --- ------------------ --------------------- ---------------------------- 
0      serving_default_input_10 (Input, )                               [b:1,h:224,w:224,c:3]                                                                                     |                                          
       pad_0 (Pad, PAD)                                                 [b:1,h:226,w:226,c:3]                                                          serving_default_input_10   |                                          
------ ---------------------------------------------------------------- -------------------------- --------------- ----------- ------------------------------------------------ --- ------------------ --------------------- ---------------------------- 
1      conv2d_1 (Conv2D, CONV_2D)                                       [b:1,h:112,w:112,c:24]     672/744           8,128,536                                            pad_0   |                                          optimized_conv2d_oi8[0]      
       nl_1_nl (Nonlinearity, CONV_2D)                                  [b:1,h:112,w:112,c:24]                         301,056                                         conv2d_1   |                    -301,056(-100.0%)     
------ ---------------------------------------------------------------- -------------------------- --------------- ----------- ------------------------------------------------ --- ------------------ --------------------- ---------------------------- 
2      pad_2 (Pad, PAD)                                                 [b:1,h:114,w:114,c:24]                                                                          nl_1_nl   | +312(+100.0%)      +677,400(+100.0%)     conv2d_oi8[2]                
------ ---------------------------------------------------------------- -------------------------- --------------- ----------- ------------------------------------------------ --- ------------------ --------------------- ---------------------------- 
3      conv2d_3 (Conv2D, DEPTHWISE_CONV_2D)                             [b:1,h:56,w:56,c:24]       240/312             677,400                                            pad_2   | -312(-100.0%)      -677,400(-100.0%)     pad_oi8[1]                   
       nl_3_nl (Nonlinearity, DEPTHWISE_CONV_2D)                        [b:1,h:56,w:56,c:24]                            75,264                                         conv2d_3   |                    -75,264(-100.0%)      
------ ---------------------------------------------------------------- -------------------------- --------------- ----------- ------------------------------------------------ --- ------------------ --------------------- ---------------------------- 
4      conv2d_4 (Conv2D, CONV_2D)                                       [b:1,h:56,w:56,c:24]       600/672           1,806,360                                          nl_3_nl   |                                          conv2d_oi8[3]                
       nl_4_nl (Nonlinearity, CONV_2D)                                  [b:1,h:56,w:56,c:24]                            75,264                                         conv2d_4   |                    -75,264(-100.0%)      
------ ---------------------------------------------------------------- -------------------------- --------------- ----------- ------------------------------------------------ --- ------------------ --------------------- ---------------------------- 
5      conv2d_5 (Conv2D, DEPTHWISE_CONV_2D)                             [b:1,h:56,w:56,c:24]       240/312             677,400                                          nl_4_nl   |                                          pad_oi8/conv2d_oi8[4, 5]     
------ ---------------------------------------------------------------- -------------------------- --------------- ----------- ------------------------------------------------ --- ------------------ --------------------- ---------------------------- 
6      pad_6 (Pad, PAD)                                                 [b:1,h:62,w:62,c:24]                                                                           conv2d_5   | +1,272(+100.0%)    +3,687,960(+100.0%)   conv2d_oi8[6]                
------ ---------------------------------------------------------------- -------------------------- --------------- ----------- ------------------------------------------------ --- ------------------ --------------------- ---------------------------- 
7      conv2d_7 (Conv2D, DEPTHWISE_CONV_2D)                             [b:1,h:56,w:56,c:24]       1,200/1,272       3,687,960                                            pad_6   | -1,272(-100.0%)    -3,687,960(-100.0%)   
------ ---------------------------------------------------------------- -------------------------- --------------- ----------- ------------------------------------------------ --- ------------------ --------------------- ---------------------------- 
8      conv2d_8 (Conv2D, CONV_2D)                                       [b:1,h:56,w:56,c:48]       1,200/1,344       3,612,720                                         conv2d_7   |                                          conv2d_oi8[7]                
       nl_8_nl (Nonlinearity, CONV_2D)                                  [b:1,h:56,w:56,c:48]                           150,528                                         conv2d_8   |                    -150,528(-100.0%)     
------ ---------------------------------------------------------------- -------------------------- --------------- ----------- ------------------------------------------------ --- ------------------ --------------------- ---------------------------- 
9      conv2d_9 (Conv2D, CONV_2D)                                       [b:1,h:56,w:56,c:24]       1,176/1,248       3,612,696                                          nl_8_nl   |                                          conv2d_oi8[8]                
------ ---------------------------------------------------------------- -------------------------- --------------- ----------- ------------------------------------------------ --- ------------------ --------------------- ---------------------------- 
10     eltwise_10 (Eltwise, ADD)                                        [b:1,h:56,w:56,c:24]                            75,264                                         conv2d_5   |                                          eltwise_integer_oi8[9]       
                                                                                                                                                                       conv2d_9   | 
------ ---------------------------------------------------------------- -------------------------- --------------- ----------- ------------------------------------------------ --- ------------------ --------------------- ---------------------------- 
11     pad_11 (Pad, PAD)                                                [b:1,h:62,w:62,c:24]                                                                         eltwise_10   |                                          pad_oi8[10]                  
------ ---------------------------------------------------------------- -------------------------- --------------- ----------- ------------------------------------------------ --- ------------------ --------------------- ---------------------------- 
12     conv2d_12 (Conv2D, DEPTHWISE_CONV_2D)                            [b:1,h:28,w:28,c:24]       1,200/1,272         922,008                                           pad_11   |                                          conv2d_oi8[12]               
------ ---------------------------------------------------------------- -------------------------- --------------- ----------- ------------------------------------------------ --- ------------------ --------------------- ---------------------------- 
13     reshape_13 (Reshape, RESHAPE)                                    [b:1,h:1,w:28,d:28,c:24]                                                                      conv2d_12   |                                          
------ ---------------------------------------------------------------- -------------------------- --------------- ----------- ------------------------------------------------ --- ------------------ --------------------- ---------------------------- 
14     conv2d_14 (Conv2D, DEPTHWISE_CONV_2D)                            [b:1,h:28,w:28,c:24]       1,200/1,272         922,008                                           pad_11   |                                          conv2d_oi8[11]               
------ ---------------------------------------------------------------- -------------------------- --------------- ----------- ------------------------------------------------ --- ------------------ --------------------- ---------------------------- 
15     reshape_15 (Reshape, RESHAPE)                                    [b:1,h:1,w:28,d:28,c:24]                                                                      conv2d_14   |                                          
------ ---------------------------------------------------------------- -------------------------- --------------- ----------- ------------------------------------------------ --- ------------------ --------------------- ---------------------------- 
16     concat_16 (Concat, CONCATENATION)                                [b:1,h:2,w:28,d:28,c:24]                                                                     reshape_13   |                                          concat_oi8[13]               
                                                                                                                                                                     reshape_15   | 
------ ---------------------------------------------------------------- -------------------------- --------------- ----------- ------------------------------------------------ --- ------------------ --------------------- ---------------------------- 
17     transpose_17 (Transpose, TRANSPOSE)                              [b:1,h:24,w:2,d:28,c:28]                                                                      concat_16   |                                          transpose_oi8[14]            
------ ---------------------------------------------------------------- -------------------------- --------------- ----------- ------------------------------------------------ --- ------------------ --------------------- ---------------------------- 
18     reshape_18 (Reshape, RESHAPE)                                    [b:1,h:48,w:28,c:28]                                                                       transpose_17   |                                          
------ ---------------------------------------------------------------- -------------------------- --------------- ----------- ------------------------------------------------ --- ------------------ --------------------- ---------------------------- 
19     transpose_19 (Transpose, TRANSPOSE)                              [b:1,h:28,w:28,c:48]                                                                         reshape_18   |                                          transpose_oi8[15]            
------ ---------------------------------------------------------------- -------------------------- --------------- ----------- ------------------------------------------------ --- ------------------ --------------------- ---------------------------- 
20     conv2d_20 (Conv2D, CONV_2D)                                      [b:1,h:28,w:28,c:48]       2,352/2,496       1,806,384                                     transpose_19   |                                          conv2d_oi8[16]               
       nl_20_nl (Nonlinearity, CONV_2D)                                 [b:1,h:28,w:28,c:48]                            37,632                                        conv2d_20   |                    -37,632(-100.0%)      
------ ---------------------------------------------------------------- -------------------------- --------------- ----------- ------------------------------------------------ --- ------------------ --------------------- ---------------------------- 
21     conv2d_21 (Conv2D, DEPTHWISE_CONV_2D)                            [b:1,h:28,w:28,c:48]       480/624             338,736                                         nl_20_nl   |                                          pad_oi8/conv2d_oi8[17, 18]   
------ ---------------------------------------------------------------- -------------------------- --------------- ----------- ------------------------------------------------ --- ------------------ --------------------- ---------------------------- 
22     pad_22 (Pad, PAD)                                                [b:1,h:34,w:34,c:48]                                                                          conv2d_21   | +2,544(+100.0%)    +1,844,016(+100.0%)   conv2d_oi8[19]               
------ ---------------------------------------------------------------- -------------------------- --------------- ----------- ------------------------------------------------ --- ------------------ --------------------- ---------------------------- 
23     conv2d_23 (Conv2D, DEPTHWISE_CONV_2D)                            [b:1,h:28,w:28,c:48]       2,400/2,544       1,844,016                                           pad_22   | -2,544(-100.0%)    -1,844,016(-100.0%)   
------ ---------------------------------------------------------------- -------------------------- --------------- ----------- ------------------------------------------------ --- ------------------ --------------------- ---------------------------- 
24     conv2d_24 (Conv2D, CONV_2D)                                      [b:1,h:28,w:28,c:96]       4,704/4,992       3,612,768                                        conv2d_23   |                                          conv2d_oi8[20]               
       nl_24_nl (Nonlinearity, CONV_2D)                                 [b:1,h:28,w:28,c:96]                            75,264                                        conv2d_24   |                    -75,264(-100.0%)      
------ ---------------------------------------------------------------- -------------------------- --------------- ----------- ------------------------------------------------ --- ------------------ --------------------- ---------------------------- 
25     conv2d_25 (Conv2D, CONV_2D)                                      [b:1,h:28,w:28,c:48]       4,656/4,800       3,612,720                                         nl_24_nl   |                                          conv2d_oi8[21]               
------ ---------------------------------------------------------------- -------------------------- --------------- ----------- ------------------------------------------------ --- ------------------ --------------------- ---------------------------- 
26     eltwise_26 (Eltwise, ADD)                                        [b:1,h:28,w:28,c:48]                            37,632                                        conv2d_21   |                                          eltwise_integer_oi8[22]      
                                                                                                                                                                      conv2d_25   | 
------ ---------------------------------------------------------------- -------------------------- --------------- ----------- ------------------------------------------------ --- ------------------ --------------------- ---------------------------- 
27     pad_27 (Pad, PAD)                                                [b:1,h:34,w:34,c:48]                                                                         eltwise_26   |                                          pad_oi8[23]                  
------ ---------------------------------------------------------------- -------------------------- --------------- ----------- ------------------------------------------------ --- ------------------ --------------------- ---------------------------- 
28     conv2d_28 (Conv2D, DEPTHWISE_CONV_2D)                            [b:1,h:14,w:14,c:48]       2,400/2,544         461,040                                           pad_27   |                                          conv2d_oi8[25]               
------ ---------------------------------------------------------------- -------------------------- --------------- ----------- ------------------------------------------------ --- ------------------ --------------------- ---------------------------- 
29     reshape_29 (Reshape, RESHAPE)                                    [b:1,h:1,w:14,d:14,c:48]                                                                      conv2d_28   |                                          
------ ---------------------------------------------------------------- -------------------------- --------------- ----------- ------------------------------------------------ --- ------------------ --------------------- ---------------------------- 
30     conv2d_30 (Conv2D, DEPTHWISE_CONV_2D)                            [b:1,h:14,w:14,c:48]       2,400/2,544         461,040                                           pad_27   |                                          conv2d_oi8[24]               
------ ---------------------------------------------------------------- -------------------------- --------------- ----------- ------------------------------------------------ --- ------------------ --------------------- ---------------------------- 
31     reshape_31 (Reshape, RESHAPE)                                    [b:1,h:1,w:14,d:14,c:48]                                                                      conv2d_30   |                                          
------ ---------------------------------------------------------------- -------------------------- --------------- ----------- ------------------------------------------------ --- ------------------ --------------------- ---------------------------- 
32     concat_32 (Concat, CONCATENATION)                                [b:1,h:2,w:14,d:14,c:48]                                                                     reshape_29   |                                          concat_oi8[26]               
                                                                                                                                                                     reshape_31   | 
------ ---------------------------------------------------------------- -------------------------- --------------- ----------- ------------------------------------------------ --- ------------------ --------------------- ---------------------------- 
33     transpose_33 (Transpose, TRANSPOSE)                              [b:1,h:48,w:2,d:14,c:14]                                                                      concat_32   |                                          transpose_oi8[27]            
------ ---------------------------------------------------------------- -------------------------- --------------- ----------- ------------------------------------------------ --- ------------------ --------------------- ---------------------------- 
34     reshape_34 (Reshape, RESHAPE)                                    [b:1,h:96,w:14,c:14]                                                                       transpose_33   |                                          
------ ---------------------------------------------------------------- -------------------------- --------------- ----------- ------------------------------------------------ --- ------------------ --------------------- ---------------------------- 
35     transpose_35 (Transpose, TRANSPOSE)                              [b:1,h:14,w:14,c:96]                                                                         reshape_34   |                                          transpose_oi8[28]            
------ ---------------------------------------------------------------- -------------------------- --------------- ----------- ------------------------------------------------ --- ------------------ --------------------- ---------------------------- 
36     conv2d_36 (Conv2D, CONV_2D)                                      [b:1,h:14,w:14,c:96]       9,312/9,600       1,806,432                                     transpose_35   |                                          conv2d_oi8[29]               
       nl_36_nl (Nonlinearity, CONV_2D)                                 [b:1,h:14,w:14,c:96]                            18,816                                        conv2d_36   |                    -18,816(-100.0%)      
------ ---------------------------------------------------------------- -------------------------- --------------- ----------- ------------------------------------------------ --- ------------------ --------------------- ---------------------------- 
37     conv2d_37 (Conv2D, DEPTHWISE_CONV_2D)                            [b:1,h:14,w:14,c:96]       960/1,248           169,440                                         nl_36_nl   |                                          pad_oi8/conv2d_oi8[30, 31]   
------ ---------------------------------------------------------------- -------------------------- --------------- ----------- ------------------------------------------------ --- ------------------ --------------------- ---------------------------- 
38     pad_38 (Pad, PAD)                                                [b:1,h:20,w:20,c:96]                                                                          conv2d_37   | +5,088(+100.0%)    +922,080(+100.0%)     conv2d_oi8[32]               
------ ---------------------------------------------------------------- -------------------------- --------------- ----------- ------------------------------------------------ --- ------------------ --------------------- ---------------------------- 
39     conv2d_39 (Conv2D, DEPTHWISE_CONV_2D)                            [b:1,h:14,w:14,c:96]       4,800/5,088         922,080                                           pad_38   | -5,088(-100.0%)    -922,080(-100.0%)     
------ ---------------------------------------------------------------- -------------------------- --------------- ----------- ------------------------------------------------ --- ------------------ --------------------- ---------------------------- 
40     conv2d_40 (Conv2D, CONV_2D)                                      [b:1,h:14,w:14,c:96]       9,312/9,600       1,806,432                                        conv2d_39   |                                          conv2d_oi8[33]               
       nl_40_nl (Nonlinearity, CONV_2D)                                 [b:1,h:14,w:14,c:96]                            18,816                                        conv2d_40   |                    -18,816(-100.0%)      
------ ---------------------------------------------------------------- -------------------------- --------------- ----------- ------------------------------------------------ --- ------------------ --------------------- ---------------------------- 
41     conv2d_41 (Conv2D, CONV_2D)                                      [b:1,h:14,w:14,c:96]       9,312/9,600       1,806,432                                         nl_40_nl   |                                          conv2d_oi8[34]               
------ ---------------------------------------------------------------- -------------------------- --------------- ----------- ------------------------------------------------ --- ------------------ --------------------- ---------------------------- 
42     eltwise_42 (Eltwise, ADD)                                        [b:1,h:14,w:14,c:96]                            18,816                                        conv2d_37   |                                          eltwise_integer_oi8[35]      
                                                                                                                                                                      conv2d_41   | 
------ ---------------------------------------------------------------- -------------------------- --------------- ----------- ------------------------------------------------ --- ------------------ --------------------- ---------------------------- 
43     conv2d_43 (Conv2D, DEPTHWISE_CONV_2D)                            [b:1,h:14,w:14,c:96]       960/1,248           169,440                                       eltwise_42   |                                          pad_oi8/conv2d_oi8[36, 37]   
------ ---------------------------------------------------------------- -------------------------- --------------- ----------- ------------------------------------------------ --- ------------------ --------------------- ---------------------------- 
44     pad_44 (Pad, PAD)                                                [b:1,h:20,w:20,c:96]                                                                          conv2d_43   | +5,088(+100.0%)    +922,080(+100.0%)     conv2d_oi8[38]               
------ ---------------------------------------------------------------- -------------------------- --------------- ----------- ------------------------------------------------ --- ------------------ --------------------- ---------------------------- 
45     conv2d_45 (Conv2D, DEPTHWISE_CONV_2D)                            [b:1,h:14,w:14,c:96]       4,800/5,088         922,080                                           pad_44   | -5,088(-100.0%)    -922,080(-100.0%)     
------ ---------------------------------------------------------------- -------------------------- --------------- ----------- ------------------------------------------------ --- ------------------ --------------------- ---------------------------- 
46     conv2d_46 (Conv2D, CONV_2D)                                      [b:1,h:14,w:14,c:96]       9,312/9,600       1,806,432                                        conv2d_45   |                                          conv2d_oi8[39]               
       nl_46_nl (Nonlinearity, CONV_2D)                                 [b:1,h:14,w:14,c:96]                            18,816                                        conv2d_46   |                    -18,816(-100.0%)      
------ ---------------------------------------------------------------- -------------------------- --------------- ----------- ------------------------------------------------ --- ------------------ --------------------- ---------------------------- 
47     conv2d_47 (Conv2D, CONV_2D)                                      [b:1,h:14,w:14,c:96]       9,312/9,600       1,806,432                                         nl_46_nl   |                                          conv2d_oi8[40]               
------ ---------------------------------------------------------------- -------------------------- --------------- ----------- ------------------------------------------------ --- ------------------ --------------------- ---------------------------- 
48     eltwise_48 (Eltwise, ADD)                                        [b:1,h:14,w:14,c:96]                            18,816                                        conv2d_43   |                                          eltwise_integer_oi8[41]      
                                                                                                                                                                      conv2d_47   | 
------ ---------------------------------------------------------------- -------------------------- --------------- ----------- ------------------------------------------------ --- ------------------ --------------------- ---------------------------- 
49     pad_49 (Pad, PAD)                                                [b:1,h:20,w:20,c:96]                                                                         eltwise_48   |                                          pad_oi8[42]                  
------ ---------------------------------------------------------------- -------------------------- --------------- ----------- ------------------------------------------------ --- ------------------ --------------------- ---------------------------- 
50     conv2d_50 (Conv2D, DEPTHWISE_CONV_2D)                            [b:1,h:7,w:7,c:96]         4,800/5,088         230,592                                           pad_49   |                                          conv2d_oi8[44]               
------ ---------------------------------------------------------------- -------------------------- --------------- ----------- ------------------------------------------------ --- ------------------ --------------------- ---------------------------- 
51     reshape_51 (Reshape, RESHAPE)                                    [b:1,h:1,w:7,d:7,c:96]                                                                        conv2d_50   |                                          
------ ---------------------------------------------------------------- -------------------------- --------------- ----------- ------------------------------------------------ --- ------------------ --------------------- ---------------------------- 
52     conv2d_52 (Conv2D, DEPTHWISE_CONV_2D)                            [b:1,h:7,w:7,c:96]         4,800/5,088         230,592                                           pad_49   |                                          conv2d_oi8[43]               
------ ---------------------------------------------------------------- -------------------------- --------------- ----------- ------------------------------------------------ --- ------------------ --------------------- ---------------------------- 
53     reshape_53 (Reshape, RESHAPE)                                    [b:1,h:1,w:7,d:7,c:96]                                                                        conv2d_52   |                                          
------ ---------------------------------------------------------------- -------------------------- --------------- ----------- ------------------------------------------------ --- ------------------ --------------------- ---------------------------- 
54     concat_54 (Concat, CONCATENATION)                                [b:1,h:2,w:7,d:7,c:96]                                                                       reshape_51   |                                          concat_oi8[45]               
                                                                                                                                                                     reshape_53   | 
------ ---------------------------------------------------------------- -------------------------- --------------- ----------- ------------------------------------------------ --- ------------------ --------------------- ---------------------------- 
55     transpose_55 (Transpose, TRANSPOSE)                              [b:1,h:96,w:2,d:7,c:7]                                                                        concat_54   |                                          transpose_oi8[46]            
------ ---------------------------------------------------------------- -------------------------- --------------- ----------- ------------------------------------------------ --- ------------------ --------------------- ---------------------------- 
56     reshape_56 (Reshape, RESHAPE)                                    [b:1,h:192,w:7,c:7]                                                                        transpose_55   |                                          
------ ---------------------------------------------------------------- -------------------------- --------------- ----------- ------------------------------------------------ --- ------------------ --------------------- ---------------------------- 
57     transpose_57 (Transpose, TRANSPOSE)                              [b:1,h:7,w:7,c:192]                                                                          reshape_56   |                                          transpose_oi8[47]            
------ ---------------------------------------------------------------- -------------------------- --------------- ----------- ------------------------------------------------ --- ------------------ --------------------- ---------------------------- 
58     conv2d_58 (Conv2D, CONV_2D)                                      [b:1,h:7,w:7,c:192]        37,056/37,632     1,806,528                                     transpose_57   |                                          conv2d_oi8[48]               
       nl_58_nl (Nonlinearity, CONV_2D)                                 [b:1,h:7,w:7,c:192]                              9,408                                        conv2d_58   |                    -9,408(-100.0%)       
------ ---------------------------------------------------------------- -------------------------- --------------- ----------- ------------------------------------------------ --- ------------------ --------------------- ---------------------------- 
59     conv2d_59 (Conv2D, DEPTHWISE_CONV_2D)                            [b:1,h:7,w:7,c:192]        1,920/2,496          84,864                                         nl_58_nl   |                                          pad_oi8/conv2d_oi8[49, 50]   
------ ---------------------------------------------------------------- -------------------------- --------------- ----------- ------------------------------------------------ --- ------------------ --------------------- ---------------------------- 
60     pad_60 (Pad, PAD)                                                [b:1,h:13,w:13,c:192]                                                                         conv2d_59   | +10,176(+100.0%)   +461,184(+100.0%)     conv2d_oi8[51]               
------ ---------------------------------------------------------------- -------------------------- --------------- ----------- ------------------------------------------------ --- ------------------ --------------------- ---------------------------- 
61     conv2d_61 (Conv2D, DEPTHWISE_CONV_2D)                            [b:1,h:7,w:7,c:192]        9,600/10,176        461,184                                           pad_60   | -10,176(-100.0%)   -461,184(-100.0%)     
------ ---------------------------------------------------------------- -------------------------- --------------- ----------- ------------------------------------------------ --- ------------------ --------------------- ---------------------------- 
62     conv2d_62 (Conv2D, CONV_2D)                                      [b:1,h:7,w:7,c:192]        37,056/37,632     1,806,528                                        conv2d_61   |                                          conv2d_oi8[52]               
       nl_62_nl (Nonlinearity, CONV_2D)                                 [b:1,h:7,w:7,c:192]                              9,408                                        conv2d_62   |                    -9,408(-100.0%)       
------ ---------------------------------------------------------------- -------------------------- --------------- ----------- ------------------------------------------------ --- ------------------ --------------------- ---------------------------- 
63     conv2d_63 (Conv2D, CONV_2D)                                      [b:1,h:7,w:7,c:192]        37,056/37,632     1,806,528                                         nl_62_nl   |                                          conv2d_oi8[53]               
------ ---------------------------------------------------------------- -------------------------- --------------- ----------- ------------------------------------------------ --- ------------------ --------------------- ---------------------------- 
64     eltwise_64 (Eltwise, ADD)                                        [b:1,h:7,w:7,c:192]                              9,408                                        conv2d_59   |                                          eltwise_integer_oi8[54]      
                                                                                                                                                                      conv2d_63   | 
------ ---------------------------------------------------------------- -------------------------- --------------- ----------- ------------------------------------------------ --- ------------------ --------------------- ---------------------------- 
65     conv2d_65 (Conv2D, DEPTHWISE_CONV_2D)                            [b:1,h:7,w:7,c:192]        1,920/2,496          84,864                                       eltwise_64   |                                          pad_oi8/conv2d_oi8[55, 56]   
------ ---------------------------------------------------------------- -------------------------- --------------- ----------- ------------------------------------------------ --- ------------------ --------------------- ---------------------------- 
66     reshape_66 (Reshape, RESHAPE)                                    [b:1,h:1,w:7,d:7,c:192]                                                                       conv2d_65   |                                          
------ ---------------------------------------------------------------- -------------------------- --------------- ----------- ------------------------------------------------ --- ------------------ --------------------- ---------------------------- 
67     conv2d_67 (Conv2D, DEPTHWISE_CONV_2D)                            [b:1,h:7,w:7,c:192]        1,920/2,496          84,864                                       eltwise_64   |                                          pad_oi8/conv2d_oi8[57, 58]   
------ ---------------------------------------------------------------- -------------------------- --------------- ----------- ------------------------------------------------ --- ------------------ --------------------- ---------------------------- 
68     reshape_68 (Reshape, RESHAPE)                                    [b:1,h:1,w:7,d:7,c:192]                                                                       conv2d_67   |                                          
------ ---------------------------------------------------------------- -------------------------- --------------- ----------- ------------------------------------------------ --- ------------------ --------------------- ---------------------------- 
69     concat_69 (Concat, CONCATENATION)                                [b:1,h:2,w:7,d:7,c:192]                                                                      reshape_66   |                                          concat_oi8[59]               
                                                                                                                                                                     reshape_68   | 
------ ---------------------------------------------------------------- -------------------------- --------------- ----------- ------------------------------------------------ --- ------------------ --------------------- ---------------------------- 
70     transpose_70 (Transpose, TRANSPOSE)                              [b:1,h:192,w:2,d:7,c:7]                                                                       concat_69   |                                          transpose_oi8[60]            
------ ---------------------------------------------------------------- -------------------------- --------------- ----------- ------------------------------------------------ --- ------------------ --------------------- ---------------------------- 
71     reshape_71 (Reshape, RESHAPE)                                    [b:1,h:384,w:7,c:7]                                                                        transpose_70   |                                          
------ ---------------------------------------------------------------- -------------------------- --------------- ----------- ------------------------------------------------ --- ------------------ --------------------- ---------------------------- 
72     transpose_72 (Transpose, TRANSPOSE)                              [b:1,h:7,w:7,c:384]                                                                          reshape_71   |                                          transpose_oi8[61]            
------ ---------------------------------------------------------------- -------------------------- --------------- ----------- ------------------------------------------------ --- ------------------ --------------------- ---------------------------- 
73     pool_73 (Pool, AVERAGE_POOL_2D)                                  [b:1,h:1,w:1,c:384]                             18,816                                     transpose_72   |                                          pool_oi8[62]                 
------ ---------------------------------------------------------------- -------------------------- --------------- ----------- ------------------------------------------------ --- ------------------ --------------------- ---------------------------- 
74     conv2d_74 (Conv2D, CONV_2D)                                      [b:1,h:1,w:1,c:24]         9,240/9,312           9,240                                          pool_73   | -9,312(-100.0%)    -9,240(-100.0%)       
       nl_74_nl (Nonlinearity, CONV_2D)                                 [b:1,h:1,w:1,c:24]                                  24                                        conv2d_74   |                    -24(-100.0%)          
------ ---------------------------------------------------------------- -------------------------- --------------- ----------- ------------------------------------------------ --- ------------------ --------------------- ---------------------------- 
75     nl_75 (Nonlinearity, RELU6)                                      [b:1,h:1,w:1,c:24]                                  24                                         nl_74_nl   | +9,312(+100.0%)    +9,240(+38500.0%)     conv2d_oi8[63]               
------ ---------------------------------------------------------------- -------------------------- --------------- ----------- ------------------------------------------------ --- ------------------ --------------------- ---------------------------- 
76     conv2d_76 (Conv2D, CONV_2D)                                      [b:1,h:1,w:1,c:384]        9,600/10,752          9,600                                            nl_75   |                                          conv2d_oi8[64]               
------ ---------------------------------------------------------------- -------------------------- --------------- ----------- ------------------------------------------------ --- ------------------ --------------------- ---------------------------- 
77     model_tf_clip_by_value_clip_by_value_Minimum_y (Placeholder, )   []                         1/1                                                                            | +3(+300.0%)        +384(+100.0%)         eltwise_integer_oi8[65]      
       eltwise_77 (Eltwise, MINIMUM)                                    [b:1,h:1,w:1,c:384]                                384                                        conv2d_76   |                    -384(-100.0%)         
                                                                                                                                 model_tf_clip_by_value_clip_by_value_Minimum_y   | 
------ ---------------------------------------------------------------- -------------------------- --------------- ----------- ------------------------------------------------ --- ------------------ --------------------- ---------------------------- 
78     nl_78 (Nonlinearity, RELU)                                       [b:1,h:1,w:1,c:384]                                384                                       eltwise_77   |                                          nl_oi8[66]                   
------ ---------------------------------------------------------------- -------------------------- --------------- ----------- ------------------------------------------------ --- ------------------ --------------------- ---------------------------- 
79     eltwise_79 (Eltwise, MUL)                                        [b:1,h:7,w:7,c:384]                             18,816                                     transpose_72   |                                          eltwise_integer_oi8[67]      
                                                                                                                                                                          nl_78   | 
       nl_79_nl (Nonlinearity, MUL)                                     [b:1,h:7,w:7,c:384]                             18,816                                       eltwise_79   |                    -18,816(-100.0%)      
------ ---------------------------------------------------------------- -------------------------- --------------- ----------- ------------------------------------------------ --- ------------------ --------------------- ---------------------------- 
80     pool_80 (Pool, MEAN)                                             [b:1,h:1,w:1,c:384]                             18,816                                         nl_79_nl   |                                          pool_oi8[68]                 
------ ---------------------------------------------------------------- -------------------------- --------------- ----------- ------------------------------------------------ --- ------------------ --------------------- ---------------------------- 
81     reshape_81 (Reshape, FULLY_CONNECTED)                            [b:1,c:384]                                                                                     pool_80   | +39,188(+100.0%)   +38,885(+100.0%)      dense_oi8[69]                
       dense_81_dense (Dense, FULLY_CONNECTED)                          [b:1,c:101]                38,885/39,188        38,885                                       reshape_81   | -39,188(-100.0%)   -38,885(-100.0%)      
------ ---------------------------------------------------------------- -------------------------- --------------- ----------- ------------------------------------------------ --- ------------------ --------------------- ---------------------------- 
82     conversion_82 (Conversion, DEQUANTIZE)                           [b:1,c:101]                                        202                                   dense_81_dense   |                                          converter_of32[o][70]        
------ ---------------------------------------------------------------- -------------------------- --------------- ----------- ------------------------------------------------ --- ------------------ --------------------- ---------------------------- 
model/c-model: macc=55,079,751/54,270,639 -809,112(-1.5%) weights=289,653/289,656 +3(+0.0%) activations=--/317,700 io=--/0



Generated C-graph summary
------------------------------------------------------------------------------------------------------------------------
model name            : model
c-name                : network_1
c-node #              : 71
c-array #             : 196
activations size      : 317700 (1 segment)
weights size          : 289656 (1 segment)
macc                  : 54270639
inputs                : ['serving_default_input_10_output']
outputs               : ['conversion_82_output']

C-Arrays (196)
------ ------------------------------------------------ --------------- ------------------------- --------------- -------------- --------- 
c_id   name (*_array)                                   item/size       domain/mem-pool           c-type          fmt            comment   
------ ------------------------------------------------ --------------- ------------------------- --------------- -------------- --------- 
0      conv2d_43_weights                                864/864         weights/weights           const int8_t    ss8/ch(96)               
1      conv2d_43_bias                                   96/384          weights/weights           const int32_t   ss32/ch(96)              
2      conv2d_45_weights                                4704/4704       weights/weights           const int8_t    ss8/ch(96)               
3      conv2d_45_bias                                   96/384          weights/weights           const int32_t   ss32/ch(96)              
4      conv2d_46_weights                                9216/9216       weights/weights           const int8_t    ss8/ch(96)               
5      conv2d_46_bias                                   96/384          weights/weights           const int32_t   ss32/ch(96)              
6      conv2d_47_weights                                9216/9216       weights/weights           const int8_t    ss8/ch(96)               
7      conv2d_47_bias                                   96/384          weights/weights           const int32_t   ss32/ch(96)              
8      conv2d_52_weights                                4704/4704       weights/weights           const int8_t    ss8/ch(96)               
9      conv2d_52_bias                                   96/384          weights/weights           const int32_t   ss32/ch(96)              
10     conv2d_50_weights                                4704/4704       weights/weights           const int8_t    ss8/ch(96)               
11     conv2d_50_bias                                   96/384          weights/weights           const int32_t   ss32/ch(96)              
12     conv2d_58_weights                                36864/36864     weights/weights           const int8_t    ss8/ch(192)              
13     conv2d_58_bias                                   192/768         weights/weights           const int32_t   ss32/ch(192)             
14     conv2d_59_weights                                1728/1728       weights/weights           const int8_t    ss8/ch(192)              
15     conv2d_59_bias                                   192/768         weights/weights           const int32_t   ss32/ch(192)             
16     conv2d_61_weights                                9408/9408       weights/weights           const int8_t    ss8/ch(192)              
17     conv2d_61_bias                                   192/768         weights/weights           const int32_t   ss32/ch(192)             
18     conv2d_62_weights                                36864/36864     weights/weights           const int8_t    ss8/ch(192)              
19     conv2d_62_bias                                   192/768         weights/weights           const int32_t   ss32/ch(192)             
20     conv2d_63_weights                                36864/36864     weights/weights           const int8_t    ss8/ch(192)              
21     conv2d_63_bias                                   192/768         weights/weights           const int32_t   ss32/ch(192)             
22     conv2d_65_weights                                1728/1728       weights/weights           const int8_t    ss8/ch(192)              
23     conv2d_65_bias                                   192/768         weights/weights           const int32_t   ss32/ch(192)             
24     conv2d_67_weights                                1728/1728       weights/weights           const int8_t    ss8/ch(192)              
25     conv2d_67_bias                                   192/768         weights/weights           const int32_t   ss32/ch(192)             
26     conv2d_74_weights                                9216/9216       weights/weights           const int8_t    ss8/ch(24)               
27     conv2d_74_bias                                   24/96           weights/weights           const int32_t   ss32/ch(24)              
28     conv2d_76_weights                                9216/9216       weights/weights           const int8_t    ss8/ch(384)              
29     conv2d_76_bias                                   384/1536        weights/weights           const int32_t   ss32/ch(384)             
30     dense_81_dense_weights                           38784/38784     weights/weights           const int8_t    ss8                      
31     dense_81_dense_bias                              101/404         weights/weights           const int32_t   ss32                     
32     conv2d_1_scratch0                                1740/1740       activations/**default**   int8_t          s8                       
33     conv2d_1_scratch1                                301056/301056   activations/**default**   int8_t          sa8                      
34     conv2d_3_scratch0                                889/889         activations/**default**   int8_t          s8                       
35     conv2d_3_scratch1                                75264/75264     activations/**default**   int8_t          sa8                      
36     serving_default_input_10_output                  150528/150529   activations/**default**   int8_t          sa8            /input    
37     conv2d_1_output                                  301056/301056   activations/**default**   int8_t          sa8                      
38     conv2d_4_scratch0                                336/336         activations/**default**   int8_t          s8                       
39     conv2d_3_pad_before_output                       311904/311904   activations/**default**   int8_t          sa8                      
40     conv2d_3_output                                  75264/75264     activations/**default**   int8_t          sa8                      
41     conv2d_4_scratch1                                75264/75264     activations/**default**   int8_t          sa8                      
42     conv2d_4_output                                  75264/75264     activations/**default**   int8_t          sa8                      
43     conv2d_5_pad_before_output                       80736/80736     activations/**default**   int8_t          sa8                      
44     conv2d_5_scratch0                                889/889         activations/**default**   int8_t          s8                       
45     conv2d_5_output                                  75264/75264     activations/**default**   int8_t          sa8                      
46     conv2d_7_output                                  75264/75264     activations/**default**   int8_t          sa8                      
47     conv2d_8_output                                  150528/150528   activations/**default**   int8_t          sa8                      
48     conv2d_7_scratch0                                3769/3769       activations/**default**   int8_t          s8                       
49     conv2d_9_output                                  75264/75264     activations/**default**   int8_t          sa8                      
50     eltwise_10_output                                75264/75264     activations/**default**   int8_t          sa8                      
51     conv2d_8_scratch0                                576/576         activations/**default**   int8_t          s8                       
52     pad_11_output                                    92256/92256     activations/**default**   int8_t          sa8                      
53     conv2d_14_output                                 18816/18816     activations/**default**   int8_t          sa8                      
54     conv2d_8_scratch1                                150528/150528   activations/**default**   int8_t          sa8                      
55     conv2d_12_output                                 18816/18816     activations/**default**   int8_t          sa8                      
56     concat_16_output                                 37632/37632     activations/**default**   int8_t          sa8                      
57     conv2d_9_scratch0                                432/432         activations/**default**   int8_t          s8                       
58     transpose_17_output                              37632/37632     activations/**default**   int8_t          sa8                      
59     transpose_19_output                              37632/37632     activations/**default**   int8_t          sa8                      
60     conv2d_20_output                                 37632/37632     activations/**default**   int8_t          sa8                      
61     conv2d_14_scratch0                               3769/3769       activations/**default**   int8_t          s8                       
62     conv2d_21_pad_before_output                      43200/43200     activations/**default**   int8_t          sa8                      
63     conv2d_21_output                                 37632/37632     activations/**default**   int8_t          sa8                      
64     conv2d_12_scratch0                               3769/3769       activations/**default**   int8_t          s8                       
65     conv2d_23_output                                 37632/37632     activations/**default**   int8_t          sa8                      
66     conv2d_24_output                                 75264/75264     activations/**default**   int8_t          sa8                      
67     conv2d_25_output                                 37632/37632     activations/**default**   int8_t          sa8                      
68     conv2d_20_scratch0                               672/672         activations/**default**   int8_t          s8                       
69     eltwise_26_output                                37632/37632     activations/**default**   int8_t          sa8                      
70     conv2d_20_scratch1                               37632/37632     activations/**default**   int8_t          sa8                      
71     pad_27_output                                    55488/55488     activations/**default**   int8_t          sa8                      
72     conv2d_30_output                                 9408/9408       activations/**default**   int8_t          sa8                      
73     conv2d_28_output                                 9408/9408       activations/**default**   int8_t          sa8                      
74     conv2d_21_scratch0                               1777/1777       activations/**default**   int8_t          s8                       
75     concat_32_output                                 18816/18816     activations/**default**   int8_t          sa8                      
76     transpose_33_output                              18816/18816     activations/**default**   int8_t          sa8                      
77     conv2d_23_scratch0                               7537/7537       activations/**default**   int8_t          s8                       
78     transpose_35_output                              18816/18816     activations/**default**   int8_t          sa8                      
79     conv2d_36_output                                 18816/18816     activations/**default**   int8_t          sa8                      
80     conv2d_37_pad_before_output                      24576/24576     activations/**default**   int8_t          sa8                      
81     conv2d_24_scratch0                               1152/1152       activations/**default**   int8_t          s8                       
82     conv2d_37_output                                 18816/18816     activations/**default**   int8_t          sa8                      
83     conv2d_24_scratch1                               75264/75264     activations/**default**   int8_t          sa8                      
84     conv2d_39_output                                 18816/18816     activations/**default**   int8_t          sa8                      
85     conv2d_40_output                                 18816/18816     activations/**default**   int8_t          sa8                      
86     conv2d_41_output                                 18816/18816     activations/**default**   int8_t          sa8                      
87     conv2d_25_scratch0                               864/864         activations/**default**   int8_t          s8                       
88     eltwise_42_output                                18816/18816     activations/**default**   int8_t          sa8                      
89     conv2d_43_pad_before_output                      24576/24576     activations/**default**   int8_t          sa8                      
90     conv2d_30_scratch0                               7537/7537       activations/**default**   int8_t          s8                       
91     conv2d_43_output                                 18816/18816     activations/**default**   int8_t          sa8                      
92     conv2d_45_output                                 18816/18816     activations/**default**   int8_t          sa8                      
93     conv2d_46_output                                 18816/18816     activations/**default**   int8_t          sa8                      
94     conv2d_28_scratch0                               7537/7537       activations/**default**   int8_t          s8                       
95     conv2d_47_output                                 18816/18816     activations/**default**   int8_t          sa8                      
96     eltwise_48_output                                18816/18816     activations/**default**   int8_t          sa8                      
97     conv2d_36_scratch0                               1344/1344       activations/**default**   int8_t          s8                       
98     pad_49_output                                    38400/38400     activations/**default**   int8_t          sa8                      
99     conv2d_52_output                                 4704/4704       activations/**default**   int8_t          sa8                      
100    conv2d_36_scratch1                               18816/18816     activations/**default**   int8_t          sa8                      
101    conv2d_50_output                                 4704/4704       activations/**default**   int8_t          sa8                      
102    concat_54_output                                 9408/9408       activations/**default**   int8_t          sa8                      
103    conv2d_37_scratch0                               3553/3553       activations/**default**   int8_t          s8                       
104    transpose_55_output                              9408/9408       activations/**default**   int8_t          sa8                      
105    transpose_57_output                              9408/9408       activations/**default**   int8_t          sa8                      
106    conv2d_58_output                                 9408/9408       activations/**default**   int8_t          sa8                      
107    conv2d_39_scratch0                               15073/15073     activations/**default**   int8_t          s8                       
108    conv2d_59_pad_before_output                      15552/15552     activations/**default**   int8_t          sa8                      
109    conv2d_59_output                                 9408/9408       activations/**default**   int8_t          sa8                      
110    conv2d_40_scratch0                               1344/1344       activations/**default**   int8_t          s8                       
111    conv2d_61_output                                 9408/9408       activations/**default**   int8_t          sa8                      
112    conv2d_62_output                                 9408/9408       activations/**default**   int8_t          sa8                      
113    conv2d_40_scratch1                               18816/18816     activations/**default**   int8_t          sa8                      
114    conv2d_63_output                                 9408/9408       activations/**default**   int8_t          sa8                      
115    eltwise_64_output                                9408/9408       activations/**default**   int8_t          ss8                      
116    conv2d_41_scratch0                               1344/1344       activations/**default**   int8_t          s8                       
117    conv2d_65_pad_before_output                      15552/15552     activations/**default**   int8_t          ss8                      
118    conv2d_65_output                                 9408/9408       activations/**default**   int8_t          sa8                      
119    conv2d_67_pad_before_output                      15552/15552     activations/**default**   int8_t          ss8                      
120    conv2d_43_scratch0                               3553/3553       activations/**default**   int8_t          s8                       
121    conv2d_67_output                                 9408/9408       activations/**default**   int8_t          sa8                      
122    concat_69_output                                 18816/18816     activations/**default**   int8_t          sa8                      
123    conv2d_45_scratch0                               15073/15073     activations/**default**   int8_t          s8                       
124    transpose_70_output                              18816/18816     activations/**default**   int8_t          sa8                      
125    transpose_72_output                              18816/18816     activations/**default**   int8_t          sa8                      
126    pool_73_output                                   384/384         activations/**default**   int8_t          sa8                      
127    conv2d_46_scratch0                               1344/1344       activations/**default**   int8_t          s8                       
128    conv2d_74_output                                 24/24           activations/**default**   int8_t          sa8                      
129    conv2d_46_scratch1                               18816/18816     activations/**default**   int8_t          sa8                      
130    conv2d_76_output                                 384/384         activations/**default**   int8_t          sa8                      
131    eltwise_77_output                                384/384         activations/**default**   int8_t          sa8                      
132    nl_78_output                                     384/384         activations/**default**   int8_t          sa8                      
133    conv2d_47_scratch0                               1344/1344       activations/**default**   int8_t          s8                       
134    eltwise_79_output                                18816/18816     activations/**default**   int8_t          sa8                      
135    pool_80_output                                   384/384         activations/**default**   int8_t          sa8                      
136    conv2d_52_scratch0                               15073/15073     activations/**default**   int8_t          s8                       
137    dense_81_dense_output                            101/101         activations/**default**   int8_t          sa8                      
138    conversion_82_output                             101/404         activations/**default**   float           float32        /output   
139    conv2d_50_scratch0                               15073/15073     activations/**default**   int8_t          s8                       
140    conv2d_58_scratch0                               2688/2688       activations/**default**   int8_t          s8                       
141    conv2d_58_scratch1                               9408/9408       activations/**default**   int8_t          sa8                      
142    conv2d_59_scratch0                               7105/7105       activations/**default**   int8_t          s8                       
143    conv2d_61_scratch0                               30145/30145     activations/**default**   int8_t          s8                       
144    conv2d_62_scratch0                               2688/2688       activations/**default**   int8_t          s8                       
145    conv2d_62_scratch1                               9408/9408       activations/**default**   int8_t          sa8                      
146    conv2d_63_scratch0                               2688/2688       activations/**default**   int8_t          s8                       
147    conv2d_65_scratch0                               7105/7105       activations/**default**   int8_t          s8                       
148    conv2d_67_scratch0                               7105/7105       activations/**default**   int8_t          s8                       
149    conv2d_74_scratch0                               1776/1776       activations/**default**   int8_t          s8                       
150    conv2d_74_scratch1                               24/24           activations/**default**   int8_t          sa8                      
151    conv2d_76_scratch0                               3936/3936       activations/**default**   int8_t          s8                       
152    model_tf_clip_by_value_clip_by_value_Minimum_y   1/4             weights/weights           const int8_t    sa8                      
153    conv2d_1_weights                                 648/648         weights/weights           const int8_t    ss8/ch(24)               
154    dense_81_dense_scratch0                          384/768         activations/**default**   int16_t         s16                      
155    conv2d_1_bias                                    24/96           weights/weights           const int32_t   ss32/ch(24)              
156    conv2d_3_weights                                 216/216         weights/weights           const int8_t    ss8/ch(24)               
157    conv2d_3_bias                                    24/96           weights/weights           const int32_t   ss32/ch(24)              
158    conv2d_4_weights                                 576/576         weights/weights           const int8_t    ss8/ch(24)               
159    conv2d_4_bias                                    24/96           weights/weights           const int32_t   ss32/ch(24)              
160    conv2d_5_weights                                 216/216         weights/weights           const int8_t    ss8/ch(24)               
161    conv2d_5_bias                                    24/96           weights/weights           const int32_t   ss32/ch(24)              
162    conv2d_7_weights                                 1176/1176       weights/weights           const int8_t    ss8/ch(24)               
163    conv2d_7_bias                                    24/96           weights/weights           const int32_t   ss32/ch(24)              
164    conv2d_8_weights                                 1152/1152       weights/weights           const int8_t    ss8/ch(48)               
165    conv2d_8_bias                                    48/192          weights/weights           const int32_t   ss32/ch(48)              
166    conv2d_9_weights                                 1152/1152       weights/weights           const int8_t    ss8/ch(24)               
167    conv2d_9_bias                                    24/96           weights/weights           const int32_t   ss32/ch(24)              
168    conv2d_14_weights                                1176/1176       weights/weights           const int8_t    ss8/ch(24)               
169    conv2d_14_bias                                   24/96           weights/weights           const int32_t   ss32/ch(24)              
170    conv2d_12_weights                                1176/1176       weights/weights           const int8_t    ss8/ch(24)               
171    conv2d_12_bias                                   24/96           weights/weights           const int32_t   ss32/ch(24)              
172    conv2d_20_weights                                2304/2304       weights/weights           const int8_t    ss8/ch(48)               
173    conv2d_20_bias                                   48/192          weights/weights           const int32_t   ss32/ch(48)              
174    conv2d_21_weights                                432/432         weights/weights           const int8_t    ss8/ch(48)               
175    conv2d_21_bias                                   48/192          weights/weights           const int32_t   ss32/ch(48)              
176    conv2d_23_weights                                2352/2352       weights/weights           const int8_t    ss8/ch(48)               
177    conv2d_23_bias                                   48/192          weights/weights           const int32_t   ss32/ch(48)              
178    conv2d_24_weights                                4608/4608       weights/weights           const int8_t    ss8/ch(96)               
179    conv2d_24_bias                                   96/384          weights/weights           const int32_t   ss32/ch(96)              
180    conv2d_25_weights                                4608/4608       weights/weights           const int8_t    ss8/ch(48)               
181    conv2d_25_bias                                   48/192          weights/weights           const int32_t   ss32/ch(48)              
182    conv2d_30_weights                                2352/2352       weights/weights           const int8_t    ss8/ch(48)               
183    conv2d_30_bias                                   48/192          weights/weights           const int32_t   ss32/ch(48)              
184    conv2d_28_weights                                2352/2352       weights/weights           const int8_t    ss8/ch(48)               
185    conv2d_28_bias                                   48/192          weights/weights           const int32_t   ss32/ch(48)              
186    conv2d_36_weights                                9216/9216       weights/weights           const int8_t    ss8/ch(96)               
187    conv2d_36_bias                                   96/384          weights/weights           const int32_t   ss32/ch(96)              
188    conv2d_37_weights                                864/864         weights/weights           const int8_t    ss8/ch(96)               
189    conv2d_37_bias                                   96/384          weights/weights           const int32_t   ss32/ch(96)              
190    conv2d_39_weights                                4704/4704       weights/weights           const int8_t    ss8/ch(96)               
191    conv2d_39_bias                                   96/384          weights/weights           const int32_t   ss32/ch(96)              
192    conv2d_40_weights                                9216/9216       weights/weights           const int8_t    ss8/ch(96)               
193    conv2d_40_bias                                   96/384          weights/weights           const int32_t   ss32/ch(96)              
194    conv2d_41_weights                                9216/9216       weights/weights           const int8_t    ss8/ch(96)               
195    conv2d_41_bias                                   96/384          weights/weights           const int32_t   ss32/ch(96)              
------ ------------------------------------------------ --------------- ------------------------- --------------- -------------- --------- 

C-Layers (71)
------ ---------------------- ---- ------------------- --------- ------- --------------------------------------------------- --------------------- 
c_id   name (*_layer)         id   layer_type          macc      rom     tensors                                             shape (array id)      
------ ---------------------- ---- ------------------- --------- ------- --------------------------------------------------- --------------------- 
0      conv2d_1               1    optimized_conv2d    8128536   744     I: serving_default_input_10_output                  (1,224,224,3) (36)    
                                                                         S: conv2d_1_scratch0                                                      
                                                                         S: conv2d_1_scratch1                                                      
                                                                         W: conv2d_1_weights                                 (3,24,3,3) (153)      
                                                                         W: conv2d_1_bias                                    (1,1,1,24) (155)      
                                                                         O: conv2d_1_output                                  (1,112,112,24) (37)   
------ ---------------------- ---- ------------------- --------- ------- --------------------------------------------------- --------------------- 
1      conv2d_3_pad_before    3    pad                 0         0       I: conv2d_1_output                                  (1,112,112,24) (37)   
                                                                         O: conv2d_3_pad_before_output                       (1,114,114,24) (39)   
------ ---------------------- ---- ------------------- --------- ------- --------------------------------------------------- --------------------- 
2      conv2d_3               2    conv2d              677400    312     I: conv2d_3_pad_before_output                       (1,114,114,24) (39)   
                                                                         S: conv2d_3_scratch0                                                      
                                                                         S: conv2d_3_scratch1                                                      
                                                                         W: conv2d_3_weights                                 (24,1,3,3) (156)      
                                                                         W: conv2d_3_bias                                    (1,1,1,24) (157)      
                                                                         O: conv2d_3_output                                  (1,56,56,24) (40)     
------ ---------------------- ---- ------------------- --------- ------- --------------------------------------------------- --------------------- 
3      conv2d_4               4    conv2d              1806360   672     I: conv2d_3_output                                  (1,56,56,24) (40)     
                                                                         S: conv2d_4_scratch0                                                      
                                                                         S: conv2d_4_scratch1                                                      
                                                                         W: conv2d_4_weights                                 (24,24,1,1) (158)     
                                                                         W: conv2d_4_bias                                    (1,1,1,24) (159)      
                                                                         O: conv2d_4_output                                  (1,56,56,24) (42)     
------ ---------------------- ---- ------------------- --------- ------- --------------------------------------------------- --------------------- 
4      conv2d_5_pad_before    5    pad                 0         0       I: conv2d_4_output                                  (1,56,56,24) (42)     
                                                                         O: conv2d_5_pad_before_output                       (1,58,58,24) (43)     
------ ---------------------- ---- ------------------- --------- ------- --------------------------------------------------- --------------------- 
5      conv2d_5               5    conv2d              677400    312     I: conv2d_5_pad_before_output                       (1,58,58,24) (43)     
                                                                         S: conv2d_5_scratch0                                                      
                                                                         W: conv2d_5_weights                                 (24,1,3,3) (160)      
                                                                         W: conv2d_5_bias                                    (1,1,1,24) (161)      
                                                                         O: conv2d_5_output                                  (1,56,56,24) (45)     
------ ---------------------- ---- ------------------- --------- ------- --------------------------------------------------- --------------------- 
6      conv2d_7               6    conv2d              3687960   1272    I: conv2d_5_output                                  (1,56,56,24) (45)     
                                                                         S: conv2d_7_scratch0                                                      
                                                                         W: conv2d_7_weights                                 (24,1,7,7) (162)      
                                                                         W: conv2d_7_bias                                    (1,1,1,24) (163)      
                                                                         O: conv2d_7_output                                  (1,56,56,24) (46)     
------ ---------------------- ---- ------------------- --------- ------- --------------------------------------------------- --------------------- 
7      conv2d_8               8    conv2d              3612720   1344    I: conv2d_7_output                                  (1,56,56,24) (46)     
                                                                         S: conv2d_8_scratch0                                                      
                                                                         S: conv2d_8_scratch1                                                      
                                                                         W: conv2d_8_weights                                 (24,48,1,1) (164)     
                                                                         W: conv2d_8_bias                                    (1,1,1,48) (165)      
                                                                         O: conv2d_8_output                                  (1,56,56,48) (47)     
------ ---------------------- ---- ------------------- --------- ------- --------------------------------------------------- --------------------- 
8      conv2d_9               9    conv2d              3612696   1248    I: conv2d_8_output                                  (1,56,56,48) (47)     
                                                                         S: conv2d_9_scratch0                                                      
                                                                         W: conv2d_9_weights                                 (48,24,1,1) (166)     
                                                                         W: conv2d_9_bias                                    (1,1,1,24) (167)      
                                                                         O: conv2d_9_output                                  (1,56,56,24) (49)     
------ ---------------------- ---- ------------------- --------- ------- --------------------------------------------------- --------------------- 
9      eltwise_10             10   eltwise_integer     75264     0       I: conv2d_5_output                                  (1,56,56,24) (45)     
                                                                         I: conv2d_9_output                                  (1,56,56,24) (49)     
                                                                         O: eltwise_10_output                                (1,56,56,24) (50)     
------ ---------------------- ---- ------------------- --------- ------- --------------------------------------------------- --------------------- 
10     pad_11                 11   pad                 0         0       I: eltwise_10_output                                (1,56,56,24) (50)     
                                                                         O: pad_11_output                                    (1,62,62,24) (52)     
------ ---------------------- ---- ------------------- --------- ------- --------------------------------------------------- --------------------- 
11     conv2d_14              14   conv2d              922008    1272    I: pad_11_output                                    (1,62,62,24) (52)     
                                                                         S: conv2d_14_scratch0                                                     
                                                                         W: conv2d_14_weights                                (24,1,7,7) (168)      
                                                                         W: conv2d_14_bias                                   (1,1,1,24) (169)      
                                                                         O: conv2d_14_output                                 (1,28,28,24) (53)     
------ ---------------------- ---- ------------------- --------- ------- --------------------------------------------------- --------------------- 
12     conv2d_12              12   conv2d              922008    1272    I: pad_11_output                                    (1,62,62,24) (52)     
                                                                         S: conv2d_12_scratch0                                                     
                                                                         W: conv2d_12_weights                                (24,1,7,7) (170)      
                                                                         W: conv2d_12_bias                                   (1,1,1,24) (171)      
                                                                         O: conv2d_12_output                                 (1,28,28,24) (55)     
------ ---------------------- ---- ------------------- --------- ------- --------------------------------------------------- --------------------- 
13     concat_16              16   concat              0         0       I: conv2d_12_output0                                (1,1,28,28,24) (55)   
                                                                         I: conv2d_14_output0                                (1,1,28,28,24) (53)   
                                                                         O: concat_16_output                                 (1,2,28,28,24) (56)   
------ ---------------------- ---- ------------------- --------- ------- --------------------------------------------------- --------------------- 
14     transpose_17           17   transpose           0         0       I: concat_16_output                                 (1,2,28,28,24) (56)   
                                                                         O: transpose_17_output                              (1,24,2,28,28) (58)   
------ ---------------------- ---- ------------------- --------- ------- --------------------------------------------------- --------------------- 
15     transpose_19           19   transpose           0         0       I: transpose_17_output0                             (1,48,28,28) (58)     
                                                                         O: transpose_19_output                              (1,28,28,48) (59)     
------ ---------------------- ---- ------------------- --------- ------- --------------------------------------------------- --------------------- 
16     conv2d_20              20   conv2d              1806384   2496    I: transpose_19_output                              (1,28,28,48) (59)     
                                                                         S: conv2d_20_scratch0                                                     
                                                                         S: conv2d_20_scratch1                                                     
                                                                         W: conv2d_20_weights                                (48,48,1,1) (172)     
                                                                         W: conv2d_20_bias                                   (1,1,1,48) (173)      
                                                                         O: conv2d_20_output                                 (1,28,28,48) (60)     
------ ---------------------- ---- ------------------- --------- ------- --------------------------------------------------- --------------------- 
17     conv2d_21_pad_before   21   pad                 0         0       I: conv2d_20_output                                 (1,28,28,48) (60)     
                                                                         O: conv2d_21_pad_before_output                      (1,30,30,48) (62)     
------ ---------------------- ---- ------------------- --------- ------- --------------------------------------------------- --------------------- 
18     conv2d_21              21   conv2d              338736    624     I: conv2d_21_pad_before_output                      (1,30,30,48) (62)     
                                                                         S: conv2d_21_scratch0                                                     
                                                                         W: conv2d_21_weights                                (48,1,3,3) (174)      
                                                                         W: conv2d_21_bias                                   (1,1,1,48) (175)      
                                                                         O: conv2d_21_output                                 (1,28,28,48) (63)     
------ ---------------------- ---- ------------------- --------- ------- --------------------------------------------------- --------------------- 
19     conv2d_23              22   conv2d              1844016   2544    I: conv2d_21_output                                 (1,28,28,48) (63)     
                                                                         S: conv2d_23_scratch0                                                     
                                                                         W: conv2d_23_weights                                (48,1,7,7) (176)      
                                                                         W: conv2d_23_bias                                   (1,1,1,48) (177)      
                                                                         O: conv2d_23_output                                 (1,28,28,48) (65)     
------ ---------------------- ---- ------------------- --------- ------- --------------------------------------------------- --------------------- 
20     conv2d_24              24   conv2d              3612768   4992    I: conv2d_23_output                                 (1,28,28,48) (65)     
                                                                         S: conv2d_24_scratch0                                                     
                                                                         S: conv2d_24_scratch1                                                     
                                                                         W: conv2d_24_weights                                (48,96,1,1) (178)     
                                                                         W: conv2d_24_bias                                   (1,1,1,96) (179)      
                                                                         O: conv2d_24_output                                 (1,28,28,96) (66)     
------ ---------------------- ---- ------------------- --------- ------- --------------------------------------------------- --------------------- 
21     conv2d_25              25   conv2d              3612720   4800    I: conv2d_24_output                                 (1,28,28,96) (66)     
                                                                         S: conv2d_25_scratch0                                                     
                                                                         W: conv2d_25_weights                                (96,48,1,1) (180)     
                                                                         W: conv2d_25_bias                                   (1,1,1,48) (181)      
                                                                         O: conv2d_25_output                                 (1,28,28,48) (67)     
------ ---------------------- ---- ------------------- --------- ------- --------------------------------------------------- --------------------- 
22     eltwise_26             26   eltwise_integer     37632     0       I: conv2d_21_output                                 (1,28,28,48) (63)     
                                                                         I: conv2d_25_output                                 (1,28,28,48) (67)     
                                                                         O: eltwise_26_output                                (1,28,28,48) (69)     
------ ---------------------- ---- ------------------- --------- ------- --------------------------------------------------- --------------------- 
23     pad_27                 27   pad                 0         0       I: eltwise_26_output                                (1,28,28,48) (69)     
                                                                         O: pad_27_output                                    (1,34,34,48) (71)     
------ ---------------------- ---- ------------------- --------- ------- --------------------------------------------------- --------------------- 
24     conv2d_30              30   conv2d              461040    2544    I: pad_27_output                                    (1,34,34,48) (71)     
                                                                         S: conv2d_30_scratch0                                                     
                                                                         W: conv2d_30_weights                                (48,1,7,7) (182)      
                                                                         W: conv2d_30_bias                                   (1,1,1,48) (183)      
                                                                         O: conv2d_30_output                                 (1,14,14,48) (72)     
------ ---------------------- ---- ------------------- --------- ------- --------------------------------------------------- --------------------- 
25     conv2d_28              28   conv2d              461040    2544    I: pad_27_output                                    (1,34,34,48) (71)     
                                                                         S: conv2d_28_scratch0                                                     
                                                                         W: conv2d_28_weights                                (48,1,7,7) (184)      
                                                                         W: conv2d_28_bias                                   (1,1,1,48) (185)      
                                                                         O: conv2d_28_output                                 (1,14,14,48) (73)     
------ ---------------------- ---- ------------------- --------- ------- --------------------------------------------------- --------------------- 
26     concat_32              32   concat              0         0       I: conv2d_28_output0                                (1,1,14,14,48) (73)   
                                                                         I: conv2d_30_output0                                (1,1,14,14,48) (72)   
                                                                         O: concat_32_output                                 (1,2,14,14,48) (75)   
------ ---------------------- ---- ------------------- --------- ------- --------------------------------------------------- --------------------- 
27     transpose_33           33   transpose           0         0       I: concat_32_output                                 (1,2,14,14,48) (75)   
                                                                         O: transpose_33_output                              (1,48,2,14,14) (76)   
------ ---------------------- ---- ------------------- --------- ------- --------------------------------------------------- --------------------- 
28     transpose_35           35   transpose           0         0       I: transpose_33_output0                             (1,96,14,14) (76)     
                                                                         O: transpose_35_output                              (1,14,14,96) (78)     
------ ---------------------- ---- ------------------- --------- ------- --------------------------------------------------- --------------------- 
29     conv2d_36              36   conv2d              1806432   9600    I: transpose_35_output                              (1,14,14,96) (78)     
                                                                         S: conv2d_36_scratch0                                                     
                                                                         S: conv2d_36_scratch1                                                     
                                                                         W: conv2d_36_weights                                (96,96,1,1) (186)     
                                                                         W: conv2d_36_bias                                   (1,1,1,96) (187)      
                                                                         O: conv2d_36_output                                 (1,14,14,96) (79)     
------ ---------------------- ---- ------------------- --------- ------- --------------------------------------------------- --------------------- 
30     conv2d_37_pad_before   37   pad                 0         0       I: conv2d_36_output                                 (1,14,14,96) (79)     
                                                                         O: conv2d_37_pad_before_output                      (1,16,16,96) (80)     
------ ---------------------- ---- ------------------- --------- ------- --------------------------------------------------- --------------------- 
31     conv2d_37              37   conv2d              169440    1248    I: conv2d_37_pad_before_output                      (1,16,16,96) (80)     
                                                                         S: conv2d_37_scratch0                                                     
                                                                         W: conv2d_37_weights                                (96,1,3,3) (188)      
                                                                         W: conv2d_37_bias                                   (1,1,1,96) (189)      
                                                                         O: conv2d_37_output                                 (1,14,14,96) (82)     
------ ---------------------- ---- ------------------- --------- ------- --------------------------------------------------- --------------------- 
32     conv2d_39              38   conv2d              922080    5088    I: conv2d_37_output                                 (1,14,14,96) (82)     
                                                                         S: conv2d_39_scratch0                                                     
                                                                         W: conv2d_39_weights                                (96,1,7,7) (190)      
                                                                         W: conv2d_39_bias                                   (1,1,1,96) (191)      
                                                                         O: conv2d_39_output                                 (1,14,14,96) (84)     
------ ---------------------- ---- ------------------- --------- ------- --------------------------------------------------- --------------------- 
33     conv2d_40              40   conv2d              1806432   9600    I: conv2d_39_output                                 (1,14,14,96) (84)     
                                                                         S: conv2d_40_scratch0                                                     
                                                                         S: conv2d_40_scratch1                                                     
                                                                         W: conv2d_40_weights                                (96,96,1,1) (192)     
                                                                         W: conv2d_40_bias                                   (1,1,1,96) (193)      
                                                                         O: conv2d_40_output                                 (1,14,14,96) (85)     
------ ---------------------- ---- ------------------- --------- ------- --------------------------------------------------- --------------------- 
34     conv2d_41              41   conv2d              1806432   9600    I: conv2d_40_output                                 (1,14,14,96) (85)     
                                                                         S: conv2d_41_scratch0                                                     
                                                                         W: conv2d_41_weights                                (96,96,1,1) (194)     
                                                                         W: conv2d_41_bias                                   (1,1,1,96) (195)      
                                                                         O: conv2d_41_output                                 (1,14,14,96) (86)     
------ ---------------------- ---- ------------------- --------- ------- --------------------------------------------------- --------------------- 
35     eltwise_42             42   eltwise_integer     18816     0       I: conv2d_37_output                                 (1,14,14,96) (82)     
                                                                         I: conv2d_41_output                                 (1,14,14,96) (86)     
                                                                         O: eltwise_42_output                                (1,14,14,96) (88)     
------ ---------------------- ---- ------------------- --------- ------- --------------------------------------------------- --------------------- 
36     conv2d_43_pad_before   43   pad                 0         0       I: eltwise_42_output                                (1,14,14,96) (88)     
                                                                         O: conv2d_43_pad_before_output                      (1,16,16,96) (89)     
------ ---------------------- ---- ------------------- --------- ------- --------------------------------------------------- --------------------- 
37     conv2d_43              43   conv2d              169440    1248    I: conv2d_43_pad_before_output                      (1,16,16,96) (89)     
                                                                         S: conv2d_43_scratch0                                                     
                                                                         W: conv2d_43_weights                                (96,1,3,3) (0)        
                                                                         W: conv2d_43_bias                                   (1,1,1,96) (1)        
                                                                         O: conv2d_43_output                                 (1,14,14,96) (91)     
------ ---------------------- ---- ------------------- --------- ------- --------------------------------------------------- --------------------- 
38     conv2d_45              44   conv2d              922080    5088    I: conv2d_43_output                                 (1,14,14,96) (91)     
                                                                         S: conv2d_45_scratch0                                                     
                                                                         W: conv2d_45_weights                                (96,1,7,7) (2)        
                                                                         W: conv2d_45_bias                                   (1,1,1,96) (3)        
                                                                         O: conv2d_45_output                                 (1,14,14,96) (92)     
------ ---------------------- ---- ------------------- --------- ------- --------------------------------------------------- --------------------- 
39     conv2d_46              46   conv2d              1806432   9600    I: conv2d_45_output                                 (1,14,14,96) (92)     
                                                                         S: conv2d_46_scratch0                                                     
                                                                         S: conv2d_46_scratch1                                                     
                                                                         W: conv2d_46_weights                                (96,96,1,1) (4)       
                                                                         W: conv2d_46_bias                                   (1,1,1,96) (5)        
                                                                         O: conv2d_46_output                                 (1,14,14,96) (93)     
------ ---------------------- ---- ------------------- --------- ------- --------------------------------------------------- --------------------- 
40     conv2d_47              47   conv2d              1806432   9600    I: conv2d_46_output                                 (1,14,14,96) (93)     
                                                                         S: conv2d_47_scratch0                                                     
                                                                         W: conv2d_47_weights                                (96,96,1,1) (6)       
                                                                         W: conv2d_47_bias                                   (1,1,1,96) (7)        
                                                                         O: conv2d_47_output                                 (1,14,14,96) (95)     
------ ---------------------- ---- ------------------- --------- ------- --------------------------------------------------- --------------------- 
41     eltwise_48             48   eltwise_integer     18816     0       I: conv2d_43_output                                 (1,14,14,96) (91)     
                                                                         I: conv2d_47_output                                 (1,14,14,96) (95)     
                                                                         O: eltwise_48_output                                (1,14,14,96) (96)     
------ ---------------------- ---- ------------------- --------- ------- --------------------------------------------------- --------------------- 
42     pad_49                 49   pad                 0         0       I: eltwise_48_output                                (1,14,14,96) (96)     
                                                                         O: pad_49_output                                    (1,20,20,96) (98)     
------ ---------------------- ---- ------------------- --------- ------- --------------------------------------------------- --------------------- 
43     conv2d_52              52   conv2d              230592    5088    I: pad_49_output                                    (1,20,20,96) (98)     
                                                                         S: conv2d_52_scratch0                                                     
                                                                         W: conv2d_52_weights                                (96,1,7,7) (8)        
                                                                         W: conv2d_52_bias                                   (1,1,1,96) (9)        
                                                                         O: conv2d_52_output                                 (1,7,7,96) (99)       
------ ---------------------- ---- ------------------- --------- ------- --------------------------------------------------- --------------------- 
44     conv2d_50              50   conv2d              230592    5088    I: pad_49_output                                    (1,20,20,96) (98)     
                                                                         S: conv2d_50_scratch0                                                     
                                                                         W: conv2d_50_weights                                (96,1,7,7) (10)       
                                                                         W: conv2d_50_bias                                   (1,1,1,96) (11)       
                                                                         O: conv2d_50_output                                 (1,7,7,96) (101)      
------ ---------------------- ---- ------------------- --------- ------- --------------------------------------------------- --------------------- 
45     concat_54              54   concat              0         0       I: conv2d_50_output0                                (1,1,7,7,96) (101)    
                                                                         I: conv2d_52_output0                                (1,1,7,7,96) (99)     
                                                                         O: concat_54_output                                 (1,2,7,7,96) (102)    
------ ---------------------- ---- ------------------- --------- ------- --------------------------------------------------- --------------------- 
46     transpose_55           55   transpose           0         0       I: concat_54_output                                 (1,2,7,7,96) (102)    
                                                                         O: transpose_55_output                              (1,96,2,7,7) (104)    
------ ---------------------- ---- ------------------- --------- ------- --------------------------------------------------- --------------------- 
47     transpose_57           57   transpose           0         0       I: transpose_55_output0                             (1,192,7,7) (104)     
                                                                         O: transpose_57_output                              (1,7,7,192) (105)     
------ ---------------------- ---- ------------------- --------- ------- --------------------------------------------------- --------------------- 
48     conv2d_58              58   conv2d              1806528   37632   I: transpose_57_output                              (1,7,7,192) (105)     
                                                                         S: conv2d_58_scratch0                                                     
                                                                         S: conv2d_58_scratch1                                                     
                                                                         W: conv2d_58_weights                                (192,192,1,1) (12)    
                                                                         W: conv2d_58_bias                                   (1,1,1,192) (13)      
                                                                         O: conv2d_58_output                                 (1,7,7,192) (106)     
------ ---------------------- ---- ------------------- --------- ------- --------------------------------------------------- --------------------- 
49     conv2d_59_pad_before   59   pad                 0         0       I: conv2d_58_output                                 (1,7,7,192) (106)     
                                                                         O: conv2d_59_pad_before_output                      (1,9,9,192) (108)     
------ ---------------------- ---- ------------------- --------- ------- --------------------------------------------------- --------------------- 
50     conv2d_59              59   conv2d              84864     2496    I: conv2d_59_pad_before_output                      (1,9,9,192) (108)     
                                                                         S: conv2d_59_scratch0                                                     
                                                                         W: conv2d_59_weights                                (192,1,3,3) (14)      
                                                                         W: conv2d_59_bias                                   (1,1,1,192) (15)      
                                                                         O: conv2d_59_output                                 (1,7,7,192) (109)     
------ ---------------------- ---- ------------------- --------- ------- --------------------------------------------------- --------------------- 
51     conv2d_61              60   conv2d              461184    10176   I: conv2d_59_output                                 (1,7,7,192) (109)     
                                                                         S: conv2d_61_scratch0                                                     
                                                                         W: conv2d_61_weights                                (192,1,7,7) (16)      
                                                                         W: conv2d_61_bias                                   (1,1,1,192) (17)      
                                                                         O: conv2d_61_output                                 (1,7,7,192) (111)     
------ ---------------------- ---- ------------------- --------- ------- --------------------------------------------------- --------------------- 
52     conv2d_62              62   conv2d              1806528   37632   I: conv2d_61_output                                 (1,7,7,192) (111)     
                                                                         S: conv2d_62_scratch0                                                     
                                                                         S: conv2d_62_scratch1                                                     
                                                                         W: conv2d_62_weights                                (192,192,1,1) (18)    
                                                                         W: conv2d_62_bias                                   (1,1,1,192) (19)      
                                                                         O: conv2d_62_output                                 (1,7,7,192) (112)     
------ ---------------------- ---- ------------------- --------- ------- --------------------------------------------------- --------------------- 
53     conv2d_63              63   conv2d              1806528   37632   I: conv2d_62_output                                 (1,7,7,192) (112)     
                                                                         S: conv2d_63_scratch0                                                     
                                                                         W: conv2d_63_weights                                (192,192,1,1) (20)    
                                                                         W: conv2d_63_bias                                   (1,1,1,192) (21)      
                                                                         O: conv2d_63_output                                 (1,7,7,192) (114)     
------ ---------------------- ---- ------------------- --------- ------- --------------------------------------------------- --------------------- 
54     eltwise_64             64   eltwise_integer     9408      0       I: conv2d_59_output                                 (1,7,7,192) (109)     
                                                                         I: conv2d_63_output                                 (1,7,7,192) (114)     
                                                                         O: eltwise_64_output                                (1,7,7,192) (115)     
------ ---------------------- ---- ------------------- --------- ------- --------------------------------------------------- --------------------- 
55     conv2d_65_pad_before   65   pad                 0         0       I: eltwise_64_output                                (1,7,7,192) (115)     
                                                                         O: conv2d_65_pad_before_output                      (1,9,9,192) (117)     
------ ---------------------- ---- ------------------- --------- ------- --------------------------------------------------- --------------------- 
56     conv2d_65              65   conv2d              84864     2496    I: conv2d_65_pad_before_output                      (1,9,9,192) (117)     
                                                                         S: conv2d_65_scratch0                                                     
                                                                         W: conv2d_65_weights                                (192,1,3,3) (22)      
                                                                         W: conv2d_65_bias                                   (1,1,1,192) (23)      
                                                                         O: conv2d_65_output                                 (1,7,7,192) (118)     
------ ---------------------- ---- ------------------- --------- ------- --------------------------------------------------- --------------------- 
57     conv2d_67_pad_before   67   pad                 0         0       I: eltwise_64_output                                (1,7,7,192) (115)     
                                                                         O: conv2d_67_pad_before_output                      (1,9,9,192) (119)     
------ ---------------------- ---- ------------------- --------- ------- --------------------------------------------------- --------------------- 
58     conv2d_67              67   conv2d              84864     2496    I: conv2d_67_pad_before_output                      (1,9,9,192) (119)     
                                                                         S: conv2d_67_scratch0                                                     
                                                                         W: conv2d_67_weights                                (192,1,3,3) (24)      
                                                                         W: conv2d_67_bias                                   (1,1,1,192) (25)      
                                                                         O: conv2d_67_output                                 (1,7,7,192) (121)     
------ ---------------------- ---- ------------------- --------- ------- --------------------------------------------------- --------------------- 
59     concat_69              69   concat              0         0       I: conv2d_65_output0                                (1,1,7,7,192) (118)   
                                                                         I: conv2d_67_output0                                (1,1,7,7,192) (121)   
                                                                         O: concat_69_output                                 (1,2,7,7,192) (122)   
------ ---------------------- ---- ------------------- --------- ------- --------------------------------------------------- --------------------- 
60     transpose_70           70   transpose           0         0       I: concat_69_output                                 (1,2,7,7,192) (122)   
                                                                         O: transpose_70_output                              (1,192,2,7,7) (124)   
------ ---------------------- ---- ------------------- --------- ------- --------------------------------------------------- --------------------- 
61     transpose_72           72   transpose           0         0       I: transpose_70_output0                             (1,384,7,7) (124)     
                                                                         O: transpose_72_output                              (1,7,7,384) (125)     
------ ---------------------- ---- ------------------- --------- ------- --------------------------------------------------- --------------------- 
62     pool_73                73   pool                18816     0       I: transpose_72_output                              (1,7,7,384) (125)     
                                                                         O: pool_73_output                                   (1,1,1,384) (126)     
------ ---------------------- ---- ------------------- --------- ------- --------------------------------------------------- --------------------- 
63     conv2d_74              75   conv2d              9264      9312    I: pool_73_output                                   (1,1,1,384) (126)     
                                                                         S: conv2d_74_scratch0                                                     
                                                                         S: conv2d_74_scratch1                                                     
                                                                         W: conv2d_74_weights                                (384,24,1,1) (26)     
                                                                         W: conv2d_74_bias                                   (1,1,1,24) (27)       
                                                                         O: conv2d_74_output                                 (1,1,1,24) (128)      
------ ---------------------- ---- ------------------- --------- ------- --------------------------------------------------- --------------------- 
64     conv2d_76              76   conv2d              9600      10752   I: conv2d_74_output                                 (1,1,1,24) (128)      
                                                                         S: conv2d_76_scratch0                                                     
                                                                         W: conv2d_76_weights                                (24,384,1,1) (28)     
                                                                         W: conv2d_76_bias                                   (1,1,1,384) (29)      
                                                                         O: conv2d_76_output                                 (1,1,1,384) (130)     
------ ---------------------- ---- ------------------- --------- ------- --------------------------------------------------- --------------------- 
65     eltwise_77             77   eltwise_integer     384       4       I: conv2d_76_output                                 (1,1,1,384) (130)     
                                                                         I: model_tf_clip_by_value_clip_by_value_Minimum_y   (1,1,1,1) (152)       
                                                                         O: eltwise_77_output                                (1,1,1,384) (131)     
------ ---------------------- ---- ------------------- --------- ------- --------------------------------------------------- --------------------- 
66     nl_78                  78   nl                  384       0       I: eltwise_77_output                                (1,1,1,384) (131)     
                                                                         O: nl_78_output                                     (1,1,1,384) (132)     
------ ---------------------- ---- ------------------- --------- ------- --------------------------------------------------- --------------------- 
67     eltwise_79             79   eltwise_integer     18816     0       I: transpose_72_output                              (1,7,7,384) (125)     
                                                                         I: nl_78_output                                     (1,1,1,384) (132)     
                                                                         O: eltwise_79_output                                (1,7,7,384) (134)     
------ ---------------------- ---- ------------------- --------- ------- --------------------------------------------------- --------------------- 
68     pool_80                80   pool                18816     0       I: eltwise_79_output                                (1,7,7,384) (134)     
                                                                         O: pool_80_output                                   (1,1,1,384) (135)     
------ ---------------------- ---- ------------------- --------- ------- --------------------------------------------------- --------------------- 
69     dense_81_dense         81   dense               38885     39188   I: pool_80_output                                   (1,1,1,384) (135)     
                                                                         S: dense_81_dense_scratch0                                                
                                                                         W: dense_81_dense_weights                           (384,1,1,101) (30)    
                                                                         W: dense_81_dense_bias                              (1,1,1,101) (31)      
                                                                         O: dense_81_dense_output                            (1,1,1,101) (137)     
------ ---------------------- ---- ------------------- --------- ------- --------------------------------------------------- --------------------- 
70     conversion_82          82   converter           202       0       I: dense_81_dense_output                            (1,1,1,101) (137)     
                                                                         O: conversion_82_output                             (1,1,1,101) (138)     
------ ---------------------- ---- ------------------- --------- ------- --------------------------------------------------- --------------------- 



Number of operations per c-layer
------- ------ ------------------------------ ------------ ------------- --------- ---------- 
c_id    m_id   name (type)                             #op          type    #param   sparsity 
------- ------ ------------------------------ ------------ ------------- --------- ---------- 
0       1      conv2d_1 (optimized_conv2d)       8,128,536    smul_s8_s8       672     0.0387 
1       3      conv2d_3_pad_before (pad)                 0    smul_s8_s8           
2       2      conv2d_3 (conv2d)                   677,400    smul_s8_s8       240     0.0083 
3       4      conv2d_4 (conv2d)                 1,806,360    smul_s8_s8       600     0.0450 
4       5      conv2d_5_pad_before (pad)                 0    smul_s8_s8           
5       5      conv2d_5 (conv2d)                   677,400    smul_s8_s8       240     0.0250 
6       6      conv2d_7 (conv2d)                 3,687,960    smul_s8_s8     1,200     0.0550 
7       8      conv2d_8 (conv2d)                 3,612,720    smul_s8_s8     1,200     0.0167 
8       9      conv2d_9 (conv2d)                 3,612,696    smul_s8_s8     1,176     0.0136 
9       10     eltwise_10 (eltwise_integer)         75,264    smul_s8_s8           
10      11     pad_11 (pad)                              0    smul_s8_s8           
11      14     conv2d_14 (conv2d)                  922,008    smul_s8_s8     1,200     0.0250 
12      12     conv2d_12 (conv2d)                  922,008    smul_s8_s8     1,200     0.0375 
13      16     concat_16 (concat)                        0      op_s8_s8           
14      17     transpose_17 (transpose)                  0    smul_s8_s8           
15      19     transpose_19 (transpose)                  0    smul_s8_s8           
16      20     conv2d_20 (conv2d)                1,806,384    smul_s8_s8     2,352     0.0357 
17      21     conv2d_21_pad_before (pad)                0    smul_s8_s8           
18      21     conv2d_21 (conv2d)                  338,736    smul_s8_s8       480     0.1667 
19      22     conv2d_23 (conv2d)                1,844,016    smul_s8_s8     2,400     0.0633 
20      24     conv2d_24 (conv2d)                3,612,768    smul_s8_s8     4,704     0.0085 
21      25     conv2d_25 (conv2d)                3,612,720    smul_s8_s8     4,656     0.0150 
22      26     eltwise_26 (eltwise_integer)         37,632    smul_s8_s8           
23      27     pad_27 (pad)                              0    smul_s8_s8           
24      30     conv2d_30 (conv2d)                  461,040    smul_s8_s8     2,400     0.0196 
25      28     conv2d_28 (conv2d)                  461,040    smul_s8_s8     2,400     0.0242 
26      32     concat_32 (concat)                        0      op_s8_s8           
27      33     transpose_33 (transpose)                  0    smul_s8_s8           
28      35     transpose_35 (transpose)                  0    smul_s8_s8           
29      36     conv2d_36 (conv2d)                1,806,432    smul_s8_s8     9,312     0.0222 
30      37     conv2d_37_pad_before (pad)                0    smul_s8_s8           
31      37     conv2d_37 (conv2d)                  169,440    smul_s8_s8       960     0.2250 
32      38     conv2d_39 (conv2d)                  922,080    smul_s8_s8     4,800     0.0281 
33      40     conv2d_40 (conv2d)                1,806,432    smul_s8_s8     9,312     0.0118 
34      41     conv2d_41 (conv2d)                1,806,432    smul_s8_s8     9,312     0.0130 
35      42     eltwise_42 (eltwise_integer)         18,816    smul_s8_s8           
36      43     conv2d_43_pad_before (pad)                0    smul_s8_s8           
37      43     conv2d_43 (conv2d)                  169,440    smul_s8_s8       960     0.4958 
38      44     conv2d_45 (conv2d)                  922,080    smul_s8_s8     4,800     0.0408 
39      46     conv2d_46 (conv2d)                1,806,432    smul_s8_s8     9,312     0.0107 
40      47     conv2d_47 (conv2d)                1,806,432    smul_s8_s8     9,312     0.0091 
41      48     eltwise_48 (eltwise_integer)         18,816    smul_s8_s8           
42      49     pad_49 (pad)                              0    smul_s8_s8           
43      52     conv2d_52 (conv2d)                  230,592    smul_s8_s8     4,800     0.0223 
44      50     conv2d_50 (conv2d)                  230,592    smul_s8_s8     4,800     0.0200 
45      54     concat_54 (concat)                        0      op_s8_s8           
46      55     transpose_55 (transpose)                  0    smul_s8_s8           
47      57     transpose_57 (transpose)                  0    smul_s8_s8           
48      58     conv2d_58 (conv2d)                1,806,528    smul_s8_s8    37,056     0.0134 
49      59     conv2d_59_pad_before (pad)                0    smul_s8_s8           
50      59     conv2d_59 (conv2d)                   84,864    smul_s8_s8     1,920     0.2672 
51      60     conv2d_61 (conv2d)                  461,184    smul_s8_s8     9,600     0.0212 
52      62     conv2d_62 (conv2d)                1,806,528    smul_s8_s8    37,056     0.0102 
53      63     conv2d_63 (conv2d)                1,806,528    smul_s8_s8    37,056     0.0116 
54      64     eltwise_64 (eltwise_integer)          9,408    smul_s8_s8           
55      65     conv2d_65_pad_before (pad)                0    smul_s8_s8           
56      65     conv2d_65 (conv2d)                   84,864    smul_s8_s8     1,920     0.0099 
57      67     conv2d_67_pad_before (pad)                0    smul_s8_s8           
58      67     conv2d_67 (conv2d)                   84,864    smul_s8_s8     1,920     0.0151 
59      69     concat_69 (concat)                        0      op_s8_s8           
60      70     transpose_70 (transpose)                  0    smul_s8_s8           
61      72     transpose_72 (transpose)                  0    smul_s8_s8           
62      73     pool_73 (pool)                       18,816      op_s8_s8           
63      75     conv2d_74 (conv2d)                    9,264    smul_s8_s8     9,240     0.0248 
64      76     conv2d_76 (conv2d)                    9,600    smul_s8_s8     9,600     0.0069 
65      77     eltwise_77 (eltwise_integer)            384    smul_s8_s8         0     0.0000 
66      78     nl_78 (nl)                              384      op_s8_s8           
67      79     eltwise_79 (eltwise_integer)         18,816    smul_s8_s8           
68      80     pool_80 (pool)                       18,816      op_s8_s8           
69      81     dense_81_dense (dense)               38,885    smul_s8_s8    38,885     0.0298 
70      82     conversion_82 (converter)               202   smul_s8_f32           
------- ------ ------------------------------ ------------ ------------- --------- ---------- 
total                                           54,270,639                 279,053     0.0220 

Number of operation types
---------------- ------------ ----------- 
operation type              #           % 
---------------- ------------ ----------- 
smul_s8_s8         54,232,421       99.9% 
op_s8_s8               38,016        0.1% 
smul_s8_f32               202        0.0% 

Complexity report (model)
------ ------------------------------------------------ ------------------------- ------------------------- ---------- 
m_id   name                                             c_macc                    c_rom                     c_id       
------ ------------------------------------------------ ------------------------- ------------------------- ---------- 
1      conv2d_1                                         ||||||||||||||||  15.0%   |                  0.3%   [0]        
2      pad_2                                            ||                 1.2%   |                  0.1%   [2]        
3      conv2d_3                                         |                  0.0%   |                  0.0%   [1]        
4      conv2d_4                                         ||||               3.3%   |                  0.2%   [3]        
5      conv2d_5                                         ||                 1.2%   |                  0.1%   [4, 5]     
6      pad_6                                            |||||||            6.8%   |                  0.4%   [6]        
8      conv2d_8                                         |||||||            6.7%   |                  0.5%   [7]        
9      conv2d_9                                         |||||||            6.7%   |                  0.4%   [8]        
10     eltwise_10                                       |                  0.1%   |                  0.0%   [9]        
11     pad_11                                           |                  0.0%   |                  0.0%   [10]       
12     conv2d_12                                        ||                 1.7%   |                  0.4%   [12]       
14     conv2d_14                                        ||                 1.7%   |                  0.4%   [11]       
16     concat_16                                        |                  0.0%   |                  0.0%   [13]       
17     transpose_17                                     |                  0.0%   |                  0.0%   [14]       
19     transpose_19                                     |                  0.0%   |                  0.0%   [15]       
20     conv2d_20                                        ||||               3.3%   |                  0.9%   [16]       
21     conv2d_21                                        |                  0.6%   |                  0.2%   [17, 18]   
22     pad_22                                           ||||               3.4%   |                  0.9%   [19]       
24     conv2d_24                                        |||||||            6.7%   ||                 1.7%   [20]       
25     conv2d_25                                        |||||||            6.7%   ||                 1.7%   [21]       
26     eltwise_26                                       |                  0.1%   |                  0.0%   [22]       
27     pad_27                                           |                  0.0%   |                  0.0%   [23]       
28     conv2d_28                                        |                  0.8%   |                  0.9%   [25]       
30     conv2d_30                                        |                  0.8%   |                  0.9%   [24]       
32     concat_32                                        |                  0.0%   |                  0.0%   [26]       
33     transpose_33                                     |                  0.0%   |                  0.0%   [27]       
35     transpose_35                                     |                  0.0%   |                  0.0%   [28]       
36     conv2d_36                                        ||||               3.3%   ||||               3.3%   [29]       
37     conv2d_37                                        |                  0.3%   |                  0.4%   [30, 31]   
38     pad_38                                           ||                 1.7%   ||                 1.8%   [32]       
40     conv2d_40                                        ||||               3.3%   ||||               3.3%   [33]       
41     conv2d_41                                        ||||               3.3%   ||||               3.3%   [34]       
42     eltwise_42                                       |                  0.0%   |                  0.0%   [35]       
43     conv2d_43                                        |                  0.3%   |                  0.4%   [36, 37]   
44     pad_44                                           ||                 1.7%   ||                 1.8%   [38]       
46     conv2d_46                                        ||||               3.3%   ||||               3.3%   [39]       
47     conv2d_47                                        ||||               3.3%   ||||               3.3%   [40]       
48     eltwise_48                                       |                  0.0%   |                  0.0%   [41]       
49     pad_49                                           |                  0.0%   |                  0.0%   [42]       
50     conv2d_50                                        |                  0.4%   ||                 1.8%   [44]       
52     conv2d_52                                        |                  0.4%   ||                 1.8%   [43]       
54     concat_54                                        |                  0.0%   |                  0.0%   [45]       
55     transpose_55                                     |                  0.0%   |                  0.0%   [46]       
57     transpose_57                                     |                  0.0%   |                  0.0%   [47]       
58     conv2d_58                                        ||||               3.3%   |||||||||||||||   13.0%   [48]       
59     conv2d_59                                        |                  0.2%   |                  0.9%   [49, 50]   
60     pad_60                                           |                  0.8%   ||||               3.5%   [51]       
62     conv2d_62                                        ||||               3.3%   |||||||||||||||   13.0%   [52]       
63     conv2d_63                                        ||||               3.3%   |||||||||||||||   13.0%   [53]       
64     eltwise_64                                       |                  0.0%   |                  0.0%   [54]       
65     conv2d_65                                        |                  0.2%   |                  0.9%   [55, 56]   
67     conv2d_67                                        |                  0.2%   |                  0.9%   [57, 58]   
69     concat_69                                        |                  0.0%   |                  0.0%   [59]       
70     transpose_70                                     |                  0.0%   |                  0.0%   [60]       
72     transpose_72                                     |                  0.0%   |                  0.0%   [61]       
73     pool_73                                          |                  0.0%   |                  0.0%   [62]       
75     nl_75                                            |                  0.0%   ||||               3.2%   [63]       
76     conv2d_76                                        |                  0.0%   |||||              3.7%   [64]       
77     model_tf_clip_by_value_clip_by_value_Minimum_y   |                  0.0%   |                  0.0%   [65]       
78     nl_78                                            |                  0.0%   |                  0.0%   [66]       
79     eltwise_79                                       |                  0.0%   |                  0.0%   [67]       
80     pool_80                                          |                  0.0%   |                  0.0%   [68]       
81     reshape_81                                       |                  0.1%   ||||||||||||||||  13.5%   [69]       
82     conversion_82                                    |                  0.0%   |                  0.0%   [70]       
------ ------------------------------------------------ ------------------------- ------------------------- ---------- 
macc=54,270,639 weights=289,656 act=317,700 ram_io=0

Generated files (7)
------------------------------------------------------------------------------------------------------------------------------------- 
F:\MyWork\PyWork\gd32ai-modelzoo\image_classification\ml_fastvit\results\deploy\food-101_0000\Edge_AI\model\network_1_config.h        
F:\MyWork\PyWork\gd32ai-modelzoo\image_classification\ml_fastvit\results\deploy\food-101_0000\Edge_AI\model\network_1.h               
F:\MyWork\PyWork\gd32ai-modelzoo\image_classification\ml_fastvit\results\deploy\food-101_0000\Edge_AI\model\network_1.c               
F:\MyWork\PyWork\gd32ai-modelzoo\image_classification\ml_fastvit\results\deploy\food-101_0000\Edge_AI\model\network_1_data_params.h   
F:\MyWork\PyWork\gd32ai-modelzoo\image_classification\ml_fastvit\results\deploy\food-101_0000\Edge_AI\model\network_1_data_params.c   
F:\MyWork\PyWork\gd32ai-modelzoo\image_classification\ml_fastvit\results\deploy\food-101_0000\Edge_AI\model\network_1_data.h          
F:\MyWork\PyWork\gd32ai-modelzoo\image_classification\ml_fastvit\results\deploy\food-101_0000\Edge_AI\model\network_1_data.c          
