Neural Network Tools for STM32AI v1.7.0 (STM.ai v8.0.1-19451)
Created date          : 2024-02-21 22:03:38
Parameters            : generate --name network_2 -m F:/MyWork/PyWork/gd32ai-modelzoo/object_detection/yolo_fastestv2/results/export/ab_drive_0000/tflite/model_post.tflite --type tflite --compression none --verbosity 1 --workspace C:\Users\kyuliea\AppData\Local\Temp\mxAI_workspace1699481014500014800304443217415828 --output C:\Users\kyuliea\.stm32cubemx\network_output --allocate-inputs --series stm32h7 --allocate-outputs

Exec/report summary (generate)
------------------------------------------------------------------------------------------------------------------------------------------------
model file         :   F:\MyWork\PyWork\gd32ai-modelzoo\object_detection\yolo_fastestv2\results\export\ab_drive_0000\tflite\model_post.tflite   
type               :   tflite                                                                                                                   
c_name             :   network_2                                                                                                                
compression        :   none                                                                                                                     
options            :   allocate-inputs, allocate-outputs                                                                                        
optimization       :   balanced                                                                                                                 
target/series      :   stm32h7                                                                                                                  
workspace dir      :   C:\Users\kyuliea\AppData\Local\Temp\mxAI_workspace1699481014500014800304443217415828                                     
output dir         :   C:\Users\kyuliea\.stm32cubemx\network_output                                                                             
model_fmt          :   ss/sa per-channel                                                                                                        
model_name         :   model_post                                                                                                               
model_hash         :   09342c007938c23f4cadd4e16b21c84c                                                                                         
params #           :   183,832 items (189.06 KiB)                                                                                               
------------------------------------------------------------------------------------------------------------------------------------------------
input 1/1          :   'serving_default_input_20' (domain:activations/**default**)                                                              
                   :   24576 items, 24.00 KiB, ai_i8, s=0.01761622, zp=-128, (1,16,16,96)                                                       
output 1/1         :   'conversion_95' (domain:activations/**default**)                                                                         
                   :   6400 items, 25.00 KiB, ai_float, float, (1,320,1,20)                                                                     
macc               :   23,121,400                                                                                                               
weights (ro)       :   190,624 B (186.16 KiB) (1 segment) / -544,704(-74.1%) vs float model                                                     
activations (rw)   :   282,624 B (276.00 KiB) (1 segment) *                                                                                     
ram (total)        :   282,624 B (276.00 KiB) = 282,624 + 0 + 0                                                                                 
------------------------------------------------------------------------------------------------------------------------------------------------
(*) 'input'/'output' buffers can be used from the activations buffer

Model name - model_post ['serving_default_input_20'] ['conversion_95']
------ ------------------------------------------------- ----------------------- --------------- ----------- -------------------------- --- ----------------- ------------------- ------------------------------------- 
m_id   layer (type,original)                             oshape                  param/size             macc               connected to   | c_size            c_macc              c_type                                
------ ------------------------------------------------- ----------------------- --------------- ----------- -------------------------- --- ----------------- ------------------- ------------------------------------- 
0      serving_default_input_20 (Input, )                [b:1,h:16,w:16,c:96]                                                             |                                       pad_oi8[0]                            
       pad_0 (Pad, PAD)                                  [b:1,h:18,w:18,c:96]                                  serving_default_input_20   |                                       
------ ------------------------------------------------- ----------------------- --------------- ----------- -------------------------- --- ----------------- ------------------- ------------------------------------- 
1      conv2d_1 (Conv2D, CONV_2D)                        [b:1,h:16,w:16,c:96]    9,312/9,600       2,359,392   serving_default_input_20   |                                       conv2d_oi8[3]                         
       nl_1_nl (Nonlinearity, CONV_2D)                   [b:1,h:16,w:16,c:96]                         24,576                   conv2d_1   |                   -24,576(-100.0%)    
------ ------------------------------------------------- ----------------------- --------------- ----------- -------------------------- --- ----------------- ------------------- ------------------------------------- 
2      pad_2 (Pad, PAD)                                  [b:1,h:18,w:18,c:96]                                                   nl_1_nl   |                                       pad_oi8[4]                            
------ ------------------------------------------------- ----------------------- --------------- ----------- -------------------------- --- ----------------- ------------------- ------------------------------------- 
3      conv2d_3 (Conv2D, DEPTHWISE_CONV_2D)              [b:1,h:8,w:8,c:96]      960/1,248            55,392                      pad_0   |                                       conv2d_oi8[1]                         
------ ------------------------------------------------- ----------------------- --------------- ----------- -------------------------- --- ----------------- ------------------- ------------------------------------- 
4      conv2d_4 (Conv2D, CONV_2D)                        [b:1,h:8,w:8,c:96]      9,312/9,600         589,920                   conv2d_3   |                                       conv2d_oi8[2]                         
       nl_4_nl (Nonlinearity, CONV_2D)                   [b:1,h:8,w:8,c:96]                            6,144                   conv2d_4   |                   -6,144(-100.0%)     
------ ------------------------------------------------- ----------------------- --------------- ----------- -------------------------- --- ----------------- ------------------- ------------------------------------- 
5      conv2d_5 (Conv2D, DEPTHWISE_CONV_2D)              [b:1,h:8,w:8,c:96]      960/1,248            55,392                      pad_2   |                                       conv2d_oi8[5]                         
------ ------------------------------------------------- ----------------------- --------------- ----------- -------------------------- --- ----------------- ------------------- ------------------------------------- 
6      conv2d_6 (Conv2D, CONV_2D)                        [b:1,h:8,w:8,c:96]      9,312/9,600         589,920                   conv2d_5   |                                       conv2d_oi8[6]                         
       nl_6_nl (Nonlinearity, CONV_2D)                   [b:1,h:8,w:8,c:96]                            6,144                   conv2d_6   |                   -6,144(-100.0%)     
------ ------------------------------------------------- ----------------------- --------------- ----------- -------------------------- --- ----------------- ------------------- ------------------------------------- 
7      concat_7 (Concat, CONCATENATION)                  [b:1,h:8,w:8,c:192]                                                    nl_4_nl   |                                       concat_oi8[7]                         
                                                                                                                                nl_6_nl   | 
------ ------------------------------------------------- ----------------------- --------------- ----------- -------------------------- --- ----------------- ------------------- ------------------------------------- 
8      gather_8 (Gather, GATHER)                         [b:1,h:8,w:8,c:96]      96/384                                        concat_7   |                                       gather_oi8[13]                        
------ ------------------------------------------------- ----------------------- --------------- ----------- -------------------------- --- ----------------- ------------------- ------------------------------------- 
9      gather_9 (Gather, GATHER)                         [b:1,h:8,w:8,c:96]      96/384                                        concat_7   |                                       gather_oi8[8]                         
------ ------------------------------------------------- ----------------------- --------------- ----------- -------------------------- --- ----------------- ------------------- ------------------------------------- 
10     conv2d_10 (Conv2D, CONV_2D)                       [b:1,h:8,w:8,c:96]      9,312/9,600         589,920                   gather_9   |                                       conv2d_oi8[9]                         
       nl_10_nl (Nonlinearity, CONV_2D)                  [b:1,h:8,w:8,c:96]                            6,144                  conv2d_10   |                   -6,144(-100.0%)     
------ ------------------------------------------------- ----------------------- --------------- ----------- -------------------------- --- ----------------- ------------------- ------------------------------------- 
11     conv2d_11 (Conv2D, DEPTHWISE_CONV_2D)             [b:1,h:8,w:8,c:96]      960/1,248            55,392                   nl_10_nl   |                                       pad_oi8/conv2d_oi8[10, 11]            
------ ------------------------------------------------- ----------------------- --------------- ----------- -------------------------- --- ----------------- ------------------- ------------------------------------- 
12     conv2d_12 (Conv2D, CONV_2D)                       [b:1,h:8,w:8,c:96]      9,312/9,600         589,920                  conv2d_11   |                                       conv2d_oi8[12]                        
       nl_12_nl (Nonlinearity, CONV_2D)                  [b:1,h:8,w:8,c:96]                            6,144                  conv2d_12   |                   -6,144(-100.0%)     
------ ------------------------------------------------- ----------------------- --------------- ----------- -------------------------- --- ----------------- ------------------- ------------------------------------- 
13     concat_13 (Concat, CONCATENATION)                 [b:1,h:8,w:8,c:192]                                                   gather_8   |                                       concat_oi8[14]                        
                                                                                                                               nl_12_nl   | 
------ ------------------------------------------------- ----------------------- --------------- ----------- -------------------------- --- ----------------- ------------------- ------------------------------------- 
14     gather_14 (Gather, GATHER)                        [b:1,h:8,w:8,c:96]      96/384                                       concat_13   |                                       gather_oi8[20]                        
------ ------------------------------------------------- ----------------------- --------------- ----------- -------------------------- --- ----------------- ------------------- ------------------------------------- 
15     gather_15 (Gather, GATHER)                        [b:1,h:8,w:8,c:96]      96/384                                       concat_13   |                                       gather_oi8[15]                        
------ ------------------------------------------------- ----------------------- --------------- ----------- -------------------------- --- ----------------- ------------------- ------------------------------------- 
16     conv2d_16 (Conv2D, CONV_2D)                       [b:1,h:8,w:8,c:96]      9,312/9,600         589,920                  gather_15   |                                       conv2d_oi8[16]                        
       nl_16_nl (Nonlinearity, CONV_2D)                  [b:1,h:8,w:8,c:96]                            6,144                  conv2d_16   |                   -6,144(-100.0%)     
------ ------------------------------------------------- ----------------------- --------------- ----------- -------------------------- --- ----------------- ------------------- ------------------------------------- 
17     conv2d_17 (Conv2D, DEPTHWISE_CONV_2D)             [b:1,h:8,w:8,c:96]      960/1,248            55,392                   nl_16_nl   |                                       pad_oi8/conv2d_oi8[17, 18]            
------ ------------------------------------------------- ----------------------- --------------- ----------- -------------------------- --- ----------------- ------------------- ------------------------------------- 
18     conv2d_18 (Conv2D, CONV_2D)                       [b:1,h:8,w:8,c:96]      9,312/9,600         589,920                  conv2d_17   |                                       conv2d_oi8[19]                        
       nl_18_nl (Nonlinearity, CONV_2D)                  [b:1,h:8,w:8,c:96]                            6,144                  conv2d_18   |                   -6,144(-100.0%)     
------ ------------------------------------------------- ----------------------- --------------- ----------- -------------------------- --- ----------------- ------------------- ------------------------------------- 
19     concat_19 (Concat, CONCATENATION)                 [b:1,h:8,w:8,c:192]                                                  gather_14   |                                       concat_oi8[21]                        
                                                                                                                               nl_18_nl   | 
------ ------------------------------------------------- ----------------------- --------------- ----------- -------------------------- --- ----------------- ------------------- ------------------------------------- 
20     gather_20 (Gather, GATHER)                        [b:1,h:8,w:8,c:96]      96/384                                       concat_19   |                                       gather_oi8[27]                        
------ ------------------------------------------------- ----------------------- --------------- ----------- -------------------------- --- ----------------- ------------------- ------------------------------------- 
21     gather_21 (Gather, GATHER)                        [b:1,h:8,w:8,c:96]      96/384                                       concat_19   |                                       gather_oi8[22]                        
------ ------------------------------------------------- ----------------------- --------------- ----------- -------------------------- --- ----------------- ------------------- ------------------------------------- 
22     conv2d_22 (Conv2D, CONV_2D)                       [b:1,h:8,w:8,c:96]      9,312/9,600         589,920                  gather_21   |                                       conv2d_oi8[23]                        
       nl_22_nl (Nonlinearity, CONV_2D)                  [b:1,h:8,w:8,c:96]                            6,144                  conv2d_22   |                   -6,144(-100.0%)     
------ ------------------------------------------------- ----------------------- --------------- ----------- -------------------------- --- ----------------- ------------------- ------------------------------------- 
23     conv2d_23 (Conv2D, DEPTHWISE_CONV_2D)             [b:1,h:8,w:8,c:96]      960/1,248            55,392                   nl_22_nl   |                                       pad_oi8/conv2d_oi8[24, 25]            
------ ------------------------------------------------- ----------------------- --------------- ----------- -------------------------- --- ----------------- ------------------- ------------------------------------- 
24     conv2d_24 (Conv2D, CONV_2D)                       [b:1,h:8,w:8,c:96]      9,312/9,600         589,920                  conv2d_23   |                                       conv2d_oi8[26]                        
       nl_24_nl (Nonlinearity, CONV_2D)                  [b:1,h:8,w:8,c:96]                            6,144                  conv2d_24   |                   -6,144(-100.0%)     
------ ------------------------------------------------- ----------------------- --------------- ----------- -------------------------- --- ----------------- ------------------- ------------------------------------- 
25     concat_25 (Concat, CONCATENATION)                 [b:1,h:8,w:8,c:192]                                                  gather_20   |                   +24,576(+100.0%)    concat_oi8/converter_of32[28, 29]     
                                                                                                                               nl_24_nl   | 
------ ------------------------------------------------- ----------------------- --------------- ----------- -------------------------- --- ----------------- ------------------- ------------------------------------- 
26     conv2d_26 (Conv2D, CONV_2D)                       [b:1,h:8,w:8,c:72]      13,896/14,112       884,808                  concat_25   |                                       conv2d_oi8[52]                        
       nl_26_nl (Nonlinearity, CONV_2D)                  [b:1,h:8,w:8,c:72]                            4,608                  conv2d_26   |                   -4,608(-100.0%)     
------ ------------------------------------------------- ----------------------- --------------- ----------- -------------------------- --- ----------------- ------------------- ------------------------------------- 
27     pad_27 (Pad, PAD)                                 [b:1,h:12,w:12,c:72]                                                  nl_26_nl   |                                       pad_oi8[53]                           
------ ------------------------------------------------- ----------------------- --------------- ----------- -------------------------- --- ----------------- ------------------- ------------------------------------- 
28     conv2d_28 (Conv2D, DEPTHWISE_CONV_2D)             [b:1,h:8,w:8,c:72]      1,872/2,088         115,272                     pad_27   |                                       conv2d_oi8[63]                        
       nl_28_nl (Nonlinearity, DEPTHWISE_CONV_2D)        [b:1,h:8,w:8,c:72]                            4,608                  conv2d_28   |                   -4,608(-100.0%)     
------ ------------------------------------------------- ----------------------- --------------- ----------- -------------------------- --- ----------------- ------------------- ------------------------------------- 
29     conv2d_29 (Conv2D, CONV_2D)                       [b:1,h:8,w:8,c:72]      5,256/5,472         331,848                   nl_28_nl   |                                       conv2d_oi8[64]                        
------ ------------------------------------------------- ----------------------- --------------- ----------- -------------------------- --- ----------------- ------------------- ------------------------------------- 
30     pad_30 (Pad, PAD)                                 [b:1,h:12,w:12,c:72]                                                 conv2d_29   | +2,088(+100.0%)   +115,272(+100.0%)   conv2d_oi8[65]                        
------ ------------------------------------------------- ----------------------- --------------- ----------- -------------------------- --- ----------------- ------------------- ------------------------------------- 
31     conv2d_31 (Conv2D, DEPTHWISE_CONV_2D)             [b:1,h:8,w:8,c:72]      1,872/2,088         115,272                     pad_30   | -2,088(-100.0%)   -115,272(-100.0%)   
       nl_31_nl (Nonlinearity, DEPTHWISE_CONV_2D)        [b:1,h:8,w:8,c:72]                            4,608                  conv2d_31   |                   -4,608(-100.0%)     
------ ------------------------------------------------- ----------------------- --------------- ----------- -------------------------- --- ----------------- ------------------- ------------------------------------- 
32     conv2d_32 (Conv2D, CONV_2D)                       [b:1,h:8,w:8,c:72]      5,256/5,472         331,848                   nl_31_nl   |                                       conv2d_oi8[66]                        
------ ------------------------------------------------- ----------------------- --------------- ----------- -------------------------- --- ----------------- ------------------- ------------------------------------- 
33     conv2d_33 (Conv2D, CONV_2D)                       [b:1,h:8,w:8,c:12]      876/912              55,308                  conv2d_32   | -912(-100.0%)     -55,308(-100.0%)    
------ ------------------------------------------------- ----------------------- --------------- ----------- -------------------------- --- ----------------- ------------------- ------------------------------------- 
34     nl_34 (Nonlinearity, LOGISTIC)                    [b:1,h:8,w:8,c:12]                            7,680                  conv2d_33   | +912(+100.0%)     +48,396(+630.2%)    conv2d_oi8[67]                        
------ ------------------------------------------------- ----------------------- --------------- ----------- -------------------------- --- ----------------- ------------------- ------------------------------------- 
35     conversion_35 (Conversion, QUANTIZE)              [b:1,h:8,w:8,c:12]                            1,536                      nl_34   |                   -1,536(-100.0%)     
------ ------------------------------------------------- ----------------------- --------------- ----------- -------------------------- --- ----------------- ------------------- ------------------------------------- 
36     conv2d_36 (Conv2D, DEPTHWISE_CONV_2D)             [b:1,h:8,w:8,c:72]      1,872/2,088         115,272                     pad_27   |                                       conv2d_oi8[54]                        
       nl_36_nl (Nonlinearity, DEPTHWISE_CONV_2D)        [b:1,h:8,w:8,c:72]                            4,608                  conv2d_36   |                   -4,608(-100.0%)     
------ ------------------------------------------------- ----------------------- --------------- ----------- -------------------------- --- ----------------- ------------------- ------------------------------------- 
37     conv2d_37 (Conv2D, CONV_2D)                       [b:1,h:8,w:8,c:72]      5,256/5,472         331,848                   nl_36_nl   |                                       conv2d_oi8[55]                        
------ ------------------------------------------------- ----------------------- --------------- ----------- -------------------------- --- ----------------- ------------------- ------------------------------------- 
38     pad_38 (Pad, PAD)                                 [b:1,h:12,w:12,c:72]                                                 conv2d_37   | +2,088(+100.0%)   +115,272(+100.0%)   conv2d_oi8[56]                        
------ ------------------------------------------------- ----------------------- --------------- ----------- -------------------------- --- ----------------- ------------------- ------------------------------------- 
39     conv2d_39 (Conv2D, DEPTHWISE_CONV_2D)             [b:1,h:8,w:8,c:72]      1,872/2,088         115,272                     pad_38   | -2,088(-100.0%)   -115,272(-100.0%)   
       nl_39_nl (Nonlinearity, DEPTHWISE_CONV_2D)        [b:1,h:8,w:8,c:72]                            4,608                  conv2d_39   |                   -4,608(-100.0%)     
------ ------------------------------------------------- ----------------------- --------------- ----------- -------------------------- --- ----------------- ------------------- ------------------------------------- 
40     conv2d_40 (Conv2D, CONV_2D)                       [b:1,h:8,w:8,c:72]      5,256/5,472         331,848                   nl_39_nl   |                                       conv2d_oi8[57]                        
------ ------------------------------------------------- ----------------------- --------------- ----------- -------------------------- --- ----------------- ------------------- ------------------------------------- 
41     conv2d_41 (Conv2D, CONV_2D)                       [b:1,h:8,w:8,c:3]       219/228              13,827                  conv2d_40   | -228(-100.0%)     -13,827(-100.0%)    
------ ------------------------------------------------- ----------------------- --------------- ----------- -------------------------- --- ----------------- ------------------- ------------------------------------- 
42     nl_42 (Nonlinearity, LOGISTIC)                    [b:1,h:8,w:8,c:3]                             1,920                  conv2d_41   | +228(+100.0%)     +12,099(+630.2%)    conv2d_oi8[62]                        
------ ------------------------------------------------- ----------------------- --------------- ----------- -------------------------- --- ----------------- ------------------- ------------------------------------- 
43     conversion_43 (Conversion, QUANTIZE)              [b:1,h:8,w:8,c:3]                               384                      nl_42   |                   -384(-100.0%)       
------ ------------------------------------------------- ----------------------- --------------- ----------- -------------------------- --- ----------------- ------------------- ------------------------------------- 
44     conv2d_44 (Conv2D, CONV_2D)                       [b:1,h:8,w:8,c:5]       365/380              23,045                  conv2d_40   |                   +640(+2.8%)         conv2d_oi8/converter_of32[58, 59]     
------ ------------------------------------------------- ----------------------- --------------- ----------- -------------------------- --- ----------------- ------------------- ------------------------------------- 
45     transpose_45 (Transpose, TRANSPOSE)               [b:1,h:5,w:8,c:8]                                                    conv2d_44   |                                       
------ ------------------------------------------------- ----------------------- --------------- ----------- -------------------------- --- ----------------- ------------------- ------------------------------------- 
46     transpose_46 (Transpose, TRANSPOSE)               [b:1,h:8,w:8,c:5]                                                 transpose_45   |                                       
------ ------------------------------------------------- ----------------------- --------------- ----------- -------------------------- --- ----------------- ------------------- ------------------------------------- 
47     transpose_47 (Transpose, TRANSPOSE)               [b:1,h:8,w:5,c:8]                                                 transpose_46   |                                       
------ ------------------------------------------------- ----------------------- --------------- ----------- -------------------------- --- ----------------- ------------------- ------------------------------------- 
48     transpose_48 (Transpose, TRANSPOSE)               [b:1,h:8,w:8,c:5]                                                 transpose_47   |                                       
------ ------------------------------------------------- ----------------------- --------------- ----------- -------------------------- --- ----------------- ------------------- ------------------------------------- 
49     nl_49 (Nonlinearity, SOFTMAX)                     [b:1,h:8,w:8,c:5]                             4,800               transpose_48   |                   +640(+13.3%)        nl_of32/converter_oi8[60, 61]         
------ ------------------------------------------------- ----------------------- --------------- ----------- -------------------------- --- ----------------- ------------------- ------------------------------------- 
50     conversion_50 (Conversion, QUANTIZE)              [b:1,h:8,w:8,c:5]                               640                      nl_49   |                   -640(-100.0%)       
------ ------------------------------------------------- ----------------------- --------------- ----------- -------------------------- --- ----------------- ------------------- ------------------------------------- 
51     transpose_51 (Transpose, TRANSPOSE)               [b:1,h:8,w:5,c:8]                                                conversion_50   |                                       
------ ------------------------------------------------- ----------------------- --------------- ----------- -------------------------- --- ----------------- ------------------- ------------------------------------- 
52     transpose_52 (Transpose, TRANSPOSE)               [b:1,h:8,w:8,c:5]                                                 transpose_51   |                                       
------ ------------------------------------------------- ----------------------- --------------- ----------- -------------------------- --- ----------------- ------------------- ------------------------------------- 
53     transpose_53 (Transpose, TRANSPOSE)               [b:1,h:5,w:8,c:8]                                                 transpose_52   |                                       
------ ------------------------------------------------- ----------------------- --------------- ----------- -------------------------- --- ----------------- ------------------- ------------------------------------- 
54     transpose_54 (Transpose, TRANSPOSE)               [b:1,h:8,w:8,c:5]                                                 transpose_53   |                                       
------ ------------------------------------------------- ----------------------- --------------- ----------- -------------------------- --- ----------------- ------------------- ------------------------------------- 
55     concat_55 (Concat, CONCATENATION)                 [b:1,h:8,w:8,c:20]                                               conversion_35   |                                       concat_oi8[68]                        
                                                                                                                          conversion_43   | 
                                                                                                                           transpose_54   | 
------ ------------------------------------------------- ----------------------- --------------- ----------- -------------------------- --- ----------------- ------------------- ------------------------------------- 
56     transpose_56 (Transpose, TRANSPOSE)               [b:1,h:20,w:8,c:8]                                                   concat_55   |                                       transpose_oi8[69]                     
------ ------------------------------------------------- ----------------------- --------------- ----------- -------------------------- --- ----------------- ------------------- ------------------------------------- 
57     reshape_57 (Reshape, RESHAPE)                     [b:1,h:20,c:64]                                                   transpose_56   |                                       
------ ------------------------------------------------- ----------------------- --------------- ----------- -------------------------- --- ----------------- ------------------- ------------------------------------- 
58     transpose_58 (Transpose, TRANSPOSE)               [b:1,h:64,c:20]                                                     reshape_57   |                                       transpose_oi8[70]                     
------ ------------------------------------------------- ----------------------- --------------- ----------- -------------------------- --- ----------------- ------------------- ------------------------------------- 
59     upsample_59 (Upsample, RESIZE_NEAREST_NEIGHBOR)   [b:1,h:16,w:16,c:192]                                                concat_25   |                   +98,304(+100.0%)    upsample_of32/converter_oi8[30, 31]   
------ ------------------------------------------------- ----------------------- --------------- ----------- -------------------------- --- ----------------- ------------------- ------------------------------------- 
60     concat_60 (Concat, CONCATENATION)                 [b:1,h:16,w:16,c:288]                                              upsample_59   |                                       concat_oi8[32]                        
                                                                                                               serving_default_input_20   | 
------ ------------------------------------------------- ----------------------- --------------- ----------- -------------------------- --- ----------------- ------------------- ------------------------------------- 
61     conv2d_61 (Conv2D, CONV_2D)                       [b:1,h:16,w:16,c:72]    20,808/21,024     5,308,488                  concat_60   |                                       conv2d_oi8[33]                        
       nl_61_nl (Nonlinearity, CONV_2D)                  [b:1,h:16,w:16,c:72]                         18,432                  conv2d_61   |                   -18,432(-100.0%)    
------ ------------------------------------------------- ----------------------- --------------- ----------- -------------------------- --- ----------------- ------------------- ------------------------------------- 
62     pad_62 (Pad, PAD)                                 [b:1,h:20,w:20,c:72]                                                  nl_61_nl   |                                       pad_oi8[34]                           
------ ------------------------------------------------- ----------------------- --------------- ----------- -------------------------- --- ----------------- ------------------- ------------------------------------- 
63     conv2d_63 (Conv2D, DEPTHWISE_CONV_2D)             [b:1,h:16,w:16,c:72]    1,872/2,088         460,872                     pad_62   |                                       conv2d_oi8[40]                        
       nl_63_nl (Nonlinearity, DEPTHWISE_CONV_2D)        [b:1,h:16,w:16,c:72]                         18,432                  conv2d_63   |                   -18,432(-100.0%)    
------ ------------------------------------------------- ----------------------- --------------- ----------- -------------------------- --- ----------------- ------------------- ------------------------------------- 
64     conv2d_64 (Conv2D, CONV_2D)                       [b:1,h:16,w:16,c:72]    5,256/5,472       1,327,176                   nl_63_nl   |                                       conv2d_oi8[41]                        
------ ------------------------------------------------- ----------------------- --------------- ----------- -------------------------- --- ----------------- ------------------- ------------------------------------- 
65     pad_65 (Pad, PAD)                                 [b:1,h:20,w:20,c:72]                                                 conv2d_64   | +2,088(+100.0%)   +460,872(+100.0%)   conv2d_oi8[42]                        
------ ------------------------------------------------- ----------------------- --------------- ----------- -------------------------- --- ----------------- ------------------- ------------------------------------- 
66     conv2d_66 (Conv2D, DEPTHWISE_CONV_2D)             [b:1,h:16,w:16,c:72]    1,872/2,088         460,872                     pad_65   | -2,088(-100.0%)   -460,872(-100.0%)   
       nl_66_nl (Nonlinearity, DEPTHWISE_CONV_2D)        [b:1,h:16,w:16,c:72]                         18,432                  conv2d_66   |                   -18,432(-100.0%)    
------ ------------------------------------------------- ----------------------- --------------- ----------- -------------------------- --- ----------------- ------------------- ------------------------------------- 
67     conv2d_67 (Conv2D, CONV_2D)                       [b:1,h:16,w:16,c:72]    5,256/5,472       1,327,176                   nl_66_nl   |                                       conv2d_oi8[43]                        
------ ------------------------------------------------- ----------------------- --------------- ----------- -------------------------- --- ----------------- ------------------- ------------------------------------- 
68     conv2d_68 (Conv2D, CONV_2D)                       [b:1,h:16,w:16,c:3]     219/228              55,299                  conv2d_67   | -228(-100.0%)     -55,299(-100.0%)    
------ ------------------------------------------------- ----------------------- --------------- ----------- -------------------------- --- ----------------- ------------------- ------------------------------------- 
69     nl_69 (Nonlinearity, LOGISTIC)                    [b:1,h:16,w:16,c:3]                           7,680                  conv2d_68   | +228(+100.0%)     +48,387(+630.0%)    conv2d_oi8[48]                        
------ ------------------------------------------------- ----------------------- --------------- ----------- -------------------------- --- ----------------- ------------------- ------------------------------------- 
70     conversion_70 (Conversion, QUANTIZE)              [b:1,h:16,w:16,c:3]                           1,536                      nl_69   |                   -1,536(-100.0%)     
------ ------------------------------------------------- ----------------------- --------------- ----------- -------------------------- --- ----------------- ------------------- ------------------------------------- 
71     conv2d_71 (Conv2D, CONV_2D)                       [b:1,h:16,w:16,c:5]     365/380              92,165                  conv2d_67   |                   +2,560(+2.8%)       conv2d_oi8/converter_of32[44, 45]     
------ ------------------------------------------------- ----------------------- --------------- ----------- -------------------------- --- ----------------- ------------------- ------------------------------------- 
72     transpose_72 (Transpose, TRANSPOSE)               [b:1,h:5,w:16,c:16]                                                  conv2d_71   |                                       
------ ------------------------------------------------- ----------------------- --------------- ----------- -------------------------- --- ----------------- ------------------- ------------------------------------- 
73     transpose_73 (Transpose, TRANSPOSE)               [b:1,h:16,w:16,c:5]                                               transpose_72   |                                       
------ ------------------------------------------------- ----------------------- --------------- ----------- -------------------------- --- ----------------- ------------------- ------------------------------------- 
74     transpose_74 (Transpose, TRANSPOSE)               [b:1,h:16,w:5,c:16]                                               transpose_73   |                                       
------ ------------------------------------------------- ----------------------- --------------- ----------- -------------------------- --- ----------------- ------------------- ------------------------------------- 
75     transpose_75 (Transpose, TRANSPOSE)               [b:1,h:16,w:16,c:5]                                               transpose_74   |                                       
------ ------------------------------------------------- ----------------------- --------------- ----------- -------------------------- --- ----------------- ------------------- ------------------------------------- 
76     nl_76 (Nonlinearity, SOFTMAX)                     [b:1,h:16,w:16,c:5]                          19,200               transpose_75   |                   +2,560(+13.3%)      nl_of32/converter_oi8[46, 47]         
------ ------------------------------------------------- ----------------------- --------------- ----------- -------------------------- --- ----------------- ------------------- ------------------------------------- 
77     conversion_77 (Conversion, QUANTIZE)              [b:1,h:16,w:16,c:5]                           2,560                      nl_76   |                   -2,560(-100.0%)     
------ ------------------------------------------------- ----------------------- --------------- ----------- -------------------------- --- ----------------- ------------------- ------------------------------------- 
78     transpose_78 (Transpose, TRANSPOSE)               [b:1,h:16,w:5,c:16]                                              conversion_77   |                                       
------ ------------------------------------------------- ----------------------- --------------- ----------- -------------------------- --- ----------------- ------------------- ------------------------------------- 
79     transpose_79 (Transpose, TRANSPOSE)               [b:1,h:16,w:16,c:5]                                               transpose_78   |                                       
------ ------------------------------------------------- ----------------------- --------------- ----------- -------------------------- --- ----------------- ------------------- ------------------------------------- 
80     transpose_80 (Transpose, TRANSPOSE)               [b:1,h:5,w:16,c:16]                                               transpose_79   |                                       
------ ------------------------------------------------- ----------------------- --------------- ----------- -------------------------- --- ----------------- ------------------- ------------------------------------- 
81     transpose_81 (Transpose, TRANSPOSE)               [b:1,h:16,w:16,c:5]                                               transpose_80   |                                       
------ ------------------------------------------------- ----------------------- --------------- ----------- -------------------------- --- ----------------- ------------------- ------------------------------------- 
82     conv2d_82 (Conv2D, DEPTHWISE_CONV_2D)             [b:1,h:16,w:16,c:72]    1,872/2,088         460,872                     pad_62   |                                       conv2d_oi8[35]                        
       nl_82_nl (Nonlinearity, DEPTHWISE_CONV_2D)        [b:1,h:16,w:16,c:72]                         18,432                  conv2d_82   |                   -18,432(-100.0%)    
------ ------------------------------------------------- ----------------------- --------------- ----------- -------------------------- --- ----------------- ------------------- ------------------------------------- 
83     conv2d_83 (Conv2D, CONV_2D)                       [b:1,h:16,w:16,c:72]    5,256/5,472       1,327,176                   nl_82_nl   |                                       conv2d_oi8[36]                        
------ ------------------------------------------------- ----------------------- --------------- ----------- -------------------------- --- ----------------- ------------------- ------------------------------------- 
84     pad_84 (Pad, PAD)                                 [b:1,h:20,w:20,c:72]                                                 conv2d_83   | +2,088(+100.0%)   +460,872(+100.0%)   conv2d_oi8[37]                        
------ ------------------------------------------------- ----------------------- --------------- ----------- -------------------------- --- ----------------- ------------------- ------------------------------------- 
85     conv2d_85 (Conv2D, DEPTHWISE_CONV_2D)             [b:1,h:16,w:16,c:72]    1,872/2,088         460,872                     pad_84   | -2,088(-100.0%)   -460,872(-100.0%)   
       nl_85_nl (Nonlinearity, DEPTHWISE_CONV_2D)        [b:1,h:16,w:16,c:72]                         18,432                  conv2d_85   |                   -18,432(-100.0%)    
------ ------------------------------------------------- ----------------------- --------------- ----------- -------------------------- --- ----------------- ------------------- ------------------------------------- 
86     conv2d_86 (Conv2D, CONV_2D)                       [b:1,h:16,w:16,c:72]    5,256/5,472       1,327,176                   nl_85_nl   |                                       conv2d_oi8[38]                        
------ ------------------------------------------------- ----------------------- --------------- ----------- -------------------------- --- ----------------- ------------------- ------------------------------------- 
87     conv2d_87 (Conv2D, CONV_2D)                       [b:1,h:16,w:16,c:12]    876/912             221,196                  conv2d_86   | -912(-100.0%)     -221,196(-100.0%)   
------ ------------------------------------------------- ----------------------- --------------- ----------- -------------------------- --- ----------------- ------------------- ------------------------------------- 
88     nl_88 (Nonlinearity, LOGISTIC)                    [b:1,h:16,w:16,c:12]                         30,720                  conv2d_87   | +912(+100.0%)     +193,548(+630.0%)   conv2d_oi8[39]                        
------ ------------------------------------------------- ----------------------- --------------- ----------- -------------------------- --- ----------------- ------------------- ------------------------------------- 
89     conversion_89 (Conversion, QUANTIZE)              [b:1,h:16,w:16,c:12]                          6,144                      nl_88   |                   -6,144(-100.0%)     
------ ------------------------------------------------- ----------------------- --------------- ----------- -------------------------- --- ----------------- ------------------- ------------------------------------- 
90     concat_90 (Concat, CONCATENATION)                 [b:1,h:16,w:16,c:20]                                             conversion_89   |                                       concat_oi8[49]                        
                                                                                                                          conversion_70   | 
                                                                                                                           transpose_81   | 
------ ------------------------------------------------- ----------------------- --------------- ----------- -------------------------- --- ----------------- ------------------- ------------------------------------- 
91     transpose_91 (Transpose, TRANSPOSE)               [b:1,h:20,w:16,c:16]                                                 concat_90   |                                       transpose_oi8[50]                     
------ ------------------------------------------------- ----------------------- --------------- ----------- -------------------------- --- ----------------- ------------------- ------------------------------------- 
92     reshape_92 (Reshape, RESHAPE)                     [b:1,h:20,c:256]                                                  transpose_91   |                                       
------ ------------------------------------------------- ----------------------- --------------- ----------- -------------------------- --- ----------------- ------------------- ------------------------------------- 
93     transpose_93 (Transpose, TRANSPOSE)               [b:1,h:256,c:20]                                                    reshape_92   |                                       transpose_oi8[51]                     
------ ------------------------------------------------- ----------------------- --------------- ----------- -------------------------- --- ----------------- ------------------- ------------------------------------- 
94     concat_94 (Concat, CONCATENATION)                 [b:1,h:320,c:20]                                                  transpose_93   |                                       concat_oi8[71]                        
                                                                                                                           transpose_58   | 
------ ------------------------------------------------- ----------------------- --------------- ----------- -------------------------- --- ----------------- ------------------- ------------------------------------- 
95     conversion_95 (Conversion, DEQUANTIZE)            [b:1,h:320,c:20]                             12,800                  concat_94   |                                       converter_of32[o][72]                 
------ ------------------------------------------------- ----------------------- --------------- ----------- -------------------------- --- ----------------- ------------------- ------------------------------------- 
model/c-model: macc=23,237,048/23,121,400 -115,648(-0.5%) weights=193,600/190,624 -2,976(-1.5%) activations=--/282,624 io=--/0



Generated C-graph summary
------------------------------------------------------------------------------------------------------------------------
model name            : model_post
c-name                : network_2
c-node #              : 73
c-array #             : 191
activations size      : 282624 (1 segment)
weights size          : 190624 (1 segment)
macc                  : 23121400
inputs                : ['serving_default_input_20_output']
outputs               : ['conversion_95_output']

C-Arrays (191)
------ --------------------------------- -------------- ------------------------- --------------- ------------- --------- 
c_id   name (*_array)                    item/size      domain/mem-pool           c-type          fmt           comment   
------ --------------------------------- -------------- ------------------------- --------------- ------------- --------- 
0      conv2d_22_weights                 9216/9216      weights/weights           const int8_t    ss8/ch(96)              
1      conv2d_22_bias                    96/384         weights/weights           const int32_t   ss32/ch(96)             
2      conv2d_23_weights                 864/864        weights/weights           const int8_t    ss8/ch(96)              
3      conv2d_23_bias                    96/384         weights/weights           const int32_t   ss32/ch(96)             
4      conv2d_24_weights                 9216/9216      weights/weights           const int8_t    ss8/ch(96)              
5      conv2d_24_bias                    96/384         weights/weights           const int32_t   ss32/ch(96)             
6      conv2d_61_weights                 20736/20736    weights/weights           const int8_t    ss8/ch(72)              
7      conv2d_61_bias                    72/288         weights/weights           const int32_t   ss32/ch(72)             
8      conv2d_82_weights                 1800/1800      weights/weights           const int8_t    ss8/ch(72)              
9      conv2d_82_bias                    72/288         weights/weights           const int32_t   ss32/ch(72)             
10     conv2d_83_weights                 5184/5184      weights/weights           const int8_t    ss8/ch(72)              
11     conv2d_83_bias                    72/288         weights/weights           const int32_t   ss32/ch(72)             
12     conv2d_85_weights                 1800/1800      weights/weights           const int8_t    ss8/ch(72)              
13     conv2d_85_bias                    72/288         weights/weights           const int32_t   ss32/ch(72)             
14     conv2d_86_weights                 5184/5184      weights/weights           const int8_t    ss8/ch(72)              
15     conv2d_86_bias                    72/288         weights/weights           const int32_t   ss32/ch(72)             
16     conv2d_87_weights                 864/864        weights/weights           const int8_t    ss8/ch(12)              
17     conv2d_87_bias                    12/48          weights/weights           const int32_t   ss32/ch(12)             
18     conv2d_63_weights                 1800/1800      weights/weights           const int8_t    ss8/ch(72)              
19     conv2d_63_bias                    72/288         weights/weights           const int32_t   ss32/ch(72)             
20     conv2d_64_weights                 5184/5184      weights/weights           const int8_t    ss8/ch(72)              
21     conv2d_64_bias                    72/288         weights/weights           const int32_t   ss32/ch(72)             
22     conv2d_66_weights                 1800/1800      weights/weights           const int8_t    ss8/ch(72)              
23     conv2d_66_bias                    72/288         weights/weights           const int32_t   ss32/ch(72)             
24     conv2d_67_weights                 5184/5184      weights/weights           const int8_t    ss8/ch(72)              
25     conv2d_67_bias                    72/288         weights/weights           const int32_t   ss32/ch(72)             
26     conv2d_71_weights                 360/360        weights/weights           const int8_t    ss8/ch(5)               
27     conv2d_71_bias                    5/20           weights/weights           const int32_t   ss32/ch(5)              
28     conv2d_68_weights                 216/216        weights/weights           const int8_t    ss8/ch(3)               
29     conv2d_68_bias                    3/12           weights/weights           const int32_t   ss32/ch(3)              
30     conv2d_26_weights                 13824/13824    weights/weights           const int8_t    ss8/ch(72)              
31     conv2d_26_bias                    72/288         weights/weights           const int32_t   ss32/ch(72)             
32     conv2d_36_weights                 1800/1800      weights/weights           const int8_t    ss8/ch(72)              
33     conv2d_36_bias                    72/288         weights/weights           const int32_t   ss32/ch(72)             
34     conv2d_37_weights                 5184/5184      weights/weights           const int8_t    ss8/ch(72)              
35     conv2d_37_bias                    72/288         weights/weights           const int32_t   ss32/ch(72)             
36     conv2d_39_weights                 1800/1800      weights/weights           const int8_t    ss8/ch(72)              
37     conv2d_39_bias                    72/288         weights/weights           const int32_t   ss32/ch(72)             
38     conv2d_40_weights                 5184/5184      weights/weights           const int8_t    ss8/ch(72)              
39     conv2d_40_bias                    72/288         weights/weights           const int32_t   ss32/ch(72)             
40     conv2d_44_bias                    5/20           weights/weights           const int32_t   ss32/ch(5)              
41     serving_default_input_20_output   24576/24576    activations/**default**   int8_t          sa8           /input    
42     conv2d_3_pad_before_output        31104/31104    activations/**default**   int8_t          sa8                     
43     conv2d_41_bias                    3/12           weights/weights           const int32_t   ss32/ch(3)              
44     conv2d_3_output                   6144/6144      activations/**default**   int8_t          sa8                     
45     conv2d_4_output                   6144/6144      activations/**default**   int8_t          sa8                     
46     conv2d_28_weights                 1800/1800      weights/weights           const int8_t    ss8/ch(72)              
47     conv2d_1_output                   24576/24576    activations/**default**   int8_t          sa8                     
48     conv2d_5_pad_before_output        31104/31104    activations/**default**   int8_t          sa8                     
49     conv2d_28_bias                    72/288         weights/weights           const int32_t   ss32/ch(72)             
50     conv2d_5_output                   6144/6144      activations/**default**   int8_t          sa8                     
51     conv2d_6_output                   6144/6144      activations/**default**   int8_t          sa8                     
52     conv2d_29_weights                 5184/5184      weights/weights           const int8_t    ss8/ch(72)              
53     concat_7_output                   12288/12288    activations/**default**   int8_t          sa8                     
54     gather_9_output                   6144/6144      activations/**default**   int8_t          sa8                     
55     conv2d_29_bias                    72/288         weights/weights           const int32_t   ss32/ch(72)             
56     conv2d_10_output                  6144/6144      activations/**default**   int8_t          sa8                     
57     conv2d_11_pad_before_output       9600/9600      activations/**default**   int8_t          sa8                     
58     conv2d_31_weights                 1800/1800      weights/weights           const int8_t    ss8/ch(72)              
59     conv2d_11_output                  6144/6144      activations/**default**   int8_t          sa8                     
60     conv2d_12_output                  6144/6144      activations/**default**   int8_t          sa8                     
61     conv2d_31_bias                    72/288         weights/weights           const int32_t   ss32/ch(72)             
62     gather_8_output                   6144/6144      activations/**default**   int8_t          sa8                     
63     concat_13_output                  12288/12288    activations/**default**   int8_t          sa8                     
64     conv2d_32_weights                 5184/5184      weights/weights           const int8_t    ss8/ch(72)              
65     gather_15_output                  6144/6144      activations/**default**   int8_t          sa8                     
66     conv2d_16_output                  6144/6144      activations/**default**   int8_t          sa8                     
67     conv2d_32_bias                    72/288         weights/weights           const int32_t   ss32/ch(72)             
68     conv2d_17_pad_before_output       9600/9600      activations/**default**   int8_t          sa8                     
69     conv2d_17_output                  6144/6144      activations/**default**   int8_t          sa8                     
70     conv2d_18_output                  6144/6144      activations/**default**   int8_t          sa8                     
71     gather_14_output                  6144/6144      activations/**default**   int8_t          sa8                     
72     conv2d_33_bias                    12/48          weights/weights           const int32_t   ss32/ch(12)             
73     concat_19_output                  12288/12288    activations/**default**   int8_t          sa8                     
74     gather_21_output                  6144/6144      activations/**default**   int8_t          sa8                     
75     conv2d_3_scratch0                 3553/3553      activations/**default**   int8_t          s8                      
76     conv2d_22_output                  6144/6144      activations/**default**   int8_t          sa8                     
77     conv2d_23_pad_before_output       9600/9600      activations/**default**   int8_t          sa8                     
78     conv2d_23_output                  6144/6144      activations/**default**   int8_t          sa8                     
79     conv2d_4_scratch0                 1344/1344      activations/**default**   int8_t          s8                      
80     conv2d_24_output                  6144/6144      activations/**default**   int8_t          sa8                     
81     gather_20_output                  6144/6144      activations/**default**   int8_t          sa8                     
82     conv2d_1_scratch0                 1344/1344      activations/**default**   int8_t          s8                      
83     concat_25_output                  12288/12288    activations/**default**   int8_t          sa8                     
84     concat_25_0_conversion_output     12288/49152    activations/**default**   float           float32                 
85     upsample_59_output                49152/196608   activations/**default**   float           float32                 
86     conv2d_5_scratch0                 3553/3553      activations/**default**   int8_t          s8                      
87     upsample_59_0_conversion_output   49152/49152    activations/**default**   int8_t          sa8                     
88     concat_60_output                  73728/73728    activations/**default**   int8_t          sa8                     
89     conv2d_6_scratch0                 1344/1344      activations/**default**   int8_t          s8                      
90     conv2d_61_output                  18432/18432    activations/**default**   int8_t          sa8                     
91     pad_62_output                     28800/28800    activations/**default**   int8_t          sa8                     
92     conv2d_82_output                  18432/18432    activations/**default**   int8_t          sa8                     
93     conv2d_10_scratch0                1344/1344      activations/**default**   int8_t          s8                      
94     conv2d_83_output                  18432/18432    activations/**default**   int8_t          sa8                     
95     conv2d_85_output                  18432/18432    activations/**default**   int8_t          sa8                     
96     conv2d_11_scratch0                3553/3553      activations/**default**   int8_t          s8                      
97     conv2d_86_output                  18432/18432    activations/**default**   int8_t          sa8                     
98     conv2d_87_output                  3072/3072      activations/**default**   int8_t          sa8                     
99     conv2d_63_output                  18432/18432    activations/**default**   int8_t          sa8                     
100    conv2d_12_scratch0                1344/1344      activations/**default**   int8_t          s8                      
101    conv2d_64_output                  18432/18432    activations/**default**   int8_t          sa8                     
102    conv2d_66_output                  18432/18432    activations/**default**   int8_t          sa8                     
103    conv2d_16_scratch0                1344/1344      activations/**default**   int8_t          s8                      
104    conv2d_67_output                  18432/18432    activations/**default**   int8_t          sa8                     
105    conv2d_71_output                  1280/1280      activations/**default**   int8_t          sa8                     
106    conv2d_71_0_conversion_output     1280/5120      activations/**default**   float           float32                 
107    conv2d_17_scratch0                3553/3553      activations/**default**   int8_t          s8                      
108    nl_76_output                      1280/5120      activations/**default**   float           float32                 
109    nl_76_0_conversion_output         1280/1280      activations/**default**   int8_t          sa8                     
110    conv2d_18_scratch0                1344/1344      activations/**default**   int8_t          s8                      
111    conv2d_68_output                  768/768        activations/**default**   int8_t          sa8                     
112    concat_90_output                  5120/5120      activations/**default**   int8_t          sa8                     
113    transpose_91_output               5120/5120      activations/**default**   int8_t          sa8                     
114    conv2d_22_scratch0                1344/1344      activations/**default**   int8_t          s8                      
115    transpose_93_output               5120/5120      activations/**default**   int8_t          sa8                     
116    conv2d_26_output                  4608/4608      activations/**default**   int8_t          sa8                     
117    conv2d_23_scratch0                3553/3553      activations/**default**   int8_t          s8                      
118    pad_27_output                     10368/10368    activations/**default**   int8_t          sa8                     
119    conv2d_36_output                  4608/4608      activations/**default**   int8_t          sa8                     
120    conv2d_37_output                  4608/4608      activations/**default**   int8_t          sa8                     
121    conv2d_24_scratch0                1344/1344      activations/**default**   int8_t          s8                      
122    conv2d_39_output                  4608/4608      activations/**default**   int8_t          sa8                     
123    conv2d_40_output                  4608/4608      activations/**default**   int8_t          sa8                     
124    conv2d_61_scratch0                1872/1872      activations/**default**   int8_t          s8                      
125    conv2d_44_output                  320/320        activations/**default**   int8_t          sa8                     
126    conv2d_44_0_conversion_output     320/1280       activations/**default**   float           float32                 
127    nl_49_output                      320/1280       activations/**default**   float           float32                 
128    conv2d_82_scratch0                6121/6121      activations/**default**   int8_t          s8                      
129    nl_49_0_conversion_output         320/320        activations/**default**   int8_t          sa8                     
130    conv2d_41_output                  192/192        activations/**default**   int8_t          sa8                     
131    conv2d_83_scratch0                1008/1008      activations/**default**   int8_t          s8                      
132    conv2d_28_output                  4608/4608      activations/**default**   int8_t          sa8                     
133    conv2d_29_output                  4608/4608      activations/**default**   int8_t          sa8                     
134    conv2d_31_output                  4608/4608      activations/**default**   int8_t          sa8                     
135    conv2d_85_scratch0                6121/6121      activations/**default**   int8_t          s8                      
136    conv2d_32_output                  4608/4608      activations/**default**   int8_t          ss8                     
137    conv2d_33_output                  768/768        activations/**default**   int8_t          sa8                     
138    conv2d_86_scratch0                1008/1008      activations/**default**   int8_t          s8                      
139    concat_55_output                  1280/1280      activations/**default**   int8_t          sa8                     
140    transpose_56_output               1280/1280      activations/**default**   int8_t          sa8                     
141    transpose_58_output               1280/1280      activations/**default**   int8_t          sa8                     
142    conv2d_87_scratch0                408/408        activations/**default**   int8_t          s8                      
143    concat_94_output                  6400/6400      activations/**default**   int8_t          sa8                     
144    conv2d_87_scratch1                3072/3072      activations/**default**   int8_t          sa8                     
145    conversion_95_output              6400/25600     activations/**default**   float           float32       /output   
146    conv2d_63_scratch0                6121/6121      activations/**default**   int8_t          s8                      
147    conv2d_64_scratch0                1008/1008      activations/**default**   int8_t          s8                      
148    conv2d_66_scratch0                6121/6121      activations/**default**   int8_t          s8                      
149    conv2d_67_scratch0                1008/1008      activations/**default**   int8_t          s8                      
150    conv2d_71_scratch0                338/338        activations/**default**   int8_t          s8                      
151    conv2d_68_scratch0                318/318        activations/**default**   int8_t          s8                      
152    conv2d_68_scratch1                768/768        activations/**default**   int8_t          sa8                     
153    conv2d_26_scratch0                1488/1488      activations/**default**   int8_t          s8                      
154    conv2d_36_scratch0                6121/6121      activations/**default**   int8_t          s8                      
155    conv2d_37_scratch0                1008/1008      activations/**default**   int8_t          s8                      
156    conv2d_39_scratch0                6121/6121      activations/**default**   int8_t          s8                      
157    conv2d_40_scratch0                1008/1008      activations/**default**   int8_t          s8                      
158    conv2d_44_scratch0                338/338        activations/**default**   int8_t          s8                      
159    conv2d_41_scratch0                318/318        activations/**default**   int8_t          s8                      
160    conv2d_41_scratch1                192/192        activations/**default**   int8_t          sa8                     
161    conv2d_28_scratch0                6121/6121      activations/**default**   int8_t          s8                      
162    conv2d_29_scratch0                1008/1008      activations/**default**   int8_t          s8                      
163    conv2d_3_weights                  864/864        weights/weights           const int8_t    ss8/ch(96)              
164    conv2d_31_scratch0                6121/6121      activations/**default**   int8_t          s8                      
165    conv2d_3_bias                     96/384         weights/weights           const int32_t   ss32/ch(96)             
166    conv2d_32_scratch0                1008/1008      activations/**default**   int8_t          s8                      
167    conv2d_4_weights                  9216/9216      weights/weights           const int8_t    ss8/ch(96)              
168    conv2d_33_scratch0                408/408        activations/**default**   int8_t          s8                      
169    conv2d_4_bias                     96/384         weights/weights           const int32_t   ss32/ch(96)             
170    conv2d_33_scratch1                768/768        activations/**default**   int8_t          sa8                     
171    conv2d_1_weights                  9216/9216      weights/weights           const int8_t    ss8/ch(96)              
172    conv2d_1_bias                     96/384         weights/weights           const int32_t   ss32/ch(96)             
173    conv2d_5_weights                  864/864        weights/weights           const int8_t    ss8/ch(96)              
174    conv2d_5_bias                     96/384         weights/weights           const int32_t   ss32/ch(96)             
175    conv2d_6_weights                  9216/9216      weights/weights           const int8_t    ss8/ch(96)              
176    conv2d_6_bias                     96/384         weights/weights           const int32_t   ss32/ch(96)             
177    gather_9_indices                  96/384         weights/weights           const int32_t   s32                     
178    conv2d_10_weights                 9216/9216      weights/weights           const int8_t    ss8/ch(96)              
179    conv2d_10_bias                    96/384         weights/weights           const int32_t   ss32/ch(96)             
180    conv2d_11_weights                 864/864        weights/weights           const int8_t    ss8/ch(96)              
181    conv2d_11_bias                    96/384         weights/weights           const int32_t   ss32/ch(96)             
182    conv2d_12_weights                 9216/9216      weights/weights           const int8_t    ss8/ch(96)              
183    conv2d_12_bias                    96/384         weights/weights           const int32_t   ss32/ch(96)             
184    gather_8_indices                  96/384         weights/weights           const int32_t   s32                     
185    conv2d_16_weights                 9216/9216      weights/weights           const int8_t    ss8/ch(96)              
186    conv2d_16_bias                    96/384         weights/weights           const int32_t   ss32/ch(96)             
187    conv2d_17_weights                 864/864        weights/weights           const int8_t    ss8/ch(96)              
188    conv2d_17_bias                    96/384         weights/weights           const int32_t   ss32/ch(96)             
189    conv2d_18_weights                 9216/9216      weights/weights           const int8_t    ss8/ch(96)              
190    conv2d_18_bias                    96/384         weights/weights           const int32_t   ss32/ch(96)             
------ --------------------------------- -------------- ------------------------- --------------- ------------- --------- 

C-Layers (73)
------ -------------------------- ---- ------------ --------- ------- ------------------------------------ -------------------- 
c_id   name (*_layer)             id   layer_type   macc      rom     tensors                              shape (array id)     
------ -------------------------- ---- ------------ --------- ------- ------------------------------------ -------------------- 
0      conv2d_3_pad_before        0    pad          0         0       I: serving_default_input_20_output   (1,16,16,96) (41)    
                                                                      O: conv2d_3_pad_before_output        (1,18,18,96) (42)    
------ -------------------------- ---- ------------ --------- ------- ------------------------------------ -------------------- 
1      conv2d_3                   3    conv2d       55392     1248    I: conv2d_3_pad_before_output        (1,18,18,96) (42)    
                                                                      S: conv2d_3_scratch0                                      
                                                                      W: conv2d_3_weights                  (96,1,3,3) (163)     
                                                                      W: conv2d_3_bias                     (1,1,1,96) (165)     
                                                                      O: conv2d_3_output                   (1,8,8,96) (44)      
------ -------------------------- ---- ------------ --------- ------- ------------------------------------ -------------------- 
2      conv2d_4                   4    conv2d       589920    9600    I: conv2d_3_output                   (1,8,8,96) (44)      
                                                                      S: conv2d_4_scratch0                                      
                                                                      W: conv2d_4_weights                  (96,96,1,1) (167)    
                                                                      W: conv2d_4_bias                     (1,1,1,96) (169)     
                                                                      O: conv2d_4_output                   (1,8,8,96) (45)      
------ -------------------------- ---- ------------ --------- ------- ------------------------------------ -------------------- 
3      conv2d_1                   1    conv2d       2359392   9600    I: serving_default_input_20_output   (1,16,16,96) (41)    
                                                                      S: conv2d_1_scratch0                                      
                                                                      W: conv2d_1_weights                  (96,96,1,1) (171)    
                                                                      W: conv2d_1_bias                     (1,1,1,96) (172)     
                                                                      O: conv2d_1_output                   (1,16,16,96) (47)    
------ -------------------------- ---- ------------ --------- ------- ------------------------------------ -------------------- 
4      conv2d_5_pad_before        2    pad          0         0       I: conv2d_1_output                   (1,16,16,96) (47)    
                                                                      O: conv2d_5_pad_before_output        (1,18,18,96) (48)    
------ -------------------------- ---- ------------ --------- ------- ------------------------------------ -------------------- 
5      conv2d_5                   5    conv2d       55392     1248    I: conv2d_5_pad_before_output        (1,18,18,96) (48)    
                                                                      S: conv2d_5_scratch0                                      
                                                                      W: conv2d_5_weights                  (96,1,3,3) (173)     
                                                                      W: conv2d_5_bias                     (1,1,1,96) (174)     
                                                                      O: conv2d_5_output                   (1,8,8,96) (50)      
------ -------------------------- ---- ------------ --------- ------- ------------------------------------ -------------------- 
6      conv2d_6                   6    conv2d       589920    9600    I: conv2d_5_output                   (1,8,8,96) (50)      
                                                                      S: conv2d_6_scratch0                                      
                                                                      W: conv2d_6_weights                  (96,96,1,1) (175)    
                                                                      W: conv2d_6_bias                     (1,1,1,96) (176)     
                                                                      O: conv2d_6_output                   (1,8,8,96) (51)      
------ -------------------------- ---- ------------ --------- ------- ------------------------------------ -------------------- 
7      concat_7                   7    concat       0         0       I: conv2d_4_output                   (1,8,8,96) (45)      
                                                                      I: conv2d_6_output                   (1,8,8,96) (51)      
                                                                      O: concat_7_output                   (1,8,8,192) (53)     
------ -------------------------- ---- ------------ --------- ------- ------------------------------------ -------------------- 
8      gather_9                   9    gather       0         384     I: concat_7_output                   (1,8,8,192) (53)     
                                                                      W: gather_9_indices                  (1,1,96,1) (177)     
                                                                      O: gather_9_output                   (1,8,8,96) (54)      
------ -------------------------- ---- ------------ --------- ------- ------------------------------------ -------------------- 
9      conv2d_10                  10   conv2d       589920    9600    I: gather_9_output                   (1,8,8,96) (54)      
                                                                      S: conv2d_10_scratch0                                     
                                                                      W: conv2d_10_weights                 (96,96,1,1) (178)    
                                                                      W: conv2d_10_bias                    (1,1,1,96) (179)     
                                                                      O: conv2d_10_output                  (1,8,8,96) (56)      
------ -------------------------- ---- ------------ --------- ------- ------------------------------------ -------------------- 
10     conv2d_11_pad_before       11   pad          0         0       I: conv2d_10_output                  (1,8,8,96) (56)      
                                                                      O: conv2d_11_pad_before_output       (1,10,10,96) (57)    
------ -------------------------- ---- ------------ --------- ------- ------------------------------------ -------------------- 
11     conv2d_11                  11   conv2d       55392     1248    I: conv2d_11_pad_before_output       (1,10,10,96) (57)    
                                                                      S: conv2d_11_scratch0                                     
                                                                      W: conv2d_11_weights                 (96,1,3,3) (180)     
                                                                      W: conv2d_11_bias                    (1,1,1,96) (181)     
                                                                      O: conv2d_11_output                  (1,8,8,96) (59)      
------ -------------------------- ---- ------------ --------- ------- ------------------------------------ -------------------- 
12     conv2d_12                  12   conv2d       589920    9600    I: conv2d_11_output                  (1,8,8,96) (59)      
                                                                      S: conv2d_12_scratch0                                     
                                                                      W: conv2d_12_weights                 (96,96,1,1) (182)    
                                                                      W: conv2d_12_bias                    (1,1,1,96) (183)     
                                                                      O: conv2d_12_output                  (1,8,8,96) (60)      
------ -------------------------- ---- ------------ --------- ------- ------------------------------------ -------------------- 
13     gather_8                   8    gather       0         384     I: concat_7_output                   (1,8,8,192) (53)     
                                                                      W: gather_8_indices                  (1,1,96,1) (184)     
                                                                      O: gather_8_output                   (1,8,8,96) (62)      
------ -------------------------- ---- ------------ --------- ------- ------------------------------------ -------------------- 
14     concat_13                  13   concat       0         0       I: gather_8_output                   (1,8,8,96) (62)      
                                                                      I: conv2d_12_output                  (1,8,8,96) (60)      
                                                                      O: concat_13_output                  (1,8,8,192) (63)     
------ -------------------------- ---- ------------ --------- ------- ------------------------------------ -------------------- 
15     gather_15                  15   gather       0         384     I: concat_13_output                  (1,8,8,192) (63)     
                                                                      W: gather_9_indices                  (1,1,96,1) (177)     
                                                                      O: gather_15_output                  (1,8,8,96) (65)      
------ -------------------------- ---- ------------ --------- ------- ------------------------------------ -------------------- 
16     conv2d_16                  16   conv2d       589920    9600    I: gather_15_output                  (1,8,8,96) (65)      
                                                                      S: conv2d_16_scratch0                                     
                                                                      W: conv2d_16_weights                 (96,96,1,1) (185)    
                                                                      W: conv2d_16_bias                    (1,1,1,96) (186)     
                                                                      O: conv2d_16_output                  (1,8,8,96) (66)      
------ -------------------------- ---- ------------ --------- ------- ------------------------------------ -------------------- 
17     conv2d_17_pad_before       17   pad          0         0       I: conv2d_16_output                  (1,8,8,96) (66)      
                                                                      O: conv2d_17_pad_before_output       (1,10,10,96) (68)    
------ -------------------------- ---- ------------ --------- ------- ------------------------------------ -------------------- 
18     conv2d_17                  17   conv2d       55392     1248    I: conv2d_17_pad_before_output       (1,10,10,96) (68)    
                                                                      S: conv2d_17_scratch0                                     
                                                                      W: conv2d_17_weights                 (96,1,3,3) (187)     
                                                                      W: conv2d_17_bias                    (1,1,1,96) (188)     
                                                                      O: conv2d_17_output                  (1,8,8,96) (69)      
------ -------------------------- ---- ------------ --------- ------- ------------------------------------ -------------------- 
19     conv2d_18                  18   conv2d       589920    9600    I: conv2d_17_output                  (1,8,8,96) (69)      
                                                                      S: conv2d_18_scratch0                                     
                                                                      W: conv2d_18_weights                 (96,96,1,1) (189)    
                                                                      W: conv2d_18_bias                    (1,1,1,96) (190)     
                                                                      O: conv2d_18_output                  (1,8,8,96) (70)      
------ -------------------------- ---- ------------ --------- ------- ------------------------------------ -------------------- 
20     gather_14                  14   gather       0         384     I: concat_13_output                  (1,8,8,192) (63)     
                                                                      W: gather_8_indices                  (1,1,96,1) (184)     
                                                                      O: gather_14_output                  (1,8,8,96) (71)      
------ -------------------------- ---- ------------ --------- ------- ------------------------------------ -------------------- 
21     concat_19                  19   concat       0         0       I: gather_14_output                  (1,8,8,96) (71)      
                                                                      I: conv2d_18_output                  (1,8,8,96) (70)      
                                                                      O: concat_19_output                  (1,8,8,192) (73)     
------ -------------------------- ---- ------------ --------- ------- ------------------------------------ -------------------- 
22     gather_21                  21   gather       0         384     I: concat_19_output                  (1,8,8,192) (73)     
                                                                      W: gather_9_indices                  (1,1,96,1) (177)     
                                                                      O: gather_21_output                  (1,8,8,96) (74)      
------ -------------------------- ---- ------------ --------- ------- ------------------------------------ -------------------- 
23     conv2d_22                  22   conv2d       589920    9600    I: gather_21_output                  (1,8,8,96) (74)      
                                                                      S: conv2d_22_scratch0                                     
                                                                      W: conv2d_22_weights                 (96,96,1,1) (0)      
                                                                      W: conv2d_22_bias                    (1,1,1,96) (1)       
                                                                      O: conv2d_22_output                  (1,8,8,96) (76)      
------ -------------------------- ---- ------------ --------- ------- ------------------------------------ -------------------- 
24     conv2d_23_pad_before       23   pad          0         0       I: conv2d_22_output                  (1,8,8,96) (76)      
                                                                      O: conv2d_23_pad_before_output       (1,10,10,96) (77)    
------ -------------------------- ---- ------------ --------- ------- ------------------------------------ -------------------- 
25     conv2d_23                  23   conv2d       55392     1248    I: conv2d_23_pad_before_output       (1,10,10,96) (77)    
                                                                      S: conv2d_23_scratch0                                     
                                                                      W: conv2d_23_weights                 (96,1,3,3) (2)       
                                                                      W: conv2d_23_bias                    (1,1,1,96) (3)       
                                                                      O: conv2d_23_output                  (1,8,8,96) (78)      
------ -------------------------- ---- ------------ --------- ------- ------------------------------------ -------------------- 
26     conv2d_24                  24   conv2d       589920    9600    I: conv2d_23_output                  (1,8,8,96) (78)      
                                                                      S: conv2d_24_scratch0                                     
                                                                      W: conv2d_24_weights                 (96,96,1,1) (4)      
                                                                      W: conv2d_24_bias                    (1,1,1,96) (5)       
                                                                      O: conv2d_24_output                  (1,8,8,96) (80)      
------ -------------------------- ---- ------------ --------- ------- ------------------------------------ -------------------- 
27     gather_20                  20   gather       0         384     I: concat_19_output                  (1,8,8,192) (73)     
                                                                      W: gather_8_indices                  (1,1,96,1) (184)     
                                                                      O: gather_20_output                  (1,8,8,96) (81)      
------ -------------------------- ---- ------------ --------- ------- ------------------------------------ -------------------- 
28     concat_25                  25   concat       0         0       I: gather_20_output                  (1,8,8,96) (81)      
                                                                      I: conv2d_24_output                  (1,8,8,96) (80)      
                                                                      O: concat_25_output                  (1,8,8,192) (83)     
------ -------------------------- ---- ------------ --------- ------- ------------------------------------ -------------------- 
29     concat_25_0_conversion     25   converter    24576     0       I: concat_25_output                  (1,8,8,192) (83)     
                                                                      O: concat_25_0_conversion_output     (1,8,8,192) (84)     
------ -------------------------- ---- ------------ --------- ------- ------------------------------------ -------------------- 
30     upsample_59                59   upsample     0         0       I: concat_25_0_conversion_output     (1,8,8,192) (84)     
                                                                      O: upsample_59_output                (1,16,16,192) (85)   
------ -------------------------- ---- ------------ --------- ------- ------------------------------------ -------------------- 
31     upsample_59_0_conversion   59   converter    98304     0       I: upsample_59_output                (1,16,16,192) (85)   
                                                                      O: upsample_59_0_conversion_output   (1,16,16,192) (87)   
------ -------------------------- ---- ------------ --------- ------- ------------------------------------ -------------------- 
32     concat_60                  60   concat       0         0       I: upsample_59_0_conversion_output   (1,16,16,192) (87)   
                                                                      I: serving_default_input_20_output   (1,16,16,96) (41)    
                                                                      O: concat_60_output                  (1,16,16,288) (88)   
------ -------------------------- ---- ------------ --------- ------- ------------------------------------ -------------------- 
33     conv2d_61                  61   conv2d       5308488   21024   I: concat_60_output                  (1,16,16,288) (88)   
                                                                      S: conv2d_61_scratch0                                     
                                                                      W: conv2d_61_weights                 (288,72,1,1) (6)     
                                                                      W: conv2d_61_bias                    (1,1,1,72) (7)       
                                                                      O: conv2d_61_output                  (1,16,16,72) (90)    
------ -------------------------- ---- ------------ --------- ------- ------------------------------------ -------------------- 
34     pad_62                     62   pad          0         0       I: conv2d_61_output                  (1,16,16,72) (90)    
                                                                      O: pad_62_output                     (1,20,20,72) (91)    
------ -------------------------- ---- ------------ --------- ------- ------------------------------------ -------------------- 
35     conv2d_82                  82   conv2d       460872    2088    I: pad_62_output                     (1,20,20,72) (91)    
                                                                      S: conv2d_82_scratch0                                     
                                                                      W: conv2d_82_weights                 (72,1,5,5) (8)       
                                                                      W: conv2d_82_bias                    (1,1,1,72) (9)       
                                                                      O: conv2d_82_output                  (1,16,16,72) (92)    
------ -------------------------- ---- ------------ --------- ------- ------------------------------------ -------------------- 
36     conv2d_83                  83   conv2d       1327176   5472    I: conv2d_82_output                  (1,16,16,72) (92)    
                                                                      S: conv2d_83_scratch0                                     
                                                                      W: conv2d_83_weights                 (72,72,1,1) (10)     
                                                                      W: conv2d_83_bias                    (1,1,1,72) (11)      
                                                                      O: conv2d_83_output                  (1,16,16,72) (94)    
------ -------------------------- ---- ------------ --------- ------- ------------------------------------ -------------------- 
37     conv2d_85                  84   conv2d       460872    2088    I: conv2d_83_output                  (1,16,16,72) (94)    
                                                                      S: conv2d_85_scratch0                                     
                                                                      W: conv2d_85_weights                 (72,1,5,5) (12)      
                                                                      W: conv2d_85_bias                    (1,1,1,72) (13)      
                                                                      O: conv2d_85_output                  (1,16,16,72) (95)    
------ -------------------------- ---- ------------ --------- ------- ------------------------------------ -------------------- 
38     conv2d_86                  86   conv2d       1327176   5472    I: conv2d_85_output                  (1,16,16,72) (95)    
                                                                      S: conv2d_86_scratch0                                     
                                                                      W: conv2d_86_weights                 (72,72,1,1) (14)     
                                                                      W: conv2d_86_bias                    (1,1,1,72) (15)      
                                                                      O: conv2d_86_output                  (1,16,16,72) (97)    
------ -------------------------- ---- ------------ --------- ------- ------------------------------------ -------------------- 
39     conv2d_87                  88   conv2d       224268    912     I: conv2d_86_output                  (1,16,16,72) (97)    
                                                                      S: conv2d_87_scratch0                                     
                                                                      S: conv2d_87_scratch1                                     
                                                                      W: conv2d_87_weights                 (72,12,1,1) (16)     
                                                                      W: conv2d_87_bias                    (1,1,1,12) (17)      
                                                                      O: conv2d_87_output                  (1,16,16,12) (98)    
------ -------------------------- ---- ------------ --------- ------- ------------------------------------ -------------------- 
40     conv2d_63                  63   conv2d       460872    2088    I: pad_62_output                     (1,20,20,72) (91)    
                                                                      S: conv2d_63_scratch0                                     
                                                                      W: conv2d_63_weights                 (72,1,5,5) (18)      
                                                                      W: conv2d_63_bias                    (1,1,1,72) (19)      
                                                                      O: conv2d_63_output                  (1,16,16,72) (99)    
------ -------------------------- ---- ------------ --------- ------- ------------------------------------ -------------------- 
41     conv2d_64                  64   conv2d       1327176   5472    I: conv2d_63_output                  (1,16,16,72) (99)    
                                                                      S: conv2d_64_scratch0                                     
                                                                      W: conv2d_64_weights                 (72,72,1,1) (20)     
                                                                      W: conv2d_64_bias                    (1,1,1,72) (21)      
                                                                      O: conv2d_64_output                  (1,16,16,72) (101)   
------ -------------------------- ---- ------------ --------- ------- ------------------------------------ -------------------- 
42     conv2d_66                  65   conv2d       460872    2088    I: conv2d_64_output                  (1,16,16,72) (101)   
                                                                      S: conv2d_66_scratch0                                     
                                                                      W: conv2d_66_weights                 (72,1,5,5) (22)      
                                                                      W: conv2d_66_bias                    (1,1,1,72) (23)      
                                                                      O: conv2d_66_output                  (1,16,16,72) (102)   
------ -------------------------- ---- ------------ --------- ------- ------------------------------------ -------------------- 
43     conv2d_67                  67   conv2d       1327176   5472    I: conv2d_66_output                  (1,16,16,72) (102)   
                                                                      S: conv2d_67_scratch0                                     
                                                                      W: conv2d_67_weights                 (72,72,1,1) (24)     
                                                                      W: conv2d_67_bias                    (1,1,1,72) (25)      
                                                                      O: conv2d_67_output                  (1,16,16,72) (104)   
------ -------------------------- ---- ------------ --------- ------- ------------------------------------ -------------------- 
44     conv2d_71                  71   conv2d       92165     380     I: conv2d_67_output                  (1,16,16,72) (104)   
                                                                      S: conv2d_71_scratch0                                     
                                                                      W: conv2d_71_weights                 (72,5,1,1) (26)      
                                                                      W: conv2d_71_bias                    (1,1,1,5) (27)       
                                                                      O: conv2d_71_output                  (1,16,16,5) (105)    
------ -------------------------- ---- ------------ --------- ------- ------------------------------------ -------------------- 
45     conv2d_71_0_conversion     71   converter    2560      0       I: conv2d_71_output                  (1,16,16,5) (105)    
                                                                      O: conv2d_71_0_conversion_output     (1,16,16,5) (106)    
------ -------------------------- ---- ------------ --------- ------- ------------------------------------ -------------------- 
46     nl_76                      76   nl           19200     0       I: conv2d_71_0_conversion_output     (1,16,16,5) (106)    
                                                                      O: nl_76_output                      (1,16,16,5) (108)    
------ -------------------------- ---- ------------ --------- ------- ------------------------------------ -------------------- 
47     nl_76_0_conversion         76   converter    2560      0       I: nl_76_output                      (1,16,16,5) (108)    
                                                                      O: nl_76_0_conversion_output         (1,16,16,5) (109)    
------ -------------------------- ---- ------------ --------- ------- ------------------------------------ -------------------- 
48     conv2d_68                  69   conv2d       56067     228     I: conv2d_67_output                  (1,16,16,72) (104)   
                                                                      S: conv2d_68_scratch0                                     
                                                                      S: conv2d_68_scratch1                                     
                                                                      W: conv2d_68_weights                 (72,3,1,1) (28)      
                                                                      W: conv2d_68_bias                    (1,1,1,3) (29)       
                                                                      O: conv2d_68_output                  (1,16,16,3) (111)    
------ -------------------------- ---- ------------ --------- ------- ------------------------------------ -------------------- 
49     concat_90                  90   concat       0         0       I: conv2d_87_output                  (1,16,16,12) (98)    
                                                                      I: conv2d_68_output                  (1,16,16,3) (111)    
                                                                      I: nl_76_0_conversion_output         (1,16,16,5) (109)    
                                                                      O: concat_90_output                  (1,16,16,20) (112)   
------ -------------------------- ---- ------------ --------- ------- ------------------------------------ -------------------- 
50     transpose_91               91   transpose    0         0       I: concat_90_output                  (1,16,16,20) (112)   
                                                                      O: transpose_91_output               (1,20,16,16) (113)   
------ -------------------------- ---- ------------ --------- ------- ------------------------------------ -------------------- 
51     transpose_93               93   transpose    0         0       I: transpose_91_output0              (1,20,1,256) (113)   
                                                                      O: transpose_93_output               (1,256,1,20) (115)   
------ -------------------------- ---- ------------ --------- ------- ------------------------------------ -------------------- 
52     conv2d_26                  26   conv2d       884808    14112   I: concat_25_output                  (1,8,8,192) (83)     
                                                                      S: conv2d_26_scratch0                                     
                                                                      W: conv2d_26_weights                 (192,72,1,1) (30)    
                                                                      W: conv2d_26_bias                    (1,1,1,72) (31)      
                                                                      O: conv2d_26_output                  (1,8,8,72) (116)     
------ -------------------------- ---- ------------ --------- ------- ------------------------------------ -------------------- 
53     pad_27                     27   pad          0         0       I: conv2d_26_output                  (1,8,8,72) (116)     
                                                                      O: pad_27_output                     (1,12,12,72) (118)   
------ -------------------------- ---- ------------ --------- ------- ------------------------------------ -------------------- 
54     conv2d_36                  36   conv2d       115272    2088    I: pad_27_output                     (1,12,12,72) (118)   
                                                                      S: conv2d_36_scratch0                                     
                                                                      W: conv2d_36_weights                 (72,1,5,5) (32)      
                                                                      W: conv2d_36_bias                    (1,1,1,72) (33)      
                                                                      O: conv2d_36_output                  (1,8,8,72) (119)     
------ -------------------------- ---- ------------ --------- ------- ------------------------------------ -------------------- 
55     conv2d_37                  37   conv2d       331848    5472    I: conv2d_36_output                  (1,8,8,72) (119)     
                                                                      S: conv2d_37_scratch0                                     
                                                                      W: conv2d_37_weights                 (72,72,1,1) (34)     
                                                                      W: conv2d_37_bias                    (1,1,1,72) (35)      
                                                                      O: conv2d_37_output                  (1,8,8,72) (120)     
------ -------------------------- ---- ------------ --------- ------- ------------------------------------ -------------------- 
56     conv2d_39                  38   conv2d       115272    2088    I: conv2d_37_output                  (1,8,8,72) (120)     
                                                                      S: conv2d_39_scratch0                                     
                                                                      W: conv2d_39_weights                 (72,1,5,5) (36)      
                                                                      W: conv2d_39_bias                    (1,1,1,72) (37)      
                                                                      O: conv2d_39_output                  (1,8,8,72) (122)     
------ -------------------------- ---- ------------ --------- ------- ------------------------------------ -------------------- 
57     conv2d_40                  40   conv2d       331848    5472    I: conv2d_39_output                  (1,8,8,72) (122)     
                                                                      S: conv2d_40_scratch0                                     
                                                                      W: conv2d_40_weights                 (72,72,1,1) (38)     
                                                                      W: conv2d_40_bias                    (1,1,1,72) (39)      
                                                                      O: conv2d_40_output                  (1,8,8,72) (123)     
------ -------------------------- ---- ------------ --------- ------- ------------------------------------ -------------------- 
58     conv2d_44                  44   conv2d       23045     380     I: conv2d_40_output                  (1,8,8,72) (123)     
                                                                      S: conv2d_44_scratch0                                     
                                                                      W: conv2d_71_weights                 (72,5,1,1) (26)      
                                                                      W: conv2d_44_bias                    (1,1,1,5) (40)       
                                                                      O: conv2d_44_output                  (1,8,8,5) (125)      
------ -------------------------- ---- ------------ --------- ------- ------------------------------------ -------------------- 
59     conv2d_44_0_conversion     44   converter    640       0       I: conv2d_44_output                  (1,8,8,5) (125)      
                                                                      O: conv2d_44_0_conversion_output     (1,8,8,5) (126)      
------ -------------------------- ---- ------------ --------- ------- ------------------------------------ -------------------- 
60     nl_49                      49   nl           4800      0       I: conv2d_44_0_conversion_output     (1,8,8,5) (126)      
                                                                      O: nl_49_output                      (1,8,8,5) (127)      
------ -------------------------- ---- ------------ --------- ------- ------------------------------------ -------------------- 
61     nl_49_0_conversion         49   converter    640       0       I: nl_49_output                      (1,8,8,5) (127)      
                                                                      O: nl_49_0_conversion_output         (1,8,8,5) (129)      
------ -------------------------- ---- ------------ --------- ------- ------------------------------------ -------------------- 
62     conv2d_41                  42   conv2d       14019     228     I: conv2d_40_output                  (1,8,8,72) (123)     
                                                                      S: conv2d_41_scratch0                                     
                                                                      S: conv2d_41_scratch1                                     
                                                                      W: conv2d_68_weights                 (72,3,1,1) (28)      
                                                                      W: conv2d_41_bias                    (1,1,1,3) (43)       
                                                                      O: conv2d_41_output                  (1,8,8,3) (130)      
------ -------------------------- ---- ------------ --------- ------- ------------------------------------ -------------------- 
63     conv2d_28                  28   conv2d       115272    2088    I: pad_27_output                     (1,12,12,72) (118)   
                                                                      S: conv2d_28_scratch0                                     
                                                                      W: conv2d_28_weights                 (72,1,5,5) (46)      
                                                                      W: conv2d_28_bias                    (1,1,1,72) (49)      
                                                                      O: conv2d_28_output                  (1,8,8,72) (132)     
------ -------------------------- ---- ------------ --------- ------- ------------------------------------ -------------------- 
64     conv2d_29                  29   conv2d       331848    5472    I: conv2d_28_output                  (1,8,8,72) (132)     
                                                                      S: conv2d_29_scratch0                                     
                                                                      W: conv2d_29_weights                 (72,72,1,1) (52)     
                                                                      W: conv2d_29_bias                    (1,1,1,72) (55)      
                                                                      O: conv2d_29_output                  (1,8,8,72) (133)     
------ -------------------------- ---- ------------ --------- ------- ------------------------------------ -------------------- 
65     conv2d_31                  30   conv2d       115272    2088    I: conv2d_29_output                  (1,8,8,72) (133)     
                                                                      S: conv2d_31_scratch0                                     
                                                                      W: conv2d_31_weights                 (72,1,5,5) (58)      
                                                                      W: conv2d_31_bias                    (1,1,1,72) (61)      
                                                                      O: conv2d_31_output                  (1,8,8,72) (134)     
------ -------------------------- ---- ------------ --------- ------- ------------------------------------ -------------------- 
66     conv2d_32                  32   conv2d       331848    5472    I: conv2d_31_output                  (1,8,8,72) (134)     
                                                                      S: conv2d_32_scratch0                                     
                                                                      W: conv2d_32_weights                 (72,72,1,1) (64)     
                                                                      W: conv2d_32_bias                    (1,1,1,72) (67)      
                                                                      O: conv2d_32_output                  (1,8,8,72) (136)     
------ -------------------------- ---- ------------ --------- ------- ------------------------------------ -------------------- 
67     conv2d_33                  34   conv2d       56076     912     I: conv2d_32_output                  (1,8,8,72) (136)     
                                                                      S: conv2d_33_scratch0                                     
                                                                      S: conv2d_33_scratch1                                     
                                                                      W: conv2d_87_weights                 (72,12,1,1) (16)     
                                                                      W: conv2d_33_bias                    (1,1,1,12) (72)      
                                                                      O: conv2d_33_output                  (1,8,8,12) (137)     
------ -------------------------- ---- ------------ --------- ------- ------------------------------------ -------------------- 
68     concat_55                  55   concat       0         0       I: conv2d_33_output                  (1,8,8,12) (137)     
                                                                      I: conv2d_41_output                  (1,8,8,3) (130)      
                                                                      I: nl_49_0_conversion_output         (1,8,8,5) (129)      
                                                                      O: concat_55_output                  (1,8,8,20) (139)     
------ -------------------------- ---- ------------ --------- ------- ------------------------------------ -------------------- 
69     transpose_56               56   transpose    0         0       I: concat_55_output                  (1,8,8,20) (139)     
                                                                      O: transpose_56_output               (1,20,8,8) (140)     
------ -------------------------- ---- ------------ --------- ------- ------------------------------------ -------------------- 
70     transpose_58               58   transpose    0         0       I: transpose_56_output0              (1,20,1,64) (140)    
                                                                      O: transpose_58_output               (1,64,1,20) (141)    
------ -------------------------- ---- ------------ --------- ------- ------------------------------------ -------------------- 
71     concat_94                  94   concat       0         0       I: transpose_93_output               (1,256,1,20) (115)   
                                                                      I: transpose_58_output               (1,64,1,20) (141)    
                                                                      O: concat_94_output                  (1,320,1,20) (143)   
------ -------------------------- ---- ------------ --------- ------- ------------------------------------ -------------------- 
72     conversion_95              95   converter    12800     0       I: concat_94_output                  (1,320,1,20) (143)   
                                                                      O: conversion_95_output              (1,320,1,20) (145)   
------ -------------------------- ---- ------------ --------- ------- ------------------------------------ -------------------- 



Number of operations per c-layer
------- ------ -------------------------------------- ------------ -------------- --------- ---------- 
c_id    m_id   name (type)                                     #op           type    #param   sparsity 
------- ------ -------------------------------------- ------------ -------------- --------- ---------- 
0       0      conv2d_3_pad_before (pad)                         0     smul_s8_s8           
1       3      conv2d_3 (conv2d)                            55,392     smul_s8_s8       960     0.0031 
2       4      conv2d_4 (conv2d)                           589,920     smul_s8_s8     9,312     0.0081 
3       1      conv2d_1 (conv2d)                         2,359,392     smul_s8_s8     9,312     0.0090 
4       2      conv2d_5_pad_before (pad)                         0     smul_s8_s8           
5       5      conv2d_5 (conv2d)                            55,392     smul_s8_s8       960     0.0052 
6       6      conv2d_6 (conv2d)                           589,920     smul_s8_s8     9,312     0.0086 
7       7      concat_7 (concat)                                 0       op_s8_s8           
8       9      gather_9 (gather)                                 0    smul_s8_s32        96     0.0000 
9       10     conv2d_10 (conv2d)                          589,920     smul_s8_s8     9,312     0.0078 
10      11     conv2d_11_pad_before (pad)                        0     smul_s8_s8           
11      11     conv2d_11 (conv2d)                           55,392     smul_s8_s8       960     0.0042 
12      12     conv2d_12 (conv2d)                          589,920     smul_s8_s8     9,312     0.0079 
13      8      gather_8 (gather)                                 0    smul_s8_s32        96     0.0104 
14      13     concat_13 (concat)                                0       op_s8_s8           
15      15     gather_15 (gather)                                0    smul_s8_s32        96     0.0000 
16      16     conv2d_16 (conv2d)                          589,920     smul_s8_s8     9,312     0.0092 
17      17     conv2d_17_pad_before (pad)                        0     smul_s8_s8           
18      17     conv2d_17 (conv2d)                           55,392     smul_s8_s8       960     0.0042 
19      18     conv2d_18 (conv2d)                          589,920     smul_s8_s8     9,312     0.0093 
20      14     gather_14 (gather)                                0    smul_s8_s32        96     0.0104 
21      19     concat_19 (concat)                                0       op_s8_s8           
22      21     gather_21 (gather)                                0    smul_s8_s32        96     0.0000 
23      22     conv2d_22 (conv2d)                          589,920     smul_s8_s8     9,312     0.0089 
24      23     conv2d_23_pad_before (pad)                        0     smul_s8_s8           
25      23     conv2d_23 (conv2d)                           55,392     smul_s8_s8       960     0.0062 
26      24     conv2d_24 (conv2d)                          589,920     smul_s8_s8     9,312     0.0100 
27      20     gather_20 (gather)                                0    smul_s8_s32        96     0.0104 
28      25     concat_25 (concat)                                0       op_s8_s8           
29      25     concat_25_0_conversion (converter)           24,576    smul_s8_f32           
30      59     upsample_59 (upsample)                            0   smul_f32_f32           
31      59     upsample_59_0_conversion (converter)         98,304    smul_f32_s8           
32      60     concat_60 (concat)                                0       op_s8_s8           
33      61     conv2d_61 (conv2d)                        5,308,488     smul_s8_s8    20,808     0.0112 
34      62     pad_62 (pad)                                      0     smul_s8_s8           
35      82     conv2d_82 (conv2d)                          460,872     smul_s8_s8     1,872     0.0160 
36      83     conv2d_83 (conv2d)                        1,327,176     smul_s8_s8     5,256     0.0173 
37      84     conv2d_85 (conv2d)                          460,872     smul_s8_s8     1,872     0.0288 
38      86     conv2d_86 (conv2d)                        1,327,176     smul_s8_s8     5,256     0.0105 
39      88     conv2d_87 (conv2d)                          224,268     smul_s8_s8       876     0.0080 
40      63     conv2d_63 (conv2d)                          460,872     smul_s8_s8     1,872     0.0075 
41      64     conv2d_64 (conv2d)                        1,327,176     smul_s8_s8     5,256     0.0112 
42      65     conv2d_66 (conv2d)                          460,872     smul_s8_s8     1,872     0.0085 
43      67     conv2d_67 (conv2d)                        1,327,176     smul_s8_s8     5,256     0.0088 
44      71     conv2d_71 (conv2d)                           92,165     smul_s8_s8       365     0.0192 
45      71     conv2d_71_0_conversion (converter)            2,560    smul_s8_f32           
46      76     nl_76 (nl)                                   19,200     op_f32_f32           
47      76     nl_76_0_conversion (converter)                2,560    smul_f32_s8           
48      69     conv2d_68 (conv2d)                           56,067     smul_s8_s8       219     0.0183 
49      90     concat_90 (concat)                                0       op_s8_s8           
50      91     transpose_91 (transpose)                          0     smul_s8_s8           
51      93     transpose_93 (transpose)                          0     smul_s8_s8           
52      26     conv2d_26 (conv2d)                          884,808     smul_s8_s8    13,896     0.0135 
53      27     pad_27 (pad)                                      0     smul_s8_s8           
54      36     conv2d_36 (conv2d)                          115,272     smul_s8_s8     1,872     0.0069 
55      37     conv2d_37 (conv2d)                          331,848     smul_s8_s8     5,256     0.0124 
56      38     conv2d_39 (conv2d)                          115,272     smul_s8_s8     1,872     0.0027 
57      40     conv2d_40 (conv2d)                          331,848     smul_s8_s8     5,256     0.0080 
58      44     conv2d_44 (conv2d)                           23,045     smul_s8_s8       365     0.0192 
59      44     conv2d_44_0_conversion (converter)              640    smul_s8_f32           
60      49     nl_49 (nl)                                    4,800     op_f32_f32           
61      49     nl_49_0_conversion (converter)                  640    smul_f32_s8           
62      42     conv2d_41 (conv2d)                           14,019     smul_s8_s8       219     0.0183 
63      28     conv2d_28 (conv2d)                          115,272     smul_s8_s8     1,872     0.0166 
64      29     conv2d_29 (conv2d)                          331,848     smul_s8_s8     5,256     0.0245 
65      30     conv2d_31 (conv2d)                          115,272     smul_s8_s8     1,872     0.0406 
66      32     conv2d_32 (conv2d)                          331,848     smul_s8_s8     5,256     0.0108 
67      34     conv2d_33 (conv2d)                           56,076     smul_s8_s8       876     0.0080 
68      55     concat_55 (concat)                                0       op_s8_s8           
69      56     transpose_56 (transpose)                          0     smul_s8_s8           
70      58     transpose_58 (transpose)                          0     smul_s8_s8           
71      94     concat_94 (concat)                                0       op_s8_s8           
72      95     conversion_95 (converter)                    12,800    smul_s8_f32           
------- ------ -------------------------------------- ------------ -------------- --------- ---------- 
total                                                   23,121,400                  183,832     0.0109 

Number of operation types
---------------- ------------ ----------- 
operation type              #           % 
---------------- ------------ ----------- 
smul_s8_s8         22,955,320       99.3% 
op_s8_s8                    0        0.0% 
smul_s8_s32                 0        0.0% 
smul_s8_f32            40,576        0.2% 
smul_f32_f32                0        0.0% 
smul_f32_s8           101,504        0.4% 
op_f32_f32             24,000        0.1% 

Complexity report (model)
------ -------------------------- ------------------------- ------------------------- ---------- 
m_id   name                       c_macc                    c_rom                     c_id       
------ -------------------------- ------------------------- ------------------------- ---------- 
0      serving_default_input_20   |                  0.0%   |                  0.0%   [0]        
1      conv2d_1                   |||||||           10.2%   |||||||            5.0%   [3]        
2      pad_2                      |                  0.0%   |                  0.0%   [4]        
3      conv2d_3                   |                  0.2%   |                  0.7%   [1]        
4      conv2d_4                   ||                 2.6%   |||||||            5.0%   [2]        
5      conv2d_5                   |                  0.2%   |                  0.7%   [5]        
6      conv2d_6                   ||                 2.6%   |||||||            5.0%   [6]        
7      concat_7                   |                  0.0%   |                  0.0%   [7]        
8      gather_8                   |                  0.0%   |                  0.2%   [13]       
9      gather_9                   |                  0.0%   |                  0.2%   [8]        
10     conv2d_10                  ||                 2.6%   |||||||            5.0%   [9]        
11     conv2d_11                  |                  0.2%   |                  0.7%   [10, 11]   
12     conv2d_12                  ||                 2.6%   |||||||            5.0%   [12]       
13     concat_13                  |                  0.0%   |                  0.0%   [14]       
14     gather_14                  |                  0.0%   |                  0.2%   [20]       
15     gather_15                  |                  0.0%   |                  0.2%   [15]       
16     conv2d_16                  ||                 2.6%   |||||||            5.0%   [16]       
17     conv2d_17                  |                  0.2%   |                  0.7%   [17, 18]   
18     conv2d_18                  ||                 2.6%   |||||||            5.0%   [19]       
19     concat_19                  |                  0.0%   |                  0.0%   [21]       
20     gather_20                  |                  0.0%   |                  0.2%   [27]       
21     gather_21                  |                  0.0%   |                  0.2%   [22]       
22     conv2d_22                  ||                 2.6%   |||||||            5.0%   [23]       
23     conv2d_23                  |                  0.2%   |                  0.7%   [24, 25]   
24     conv2d_24                  ||                 2.6%   |||||||            5.0%   [26]       
25     concat_25                  |                  0.1%   |                  0.0%   [28, 29]   
26     conv2d_26                  |||                3.8%   |||||||||||        7.4%   [52]       
27     pad_27                     |                  0.0%   |                  0.0%   [53]       
28     conv2d_28                  |                  0.5%   ||                 1.1%   [63]       
29     conv2d_29                  |                  1.4%   ||||               2.9%   [64]       
30     pad_30                     |                  0.5%   ||                 1.1%   [65]       
32     conv2d_32                  |                  1.4%   ||||               2.9%   [66]       
34     nl_34                      |                  0.2%   |                  0.5%   [67]       
36     conv2d_36                  |                  0.5%   ||                 1.1%   [54]       
37     conv2d_37                  |                  1.4%   ||||               2.9%   [55]       
38     pad_38                     |                  0.5%   ||                 1.1%   [56]       
40     conv2d_40                  |                  1.4%   ||||               2.9%   [57]       
42     nl_42                      |                  0.1%   |                  0.1%   [62]       
44     conv2d_44                  |                  0.1%   |                  0.2%   [58, 59]   
49     nl_49                      |                  0.0%   |                  0.0%   [60, 61]   
55     concat_55                  |                  0.0%   |                  0.0%   [68]       
56     transpose_56               |                  0.0%   |                  0.0%   [69]       
58     transpose_58               |                  0.0%   |                  0.0%   [70]       
59     upsample_59                |                  0.4%   |                  0.0%   [30, 31]   
60     concat_60                  |                  0.0%   |                  0.0%   [32]       
61     conv2d_61                  ||||||||||||||||  23.0%   ||||||||||||||||  11.0%   [33]       
62     pad_62                     |                  0.0%   |                  0.0%   [34]       
63     conv2d_63                  ||                 2.0%   ||                 1.1%   [40]       
64     conv2d_64                  ||||               5.7%   ||||               2.9%   [41]       
65     pad_65                     ||                 2.0%   ||                 1.1%   [42]       
67     conv2d_67                  ||||               5.7%   ||||               2.9%   [43]       
69     nl_69                      |                  0.2%   |                  0.1%   [48]       
71     conv2d_71                  |                  0.4%   |                  0.2%   [44, 45]   
76     nl_76                      |                  0.1%   |                  0.0%   [46, 47]   
82     conv2d_82                  ||                 2.0%   ||                 1.1%   [35]       
83     conv2d_83                  ||||               5.7%   ||||               2.9%   [36]       
84     pad_84                     ||                 2.0%   ||                 1.1%   [37]       
86     conv2d_86                  ||||               5.7%   ||||               2.9%   [38]       
88     nl_88                      |                  1.0%   |                  0.5%   [39]       
90     concat_90                  |                  0.0%   |                  0.0%   [49]       
91     transpose_91               |                  0.0%   |                  0.0%   [50]       
93     transpose_93               |                  0.0%   |                  0.0%   [51]       
94     concat_94                  |                  0.0%   |                  0.0%   [71]       
95     conversion_95              |                  0.1%   |                  0.0%   [72]       
------ -------------------------- ------------------------- ------------------------- ---------- 
macc=23,121,400 weights=190,624 act=282,624 ram_io=0

Generated files (7)
---------------------------------------------------------------------- 
C:\Users\kyuliea\.stm32cubemx\network_output\network_2_config.h        
C:\Users\kyuliea\.stm32cubemx\network_output\network_2.h               
C:\Users\kyuliea\.stm32cubemx\network_output\network_2.c               
C:\Users\kyuliea\.stm32cubemx\network_output\network_2_data_params.h   
C:\Users\kyuliea\.stm32cubemx\network_output\network_2_data_params.c   
C:\Users\kyuliea\.stm32cubemx\network_output\network_2_data.h          
C:\Users\kyuliea\.stm32cubemx\network_output\network_2_data.c          
