Neural Network Tools for STM32AI v1.7.0 (STM.ai v8.0.1-19451)
Created date          : 2024-02-21 00:30:48
Parameters            : generate --name network_1 -m F:/MyWork/PyWork/gd32ai-modelzoo/object_detection/yolo_fastestv2/results/export/coco_sp_0000/tflite/model_front.tflite --type tflite --compression none --verbosity 1 --workspace C:\Users\kyuliea\AppData\Local\Temp\mxAI_workspace26010344214930014712813173363666612 --output C:\Users\kyuliea\.stm32cubemx\network_output --allocate-inputs --series stm32h7 --allocate-outputs

Exec/report summary (generate)
------------------------------------------------------------------------------------------------------------------------------------------------
model file         :   F:\MyWork\PyWork\gd32ai-modelzoo\object_detection\yolo_fastestv2\results\export\coco_sp_0000\tflite\model_front.tflite   
type               :   tflite                                                                                                                   
c_name             :   network_1                                                                                                                
compression        :   none                                                                                                                     
options            :   allocate-inputs, allocate-outputs                                                                                        
optimization       :   balanced                                                                                                                 
target/series      :   stm32h7                                                                                                                  
workspace dir      :   C:\Users\kyuliea\AppData\Local\Temp\mxAI_workspace26010344214930014712813173363666612                                    
output dir         :   C:\Users\kyuliea\.stm32cubemx\network_output                                                                             
model_fmt          :   ss/sa per-channel                                                                                                        
model_name         :   model_front                                                                                                              
model_hash         :   b99708db3fd564a999ac2ce9a08ca188                                                                                         
params #           :   52,392 items (58.27 KiB)                                                                                                 
------------------------------------------------------------------------------------------------------------------------------------------------
input 1/1          :   'serving_default_input_10' (domain:activations/**default**)                                                              
                   :   27648 items, 27.00 KiB, ai_u8, s=0.00392157, zp=0, (1,96,96,3)                                                           
output 1/1         :   'concat_80' (domain:activations/**default**)                                                                             
                   :   3456 items, 3.38 KiB, ai_i8, s=0.00872613, zp=-128, (1,6,6,96)                                                           
macc               :   4,624,008                                                                                                                
weights (ro)       :   56,976 B (55.64 KiB) (1 segment) / -152,592(-72.8%) vs float model                                                       
activations (rw)   :   63,516 B (62.03 KiB) (1 segment) *                                                                                       
ram (total)        :   63,516 B (62.03 KiB) = 63,516 + 0 + 0                                                                                    
------------------------------------------------------------------------------------------------------------------------------------------------
(*) 'input'/'output' buffers can be used from the activations buffer

Model name - model_front ['serving_default_input_10'] ['concat_80']
------ --------------------------------------- ---------------------- ------------- ----------- -------------------------- --- --------------- --------------------- ---------------------------- 
m_id   layer (type,original)                   oshape                 param/size           macc               connected to   | c_size          c_macc                c_type                       
------ --------------------------------------- ---------------------- ------------- ----------- -------------------------- --- --------------- --------------------- ---------------------------- 
0      serving_default_input_10 (Input, )      [b:1,h:96,w:96,c:3]                                                           |                 +55,296(+100.0%)      converter_oi8[0]             
       conversion_0 (Conversion, QUANTIZE)     [b:1,h:96,w:96,c:3]                       55,296   serving_default_input_10   |                 -55,296(-100.0%)      
------ --------------------------------------- ---------------------- ------------- ----------- -------------------------- --- --------------- --------------------- ---------------------------- 
1      pad_1 (Pad, PAD)                        [b:1,h:98,w:98,c:3]                                            conversion_0   | +744(+100.0%)   +1,493,016(+100.0%)   optimized_conv2d_oi8[1]      
------ --------------------------------------- ---------------------- ------------- ----------- -------------------------- --- --------------- --------------------- ---------------------------- 
2      conv2d_2 (Conv2D, CONV_2D)              [b:1,h:48,w:48,c:24]   672/744         1,493,016                      pad_1   | -744(-100.0%)   -1,493,016(-100.0%)   
       nl_2_nl (Nonlinearity, CONV_2D)         [b:1,h:48,w:48,c:24]                      55,296                   conv2d_2   |                 -55,296(-100.0%)      
------ --------------------------------------- ---------------------- ------------- ----------- -------------------------- --- --------------- --------------------- ---------------------------- 
3      pad_3 (Pad, PAD)                        [b:1,h:50,w:50,c:24]                                                nl_2_nl   |                                       pad_oi8[2]                   
------ --------------------------------------- ---------------------- ------------- ----------- -------------------------- --- --------------- --------------------- ---------------------------- 
4      pool_4 (Pool, MAX_POOL_2D)              [b:1,h:24,w:24,c:24]                     124,416                      pad_3   |                                       pool_oi8[3]                  
------ --------------------------------------- ---------------------- ------------- ----------- -------------------------- --- --------------- --------------------- ---------------------------- 
5      conv2d_5 (Conv2D, CONV_2D)              [b:1,h:24,w:24,c:24]   600/672           331,800                     pool_4   |                                       conv2d_oi8[7]                
       nl_5_nl (Nonlinearity, CONV_2D)         [b:1,h:24,w:24,c:24]                      13,824                   conv2d_5   |                 -13,824(-100.0%)      
------ --------------------------------------- ---------------------- ------------- ----------- -------------------------- --- --------------- --------------------- ---------------------------- 
6      pad_6 (Pad, PAD)                        [b:1,h:26,w:26,c:24]                                                nl_5_nl   |                                       pad_oi8[8]                   
------ --------------------------------------- ---------------------- ------------- ----------- -------------------------- --- --------------- --------------------- ---------------------------- 
7      pad_7 (Pad, PAD)                        [b:1,h:26,w:26,c:24]                                                 pool_4   |                                       pad_oi8[4]                   
------ --------------------------------------- ---------------------- ------------- ----------- -------------------------- --- --------------- --------------------- ---------------------------- 
8      conv2d_8 (Conv2D, DEPTHWISE_CONV_2D)    [b:1,h:12,w:12,c:24]   240/312            31,128                      pad_6   |                                       conv2d_oi8[9]                
------ --------------------------------------- ---------------------- ------------- ----------- -------------------------- --- --------------- --------------------- ---------------------------- 
9      conv2d_9 (Conv2D, CONV_2D)              [b:1,h:12,w:12,c:24]   600/672            82,968                   conv2d_8   |                                       conv2d_oi8[10]               
       nl_9_nl (Nonlinearity, CONV_2D)         [b:1,h:12,w:12,c:24]                       3,456                   conv2d_9   |                 -3,456(-100.0%)       
------ --------------------------------------- ---------------------- ------------- ----------- -------------------------- --- --------------- --------------------- ---------------------------- 
10     conv2d_10 (Conv2D, DEPTHWISE_CONV_2D)   [b:1,h:12,w:12,c:24]   240/312            31,128                      pad_7   |                                       conv2d_oi8[5]                
------ --------------------------------------- ---------------------- ------------- ----------- -------------------------- --- --------------- --------------------- ---------------------------- 
11     conv2d_11 (Conv2D, CONV_2D)             [b:1,h:12,w:12,c:24]   600/672            82,968                  conv2d_10   |                                       conv2d_oi8[6]                
       nl_11_nl (Nonlinearity, CONV_2D)        [b:1,h:12,w:12,c:24]                       3,456                  conv2d_11   |                 -3,456(-100.0%)       
------ --------------------------------------- ---------------------- ------------- ----------- -------------------------- --- --------------- --------------------- ---------------------------- 
12     concat_12 (Concat, CONCATENATION)       [b:1,h:12,w:12,c:48]                                               nl_11_nl   |                                       concat_oi8[11]               
                                                                                                                   nl_9_nl   | 
------ --------------------------------------- ---------------------- ------------- ----------- -------------------------- --- --------------- --------------------- ---------------------------- 
13     gather_13 (Gather, GATHER)              [b:1,h:12,w:12,c:24]   24/96                                      concat_12   |                                       gather_oi8[13]               
------ --------------------------------------- ---------------------- ------------- ----------- -------------------------- --- --------------- --------------------- ---------------------------- 
14     conv2d_14 (Conv2D, CONV_2D)             [b:1,h:12,w:12,c:24]   600/672            82,968                  gather_13   |                                       conv2d_oi8[14]               
       nl_14_nl (Nonlinearity, CONV_2D)        [b:1,h:12,w:12,c:24]                       3,456                  conv2d_14   |                 -3,456(-100.0%)       
------ --------------------------------------- ---------------------- ------------- ----------- -------------------------- --- --------------- --------------------- ---------------------------- 
15     conv2d_15 (Conv2D, DEPTHWISE_CONV_2D)   [b:1,h:12,w:12,c:24]   240/312            31,128                   nl_14_nl   |                                       pad_oi8/conv2d_oi8[15, 16]   
------ --------------------------------------- ---------------------- ------------- ----------- -------------------------- --- --------------- --------------------- ---------------------------- 
16     conv2d_16 (Conv2D, CONV_2D)             [b:1,h:12,w:12,c:24]   600/672            82,968                  conv2d_15   |                                       conv2d_oi8[17]               
       nl_16_nl (Nonlinearity, CONV_2D)        [b:1,h:12,w:12,c:24]                       3,456                  conv2d_16   |                 -3,456(-100.0%)       
------ --------------------------------------- ---------------------- ------------- ----------- -------------------------- --- --------------- --------------------- ---------------------------- 
17     gather_17 (Gather, GATHER)              [b:1,h:12,w:12,c:24]   24/96                                      concat_12   |                                       gather_oi8[12]               
------ --------------------------------------- ---------------------- ------------- ----------- -------------------------- --- --------------- --------------------- ---------------------------- 
18     concat_18 (Concat, CONCATENATION)       [b:1,h:12,w:12,c:48]                                              gather_17   |                                       concat_oi8[18]               
                                                                                                                  nl_16_nl   | 
------ --------------------------------------- ---------------------- ------------- ----------- -------------------------- --- --------------- --------------------- ---------------------------- 
19     gather_19 (Gather, GATHER)              [b:1,h:12,w:12,c:24]   24/96                                      concat_18   |                                       gather_oi8[24]               
------ --------------------------------------- ---------------------- ------------- ----------- -------------------------- --- --------------- --------------------- ---------------------------- 
20     gather_20 (Gather, GATHER)              [b:1,h:12,w:12,c:24]   24/96                                      concat_18   |                                       gather_oi8[19]               
------ --------------------------------------- ---------------------- ------------- ----------- -------------------------- --- --------------- --------------------- ---------------------------- 
21     conv2d_21 (Conv2D, CONV_2D)             [b:1,h:12,w:12,c:24]   600/672            82,968                  gather_20   |                                       conv2d_oi8[20]               
       nl_21_nl (Nonlinearity, CONV_2D)        [b:1,h:12,w:12,c:24]                       3,456                  conv2d_21   |                 -3,456(-100.0%)       
------ --------------------------------------- ---------------------- ------------- ----------- -------------------------- --- --------------- --------------------- ---------------------------- 
22     conv2d_22 (Conv2D, DEPTHWISE_CONV_2D)   [b:1,h:12,w:12,c:24]   240/312            31,128                   nl_21_nl   |                                       pad_oi8/conv2d_oi8[21, 22]   
------ --------------------------------------- ---------------------- ------------- ----------- -------------------------- --- --------------- --------------------- ---------------------------- 
23     conv2d_23 (Conv2D, CONV_2D)             [b:1,h:12,w:12,c:24]   600/672            82,968                  conv2d_22   |                                       conv2d_oi8[23]               
       nl_23_nl (Nonlinearity, CONV_2D)        [b:1,h:12,w:12,c:24]                       3,456                  conv2d_23   |                 -3,456(-100.0%)       
------ --------------------------------------- ---------------------- ------------- ----------- -------------------------- --- --------------- --------------------- ---------------------------- 
24     concat_24 (Concat, CONCATENATION)       [b:1,h:12,w:12,c:48]                                              gather_19   |                                       concat_oi8[25]               
                                                                                                                  nl_23_nl   | 
------ --------------------------------------- ---------------------- ------------- ----------- -------------------------- --- --------------- --------------------- ---------------------------- 
25     gather_25 (Gather, GATHER)              [b:1,h:12,w:12,c:24]   24/96                                      concat_24   |                                       gather_oi8[31]               
------ --------------------------------------- ---------------------- ------------- ----------- -------------------------- --- --------------- --------------------- ---------------------------- 
26     gather_26 (Gather, GATHER)              [b:1,h:12,w:12,c:24]   24/96                                      concat_24   |                                       gather_oi8[26]               
------ --------------------------------------- ---------------------- ------------- ----------- -------------------------- --- --------------- --------------------- ---------------------------- 
27     conv2d_27 (Conv2D, CONV_2D)             [b:1,h:12,w:12,c:24]   600/672            82,968                  gather_26   |                                       conv2d_oi8[27]               
       nl_27_nl (Nonlinearity, CONV_2D)        [b:1,h:12,w:12,c:24]                       3,456                  conv2d_27   |                 -3,456(-100.0%)       
------ --------------------------------------- ---------------------- ------------- ----------- -------------------------- --- --------------- --------------------- ---------------------------- 
28     conv2d_28 (Conv2D, DEPTHWISE_CONV_2D)   [b:1,h:12,w:12,c:24]   240/312            31,128                   nl_27_nl   |                                       pad_oi8/conv2d_oi8[28, 29]   
------ --------------------------------------- ---------------------- ------------- ----------- -------------------------- --- --------------- --------------------- ---------------------------- 
29     conv2d_29 (Conv2D, CONV_2D)             [b:1,h:12,w:12,c:24]   600/672            82,968                  conv2d_28   |                                       conv2d_oi8[30]               
       nl_29_nl (Nonlinearity, CONV_2D)        [b:1,h:12,w:12,c:24]                       3,456                  conv2d_29   |                 -3,456(-100.0%)       
------ --------------------------------------- ---------------------- ------------- ----------- -------------------------- --- --------------- --------------------- ---------------------------- 
30     concat_30 (Concat, CONCATENATION)       [b:1,h:12,w:12,c:48]                                              gather_25   |                                       concat_oi8[32]               
                                                                                                                  nl_29_nl   | 
------ --------------------------------------- ---------------------- ------------- ----------- -------------------------- --- --------------- --------------------- ---------------------------- 
31     conv2d_31 (Conv2D, CONV_2D)             [b:1,h:12,w:12,c:48]   2,352/2,496       331,824                  concat_30   |                                       conv2d_oi8[36]               
       nl_31_nl (Nonlinearity, CONV_2D)        [b:1,h:12,w:12,c:48]                       6,912                  conv2d_31   |                 -6,912(-100.0%)       
------ --------------------------------------- ---------------------- ------------- ----------- -------------------------- --- --------------- --------------------- ---------------------------- 
32     pad_32 (Pad, PAD)                       [b:1,h:14,w:14,c:48]                                               nl_31_nl   |                                       pad_oi8[37]                  
------ --------------------------------------- ---------------------- ------------- ----------- -------------------------- --- --------------- --------------------- ---------------------------- 
33     conv2d_33 (Conv2D, DEPTHWISE_CONV_2D)   [b:1,h:6,w:6,c:48]     480/624            15,600                     pad_32   |                                       conv2d_oi8[38]               
------ --------------------------------------- ---------------------- ------------- ----------- -------------------------- --- --------------- --------------------- ---------------------------- 
34     conv2d_34 (Conv2D, CONV_2D)             [b:1,h:6,w:6,c:48]     2,352/2,496        82,992                  conv2d_33   |                                       conv2d_oi8[39]               
       nl_34_nl (Nonlinearity, CONV_2D)        [b:1,h:6,w:6,c:48]                         1,728                  conv2d_34   |                 -1,728(-100.0%)       
------ --------------------------------------- ---------------------- ------------- ----------- -------------------------- --- --------------- --------------------- ---------------------------- 
35     pad_35 (Pad, PAD)                       [b:1,h:14,w:14,c:48]                                              concat_30   |                                       pad_oi8[33]                  
------ --------------------------------------- ---------------------- ------------- ----------- -------------------------- --- --------------- --------------------- ---------------------------- 
36     conv2d_36 (Conv2D, DEPTHWISE_CONV_2D)   [b:1,h:6,w:6,c:48]     480/624            15,600                     pad_35   |                                       conv2d_oi8[34]               
------ --------------------------------------- ---------------------- ------------- ----------- -------------------------- --- --------------- --------------------- ---------------------------- 
37     conv2d_37 (Conv2D, CONV_2D)             [b:1,h:6,w:6,c:48]     2,352/2,496        82,992                  conv2d_36   |                                       conv2d_oi8[35]               
       nl_37_nl (Nonlinearity, CONV_2D)        [b:1,h:6,w:6,c:48]                         1,728                  conv2d_37   |                 -1,728(-100.0%)       
------ --------------------------------------- ---------------------- ------------- ----------- -------------------------- --- --------------- --------------------- ---------------------------- 
38     concat_38 (Concat, CONCATENATION)       [b:1,h:6,w:6,c:96]                                                 nl_37_nl   |                                       concat_oi8[40]               
                                                                                                                  nl_34_nl   | 
------ --------------------------------------- ---------------------- ------------- ----------- -------------------------- --- --------------- --------------------- ---------------------------- 
39     gather_39 (Gather, GATHER)              [b:1,h:6,w:6,c:48]     48/192                                     concat_38   |                                       gather_oi8[46]               
------ --------------------------------------- ---------------------- ------------- ----------- -------------------------- --- --------------- --------------------- ---------------------------- 
40     gather_40 (Gather, GATHER)              [b:1,h:6,w:6,c:48]     48/192                                     concat_38   |                                       gather_oi8[41]               
------ --------------------------------------- ---------------------- ------------- ----------- -------------------------- --- --------------- --------------------- ---------------------------- 
41     conv2d_41 (Conv2D, CONV_2D)             [b:1,h:6,w:6,c:48]     2,352/2,496        82,992                  gather_40   |                                       conv2d_oi8[42]               
       nl_41_nl (Nonlinearity, CONV_2D)        [b:1,h:6,w:6,c:48]                         1,728                  conv2d_41   |                 -1,728(-100.0%)       
------ --------------------------------------- ---------------------- ------------- ----------- -------------------------- --- --------------- --------------------- ---------------------------- 
42     conv2d_42 (Conv2D, DEPTHWISE_CONV_2D)   [b:1,h:6,w:6,c:48]     480/624            15,600                   nl_41_nl   |                                       pad_oi8/conv2d_oi8[43, 44]   
------ --------------------------------------- ---------------------- ------------- ----------- -------------------------- --- --------------- --------------------- ---------------------------- 
43     conv2d_43 (Conv2D, CONV_2D)             [b:1,h:6,w:6,c:48]     2,352/2,496        82,992                  conv2d_42   |                                       conv2d_oi8[45]               
       nl_43_nl (Nonlinearity, CONV_2D)        [b:1,h:6,w:6,c:48]                         1,728                  conv2d_43   |                 -1,728(-100.0%)       
------ --------------------------------------- ---------------------- ------------- ----------- -------------------------- --- --------------- --------------------- ---------------------------- 
44     concat_44 (Concat, CONCATENATION)       [b:1,h:6,w:6,c:96]                                                gather_39   |                                       concat_oi8[47]               
                                                                                                                  nl_43_nl   | 
------ --------------------------------------- ---------------------- ------------- ----------- -------------------------- --- --------------- --------------------- ---------------------------- 
45     gather_45 (Gather, GATHER)              [b:1,h:6,w:6,c:48]     48/192                                     concat_44   |                                       gather_oi8[53]               
------ --------------------------------------- ---------------------- ------------- ----------- -------------------------- --- --------------- --------------------- ---------------------------- 
46     gather_46 (Gather, GATHER)              [b:1,h:6,w:6,c:48]     48/192                                     concat_44   |                                       gather_oi8[48]               
------ --------------------------------------- ---------------------- ------------- ----------- -------------------------- --- --------------- --------------------- ---------------------------- 
47     conv2d_47 (Conv2D, CONV_2D)             [b:1,h:6,w:6,c:48]     2,352/2,496        82,992                  gather_46   |                                       conv2d_oi8[49]               
       nl_47_nl (Nonlinearity, CONV_2D)        [b:1,h:6,w:6,c:48]                         1,728                  conv2d_47   |                 -1,728(-100.0%)       
------ --------------------------------------- ---------------------- ------------- ----------- -------------------------- --- --------------- --------------------- ---------------------------- 
48     conv2d_48 (Conv2D, DEPTHWISE_CONV_2D)   [b:1,h:6,w:6,c:48]     480/624            15,600                   nl_47_nl   |                                       pad_oi8/conv2d_oi8[50, 51]   
------ --------------------------------------- ---------------------- ------------- ----------- -------------------------- --- --------------- --------------------- ---------------------------- 
49     conv2d_49 (Conv2D, CONV_2D)             [b:1,h:6,w:6,c:48]     2,352/2,496        82,992                  conv2d_48   |                                       conv2d_oi8[52]               
       nl_49_nl (Nonlinearity, CONV_2D)        [b:1,h:6,w:6,c:48]                         1,728                  conv2d_49   |                 -1,728(-100.0%)       
------ --------------------------------------- ---------------------- ------------- ----------- -------------------------- --- --------------- --------------------- ---------------------------- 
50     concat_50 (Concat, CONCATENATION)       [b:1,h:6,w:6,c:96]                                                gather_45   |                                       concat_oi8[54]               
                                                                                                                  nl_49_nl   | 
------ --------------------------------------- ---------------------- ------------- ----------- -------------------------- --- --------------- --------------------- ---------------------------- 
51     gather_51 (Gather, GATHER)              [b:1,h:6,w:6,c:48]     48/192                                     concat_50   |                                       gather_oi8[60]               
------ --------------------------------------- ---------------------- ------------- ----------- -------------------------- --- --------------- --------------------- ---------------------------- 
52     gather_52 (Gather, GATHER)              [b:1,h:6,w:6,c:48]     48/192                                     concat_50   |                                       gather_oi8[55]               
------ --------------------------------------- ---------------------- ------------- ----------- -------------------------- --- --------------- --------------------- ---------------------------- 
53     conv2d_53 (Conv2D, CONV_2D)             [b:1,h:6,w:6,c:48]     2,352/2,496        82,992                  gather_52   |                                       conv2d_oi8[56]               
       nl_53_nl (Nonlinearity, CONV_2D)        [b:1,h:6,w:6,c:48]                         1,728                  conv2d_53   |                 -1,728(-100.0%)       
------ --------------------------------------- ---------------------- ------------- ----------- -------------------------- --- --------------- --------------------- ---------------------------- 
54     conv2d_54 (Conv2D, DEPTHWISE_CONV_2D)   [b:1,h:6,w:6,c:48]     480/624            15,600                   nl_53_nl   |                                       pad_oi8/conv2d_oi8[57, 58]   
------ --------------------------------------- ---------------------- ------------- ----------- -------------------------- --- --------------- --------------------- ---------------------------- 
55     conv2d_55 (Conv2D, CONV_2D)             [b:1,h:6,w:6,c:48]     2,352/2,496        82,992                  conv2d_54   |                                       conv2d_oi8[59]               
       nl_55_nl (Nonlinearity, CONV_2D)        [b:1,h:6,w:6,c:48]                         1,728                  conv2d_55   |                 -1,728(-100.0%)       
------ --------------------------------------- ---------------------- ------------- ----------- -------------------------- --- --------------- --------------------- ---------------------------- 
56     concat_56 (Concat, CONCATENATION)       [b:1,h:6,w:6,c:96]                                                gather_51   |                                       concat_oi8[61]               
                                                                                                                  nl_55_nl   | 
------ --------------------------------------- ---------------------- ------------- ----------- -------------------------- --- --------------- --------------------- ---------------------------- 
57     gather_57 (Gather, GATHER)              [b:1,h:6,w:6,c:48]     48/192                                     concat_56   |                                       gather_oi8[67]               
------ --------------------------------------- ---------------------- ------------- ----------- -------------------------- --- --------------- --------------------- ---------------------------- 
58     gather_58 (Gather, GATHER)              [b:1,h:6,w:6,c:48]     48/192                                     concat_56   |                                       gather_oi8[62]               
------ --------------------------------------- ---------------------- ------------- ----------- -------------------------- --- --------------- --------------------- ---------------------------- 
59     conv2d_59 (Conv2D, CONV_2D)             [b:1,h:6,w:6,c:48]     2,352/2,496        82,992                  gather_58   |                                       conv2d_oi8[63]               
       nl_59_nl (Nonlinearity, CONV_2D)        [b:1,h:6,w:6,c:48]                         1,728                  conv2d_59   |                 -1,728(-100.0%)       
------ --------------------------------------- ---------------------- ------------- ----------- -------------------------- --- --------------- --------------------- ---------------------------- 
60     conv2d_60 (Conv2D, DEPTHWISE_CONV_2D)   [b:1,h:6,w:6,c:48]     480/624            15,600                   nl_59_nl   |                                       pad_oi8/conv2d_oi8[64, 65]   
------ --------------------------------------- ---------------------- ------------- ----------- -------------------------- --- --------------- --------------------- ---------------------------- 
61     conv2d_61 (Conv2D, CONV_2D)             [b:1,h:6,w:6,c:48]     2,352/2,496        82,992                  conv2d_60   |                                       conv2d_oi8[66]               
       nl_61_nl (Nonlinearity, CONV_2D)        [b:1,h:6,w:6,c:48]                         1,728                  conv2d_61   |                 -1,728(-100.0%)       
------ --------------------------------------- ---------------------- ------------- ----------- -------------------------- --- --------------- --------------------- ---------------------------- 
62     concat_62 (Concat, CONCATENATION)       [b:1,h:6,w:6,c:96]                                                gather_57   |                                       concat_oi8[68]               
                                                                                                                  nl_61_nl   | 
------ --------------------------------------- ---------------------- ------------- ----------- -------------------------- --- --------------- --------------------- ---------------------------- 
63     gather_63 (Gather, GATHER)              [b:1,h:6,w:6,c:48]     48/192                                     concat_62   |                                       gather_oi8[74]               
------ --------------------------------------- ---------------------- ------------- ----------- -------------------------- --- --------------- --------------------- ---------------------------- 
64     gather_64 (Gather, GATHER)              [b:1,h:6,w:6,c:48]     48/192                                     concat_62   |                                       gather_oi8[69]               
------ --------------------------------------- ---------------------- ------------- ----------- -------------------------- --- --------------- --------------------- ---------------------------- 
65     conv2d_65 (Conv2D, CONV_2D)             [b:1,h:6,w:6,c:48]     2,352/2,496        82,992                  gather_64   |                                       conv2d_oi8[70]               
       nl_65_nl (Nonlinearity, CONV_2D)        [b:1,h:6,w:6,c:48]                         1,728                  conv2d_65   |                 -1,728(-100.0%)       
------ --------------------------------------- ---------------------- ------------- ----------- -------------------------- --- --------------- --------------------- ---------------------------- 
66     conv2d_66 (Conv2D, DEPTHWISE_CONV_2D)   [b:1,h:6,w:6,c:48]     480/624            15,600                   nl_65_nl   |                                       pad_oi8/conv2d_oi8[71, 72]   
------ --------------------------------------- ---------------------- ------------- ----------- -------------------------- --- --------------- --------------------- ---------------------------- 
67     conv2d_67 (Conv2D, CONV_2D)             [b:1,h:6,w:6,c:48]     2,352/2,496        82,992                  conv2d_66   |                                       conv2d_oi8[73]               
       nl_67_nl (Nonlinearity, CONV_2D)        [b:1,h:6,w:6,c:48]                         1,728                  conv2d_67   |                 -1,728(-100.0%)       
------ --------------------------------------- ---------------------- ------------- ----------- -------------------------- --- --------------- --------------------- ---------------------------- 
68     concat_68 (Concat, CONCATENATION)       [b:1,h:6,w:6,c:96]                                                gather_63   |                                       concat_oi8[75]               
                                                                                                                  nl_67_nl   | 
------ --------------------------------------- ---------------------- ------------- ----------- -------------------------- --- --------------- --------------------- ---------------------------- 
69     gather_69 (Gather, GATHER)              [b:1,h:6,w:6,c:48]     48/192                                     concat_68   |                                       gather_oi8[81]               
------ --------------------------------------- ---------------------- ------------- ----------- -------------------------- --- --------------- --------------------- ---------------------------- 
70     gather_70 (Gather, GATHER)              [b:1,h:6,w:6,c:48]     48/192                                     concat_68   |                                       gather_oi8[76]               
------ --------------------------------------- ---------------------- ------------- ----------- -------------------------- --- --------------- --------------------- ---------------------------- 
71     conv2d_71 (Conv2D, CONV_2D)             [b:1,h:6,w:6,c:48]     2,352/2,496        82,992                  gather_70   |                                       conv2d_oi8[77]               
       nl_71_nl (Nonlinearity, CONV_2D)        [b:1,h:6,w:6,c:48]                         1,728                  conv2d_71   |                 -1,728(-100.0%)       
------ --------------------------------------- ---------------------- ------------- ----------- -------------------------- --- --------------- --------------------- ---------------------------- 
72     conv2d_72 (Conv2D, DEPTHWISE_CONV_2D)   [b:1,h:6,w:6,c:48]     480/624            15,600                   nl_71_nl   |                                       pad_oi8/conv2d_oi8[78, 79]   
------ --------------------------------------- ---------------------- ------------- ----------- -------------------------- --- --------------- --------------------- ---------------------------- 
73     conv2d_73 (Conv2D, CONV_2D)             [b:1,h:6,w:6,c:48]     2,352/2,496        82,992                  conv2d_72   |                                       conv2d_oi8[80]               
       nl_73_nl (Nonlinearity, CONV_2D)        [b:1,h:6,w:6,c:48]                         1,728                  conv2d_73   |                 -1,728(-100.0%)       
------ --------------------------------------- ---------------------- ------------- ----------- -------------------------- --- --------------- --------------------- ---------------------------- 
74     concat_74 (Concat, CONCATENATION)       [b:1,h:6,w:6,c:96]                                                gather_69   |                                       concat_oi8[82]               
                                                                                                                  nl_73_nl   | 
------ --------------------------------------- ---------------------- ------------- ----------- -------------------------- --- --------------- --------------------- ---------------------------- 
75     gather_75 (Gather, GATHER)              [b:1,h:6,w:6,c:48]     48/192                                     concat_74   |                                       gather_oi8[88]               
------ --------------------------------------- ---------------------- ------------- ----------- -------------------------- --- --------------- --------------------- ---------------------------- 
76     gather_76 (Gather, GATHER)              [b:1,h:6,w:6,c:48]     48/192                                     concat_74   |                                       gather_oi8[83]               
------ --------------------------------------- ---------------------- ------------- ----------- -------------------------- --- --------------- --------------------- ---------------------------- 
77     conv2d_77 (Conv2D, CONV_2D)             [b:1,h:6,w:6,c:48]     2,352/2,496        82,992                  gather_76   |                                       conv2d_oi8[84]               
       nl_77_nl (Nonlinearity, CONV_2D)        [b:1,h:6,w:6,c:48]                         1,728                  conv2d_77   |                 -1,728(-100.0%)       
------ --------------------------------------- ---------------------- ------------- ----------- -------------------------- --- --------------- --------------------- ---------------------------- 
78     conv2d_78 (Conv2D, DEPTHWISE_CONV_2D)   [b:1,h:6,w:6,c:48]     480/624            15,600                   nl_77_nl   |                                       pad_oi8/conv2d_oi8[85, 86]   
------ --------------------------------------- ---------------------- ------------- ----------- -------------------------- --- --------------- --------------------- ---------------------------- 
79     conv2d_79 (Conv2D, CONV_2D)             [b:1,h:6,w:6,c:48]     2,352/2,496        82,992                  conv2d_78   |                                       conv2d_oi8[87]               
       nl_79_nl (Nonlinearity, CONV_2D)        [b:1,h:6,w:6,c:48]                         1,728                  conv2d_79   |                 -1,728(-100.0%)       
------ --------------------------------------- ---------------------- ------------- ----------- -------------------------- --- --------------- --------------------- ---------------------------- 
80     concat_80 (Concat, CONCATENATION)       [b:1,h:6,w:6,c:96]                                                gather_75   |                                       concat_oi8[o][89]            
                                                                                                                  nl_79_nl   | 
------ --------------------------------------- ---------------------- ------------- ----------- -------------------------- --- --------------- --------------------- ---------------------------- 
model/c-model: macc=4,755,336/4,624,008 -131,328(-2.8%) weights=59,664/56,976 -2,688(-4.5%) activations=--/63,516 io=--/0



Generated C-graph summary
------------------------------------------------------------------------------------------------------------------------
model name            : model_front
c-name                : network_1
c-node #              : 90
c-array #             : 218
activations size      : 63516 (1 segment)
weights size          : 56976 (1 segment)
macc                  : 4624008
inputs                : ['serving_default_input_10_output']
outputs               : ['concat_80_output']

C-Arrays (218)
------ --------------------------------- ------------- ------------------------- --------------- ------------- --------- 
c_id   name (*_array)                    item/size     domain/mem-pool           c-type          fmt           comment   
------ --------------------------------- ------------- ------------------------- --------------- ------------- --------- 
0      conv2d_9_bias                     24/96         weights/weights           const int32_t   ss32/ch(24)             
1      conv2d_60_scratch0                1777/1777     activations/**default**   int8_t          s8                      
2      gather_17_indices                 24/96         weights/weights           const int32_t   s32                     
3      gather_13_indices                 24/96         weights/weights           const int32_t   s32                     
4      conv2d_61_scratch0                672/672       activations/**default**   int8_t          s8                      
5      conv2d_14_weights                 576/576       weights/weights           const int8_t    ss8/ch(24)              
6      conv2d_65_scratch0                672/672       activations/**default**   int8_t          s8                      
7      conv2d_14_bias                    24/96         weights/weights           const int32_t   ss32/ch(24)             
8      conv2d_66_scratch0                1777/1777     activations/**default**   int8_t          s8                      
9      conv2d_15_weights                 216/216       weights/weights           const int8_t    ss8/ch(24)              
10     conv2d_67_scratch0                672/672       activations/**default**   int8_t          s8                      
11     conv2d_15_bias                    24/96         weights/weights           const int32_t   ss32/ch(24)             
12     conv2d_16_weights                 576/576       weights/weights           const int8_t    ss8/ch(24)              
13     conv2d_71_scratch0                672/672       activations/**default**   int8_t          s8                      
14     conv2d_16_bias                    24/96         weights/weights           const int32_t   ss32/ch(24)             
15     conv2d_72_scratch0                1777/1777     activations/**default**   int8_t          s8                      
16     conv2d_73_scratch0                672/672       activations/**default**   int8_t          s8                      
17     conv2d_21_weights                 576/576       weights/weights           const int8_t    ss8/ch(24)              
18     conv2d_77_scratch0                672/672       activations/**default**   int8_t          s8                      
19     conv2d_21_bias                    24/96         weights/weights           const int32_t   ss32/ch(24)             
20     conv2d_22_weights                 216/216       weights/weights           const int8_t    ss8/ch(24)              
21     conv2d_78_scratch0                1777/1777     activations/**default**   int8_t          s8                      
22     conv2d_22_bias                    24/96         weights/weights           const int32_t   ss32/ch(24)             
23     conv2d_79_scratch0                672/672       activations/**default**   int8_t          s8                      
24     conv2d_23_weights                 576/576       weights/weights           const int8_t    ss8/ch(24)              
25     conv2d_23_bias                    24/96         weights/weights           const int32_t   ss32/ch(24)             
26     conv2d_27_weights                 576/576       weights/weights           const int8_t    ss8/ch(24)              
27     conv2d_27_bias                    24/96         weights/weights           const int32_t   ss32/ch(24)             
28     conv2d_28_weights                 216/216       weights/weights           const int8_t    ss8/ch(24)              
29     conv2d_28_bias                    24/96         weights/weights           const int32_t   ss32/ch(24)             
30     conv2d_29_weights                 576/576       weights/weights           const int8_t    ss8/ch(24)              
31     conv2d_29_bias                    24/96         weights/weights           const int32_t   ss32/ch(24)             
32     conv2d_36_weights                 432/432       weights/weights           const int8_t    ss8/ch(48)              
33     conv2d_36_bias                    48/192        weights/weights           const int32_t   ss32/ch(48)             
34     conv2d_37_weights                 2304/2304     weights/weights           const int8_t    ss8/ch(48)              
35     conv2d_37_bias                    48/192        weights/weights           const int32_t   ss32/ch(48)             
36     conv2d_31_weights                 2304/2304     weights/weights           const int8_t    ss8/ch(48)              
37     conv2d_31_bias                    48/192        weights/weights           const int32_t   ss32/ch(48)             
38     conv2d_33_weights                 432/432       weights/weights           const int8_t    ss8/ch(48)              
39     conv2d_33_bias                    48/192        weights/weights           const int32_t   ss32/ch(48)             
40     conv2d_34_weights                 2304/2304     weights/weights           const int8_t    ss8/ch(48)              
41     conv2d_34_bias                    48/192        weights/weights           const int32_t   ss32/ch(48)             
42     gather_40_indices                 48/192        weights/weights           const int32_t   s32                     
43     conv2d_41_weights                 2304/2304     weights/weights           const int8_t    ss8/ch(48)              
44     conv2d_41_bias                    48/192        weights/weights           const int32_t   ss32/ch(48)             
45     conv2d_42_weights                 432/432       weights/weights           const int8_t    ss8/ch(48)              
46     conv2d_42_bias                    48/192        weights/weights           const int32_t   ss32/ch(48)             
47     conv2d_43_weights                 2304/2304     weights/weights           const int8_t    ss8/ch(48)              
48     conv2d_43_bias                    48/192        weights/weights           const int32_t   ss32/ch(48)             
49     gather_39_indices                 48/192        weights/weights           const int32_t   s32                     
50     conv2d_47_weights                 2304/2304     weights/weights           const int8_t    ss8/ch(48)              
51     conv2d_47_bias                    48/192        weights/weights           const int32_t   ss32/ch(48)             
52     serving_default_input_10_output   27648/27648   activations/**default**   uint8_t         ua8           /input    
53     conv2d_48_weights                 432/432       weights/weights           const int8_t    ss8/ch(48)              
54     conversion_0_output               27648/27649   activations/**default**   int8_t          sa8                     
55     conv2d_2_output                   55296/55296   activations/**default**   int8_t          sa8                     
56     conv2d_48_bias                    48/192        weights/weights           const int32_t   ss32/ch(48)             
57     pad_3_output                      60000/60000   activations/**default**   int8_t          sa8                     
58     pool_4_output                     13824/13824   activations/**default**   int8_t          sa8                     
59     conv2d_49_weights                 2304/2304     weights/weights           const int8_t    ss8/ch(48)              
60     conv2d_10_pad_before_output       16224/16224   activations/**default**   int8_t          sa8                     
61     conv2d_10_output                  3456/3456     activations/**default**   int8_t          ss8                     
62     conv2d_49_bias                    48/192        weights/weights           const int32_t   ss32/ch(48)             
63     conv2d_11_output                  3456/3456     activations/**default**   int8_t          sa8                     
64     conv2d_5_output                   13824/13824   activations/**default**   int8_t          sa8                     
65     conv2d_8_pad_before_output        16224/16224   activations/**default**   int8_t          sa8                     
66     conv2d_8_output                   3456/3456     activations/**default**   int8_t          sa8                     
67     conv2d_9_output                   3456/3456     activations/**default**   int8_t          sa8                     
68     concat_12_output                  6912/6912     activations/**default**   int8_t          sa8                     
69     conv2d_53_weights                 2304/2304     weights/weights           const int8_t    ss8/ch(48)              
70     gather_17_output                  3456/3456     activations/**default**   int8_t          sa8                     
71     gather_13_output                  3456/3456     activations/**default**   int8_t          sa8                     
72     conv2d_53_bias                    48/192        weights/weights           const int32_t   ss32/ch(48)             
73     conv2d_14_output                  3456/3456     activations/**default**   int8_t          sa8                     
74     conv2d_15_pad_before_output       4704/4704     activations/**default**   int8_t          sa8                     
75     conv2d_54_weights                 432/432       weights/weights           const int8_t    ss8/ch(48)              
76     conv2d_15_output                  3456/3456     activations/**default**   int8_t          sa8                     
77     conv2d_16_output                  3456/3456     activations/**default**   int8_t          sa8                     
78     conv2d_54_bias                    48/192        weights/weights           const int32_t   ss32/ch(48)             
79     concat_18_output                  6912/6912     activations/**default**   int8_t          sa8                     
80     gather_20_output                  3456/3456     activations/**default**   int8_t          sa8                     
81     conv2d_55_weights                 2304/2304     weights/weights           const int8_t    ss8/ch(48)              
82     conv2d_21_output                  3456/3456     activations/**default**   int8_t          sa8                     
83     conv2d_22_pad_before_output       4704/4704     activations/**default**   int8_t          sa8                     
84     conv2d_55_bias                    48/192        weights/weights           const int32_t   ss32/ch(48)             
85     conv2d_22_output                  3456/3456     activations/**default**   int8_t          sa8                     
86     conv2d_23_output                  3456/3456     activations/**default**   int8_t          sa8                     
87     gather_19_output                  3456/3456     activations/**default**   int8_t          sa8                     
88     concat_24_output                  6912/6912     activations/**default**   int8_t          sa8                     
89     gather_26_output                  3456/3456     activations/**default**   int8_t          sa8                     
90     conv2d_27_output                  3456/3456     activations/**default**   int8_t          sa8                     
91     conv2d_59_weights                 2304/2304     weights/weights           const int8_t    ss8/ch(48)              
92     conv2d_28_pad_before_output       4704/4704     activations/**default**   int8_t          sa8                     
93     conv2d_28_output                  3456/3456     activations/**default**   int8_t          sa8                     
94     conv2d_59_bias                    48/192        weights/weights           const int32_t   ss32/ch(48)             
95     conv2d_29_output                  3456/3456     activations/**default**   int8_t          sa8                     
96     gather_25_output                  3456/3456     activations/**default**   int8_t          sa8                     
97     conv2d_60_weights                 432/432       weights/weights           const int8_t    ss8/ch(48)              
98     concat_30_output                  6912/6912     activations/**default**   int8_t          sa8                     
99     conv2d_36_pad_before_output       9408/9408     activations/**default**   int8_t          sa8                     
100    conv2d_60_bias                    48/192        weights/weights           const int32_t   ss32/ch(48)             
101    conv2d_36_output                  1728/1728     activations/**default**   int8_t          sa8                     
102    conv2d_37_output                  1728/1728     activations/**default**   int8_t          sa8                     
103    conv2d_61_weights                 2304/2304     weights/weights           const int8_t    ss8/ch(48)              
104    conv2d_31_output                  6912/6912     activations/**default**   int8_t          sa8                     
105    conv2d_33_pad_before_output       9408/9408     activations/**default**   int8_t          sa8                     
106    conv2d_61_bias                    48/192        weights/weights           const int32_t   ss32/ch(48)             
107    conv2d_33_output                  1728/1728     activations/**default**   int8_t          sa8                     
108    conv2d_34_output                  1728/1728     activations/**default**   int8_t          sa8                     
109    concat_38_output                  3456/3456     activations/**default**   int8_t          sa8                     
110    gather_40_output                  1728/1728     activations/**default**   int8_t          sa8                     
111    conv2d_41_output                  1728/1728     activations/**default**   int8_t          sa8                     
112    conv2d_42_pad_before_output       3072/3072     activations/**default**   int8_t          sa8                     
113    conv2d_65_weights                 2304/2304     weights/weights           const int8_t    ss8/ch(48)              
114    conv2d_42_output                  1728/1728     activations/**default**   int8_t          sa8                     
115    conv2d_43_output                  1728/1728     activations/**default**   int8_t          sa8                     
116    conv2d_65_bias                    48/192        weights/weights           const int32_t   ss32/ch(48)             
117    gather_39_output                  1728/1728     activations/**default**   int8_t          sa8                     
118    concat_44_output                  3456/3456     activations/**default**   int8_t          sa8                     
119    conv2d_66_weights                 432/432       weights/weights           const int8_t    ss8/ch(48)              
120    gather_46_output                  1728/1728     activations/**default**   int8_t          sa8                     
121    conv2d_47_output                  1728/1728     activations/**default**   int8_t          sa8                     
122    conv2d_66_bias                    48/192        weights/weights           const int32_t   ss32/ch(48)             
123    conv2d_48_pad_before_output       3072/3072     activations/**default**   int8_t          sa8                     
124    conv2d_48_output                  1728/1728     activations/**default**   int8_t          sa8                     
125    conv2d_67_weights                 2304/2304     weights/weights           const int8_t    ss8/ch(48)              
126    conv2d_49_output                  1728/1728     activations/**default**   int8_t          sa8                     
127    gather_45_output                  1728/1728     activations/**default**   int8_t          sa8                     
128    conv2d_67_bias                    48/192        weights/weights           const int32_t   ss32/ch(48)             
129    concat_50_output                  3456/3456     activations/**default**   int8_t          sa8                     
130    gather_52_output                  1728/1728     activations/**default**   int8_t          sa8                     
131    conv2d_53_output                  1728/1728     activations/**default**   int8_t          sa8                     
132    conv2d_54_pad_before_output       3072/3072     activations/**default**   int8_t          sa8                     
133    conv2d_54_output                  1728/1728     activations/**default**   int8_t          sa8                     
134    conv2d_55_output                  1728/1728     activations/**default**   int8_t          sa8                     
135    conv2d_71_weights                 2304/2304     weights/weights           const int8_t    ss8/ch(48)              
136    gather_51_output                  1728/1728     activations/**default**   int8_t          sa8                     
137    concat_56_output                  3456/3456     activations/**default**   int8_t          sa8                     
138    conv2d_71_bias                    48/192        weights/weights           const int32_t   ss32/ch(48)             
139    gather_58_output                  1728/1728     activations/**default**   int8_t          sa8                     
140    conv2d_59_output                  1728/1728     activations/**default**   int8_t          sa8                     
141    conv2d_72_weights                 432/432       weights/weights           const int8_t    ss8/ch(48)              
142    conv2d_60_pad_before_output       3072/3072     activations/**default**   int8_t          sa8                     
143    conv2d_60_output                  1728/1728     activations/**default**   int8_t          sa8                     
144    conv2d_72_bias                    48/192        weights/weights           const int32_t   ss32/ch(48)             
145    conv2d_61_output                  1728/1728     activations/**default**   int8_t          sa8                     
146    gather_57_output                  1728/1728     activations/**default**   int8_t          sa8                     
147    conv2d_73_weights                 2304/2304     weights/weights           const int8_t    ss8/ch(48)              
148    concat_62_output                  3456/3456     activations/**default**   int8_t          sa8                     
149    gather_64_output                  1728/1728     activations/**default**   int8_t          sa8                     
150    conv2d_73_bias                    48/192        weights/weights           const int32_t   ss32/ch(48)             
151    conv2d_65_output                  1728/1728     activations/**default**   int8_t          sa8                     
152    conv2d_66_pad_before_output       3072/3072     activations/**default**   int8_t          sa8                     
153    conv2d_66_output                  1728/1728     activations/**default**   int8_t          sa8                     
154    conv2d_67_output                  1728/1728     activations/**default**   int8_t          sa8                     
155    gather_63_output                  1728/1728     activations/**default**   int8_t          sa8                     
156    concat_68_output                  3456/3456     activations/**default**   int8_t          sa8                     
157    conv2d_77_weights                 2304/2304     weights/weights           const int8_t    ss8/ch(48)              
158    gather_70_output                  1728/1728     activations/**default**   int8_t          sa8                     
159    conv2d_71_output                  1728/1728     activations/**default**   int8_t          sa8                     
160    conv2d_77_bias                    48/192        weights/weights           const int32_t   ss32/ch(48)             
161    conv2d_72_pad_before_output       3072/3072     activations/**default**   int8_t          sa8                     
162    conv2d_72_output                  1728/1728     activations/**default**   int8_t          sa8                     
163    conv2d_78_weights                 432/432       weights/weights           const int8_t    ss8/ch(48)              
164    conv2d_73_output                  1728/1728     activations/**default**   int8_t          sa8                     
165    gather_69_output                  1728/1728     activations/**default**   int8_t          sa8                     
166    conv2d_78_bias                    48/192        weights/weights           const int32_t   ss32/ch(48)             
167    concat_74_output                  3456/3456     activations/**default**   int8_t          sa8                     
168    gather_76_output                  1728/1728     activations/**default**   int8_t          sa8                     
169    conv2d_79_weights                 2304/2304     weights/weights           const int8_t    ss8/ch(48)              
170    conv2d_77_output                  1728/1728     activations/**default**   int8_t          sa8                     
171    conv2d_78_pad_before_output       3072/3072     activations/**default**   int8_t          sa8                     
172    conv2d_79_bias                    48/192        weights/weights           const int32_t   ss32/ch(48)             
173    conv2d_78_output                  1728/1728     activations/**default**   int8_t          sa8                     
174    conv2d_79_output                  1728/1728     activations/**default**   int8_t          sa8                     
175    gather_75_output                  1728/1728     activations/**default**   int8_t          sa8                     
176    concat_80_output                  3456/3456     activations/**default**   int8_t          sa8           /output   
177    conv2d_2_scratch0                 1740/1740     activations/**default**   int8_t          s8                      
178    conv2d_10_scratch0                889/889       activations/**default**   int8_t          s8                      
179    conv2d_11_scratch0                336/336       activations/**default**   int8_t          s8                      
180    conv2d_5_scratch0                 336/336       activations/**default**   int8_t          s8                      
181    conv2d_8_scratch0                 889/889       activations/**default**   int8_t          s8                      
182    conv2d_9_scratch0                 336/336       activations/**default**   int8_t          s8                      
183    conv2d_14_scratch0                336/336       activations/**default**   int8_t          s8                      
184    conv2d_15_scratch0                889/889       activations/**default**   int8_t          s8                      
185    conv2d_16_scratch0                336/336       activations/**default**   int8_t          s8                      
186    conv2d_21_scratch0                336/336       activations/**default**   int8_t          s8                      
187    conv2d_22_scratch0                889/889       activations/**default**   int8_t          s8                      
188    conv2d_23_scratch0                336/336       activations/**default**   int8_t          s8                      
189    conv2d_27_scratch0                336/336       activations/**default**   int8_t          s8                      
190    conv2d_28_scratch0                889/889       activations/**default**   int8_t          s8                      
191    conv2d_29_scratch0                336/336       activations/**default**   int8_t          s8                      
192    conv2d_36_scratch0                1777/1777     activations/**default**   int8_t          s8                      
193    conv2d_37_scratch0                672/672       activations/**default**   int8_t          s8                      
194    conv2d_31_scratch0                672/672       activations/**default**   int8_t          s8                      
195    conv2d_33_scratch0                1777/1777     activations/**default**   int8_t          s8                      
196    conv2d_34_scratch0                672/672       activations/**default**   int8_t          s8                      
197    conv2d_41_scratch0                672/672       activations/**default**   int8_t          s8                      
198    conv2d_2_weights                  648/648       weights/weights           const int8_t    ss8/ch(24)              
199    conv2d_42_scratch0                1777/1777     activations/**default**   int8_t          s8                      
200    conv2d_2_bias                     24/96         weights/weights           const int32_t   ss32/ch(24)             
201    conv2d_43_scratch0                672/672       activations/**default**   int8_t          s8                      
202    conv2d_10_weights                 216/216       weights/weights           const int8_t    ss8/ch(24)              
203    conv2d_10_bias                    24/96         weights/weights           const int32_t   ss32/ch(24)             
204    conv2d_47_scratch0                672/672       activations/**default**   int8_t          s8                      
205    conv2d_11_weights                 576/576       weights/weights           const int8_t    ss8/ch(24)              
206    conv2d_48_scratch0                1777/1777     activations/**default**   int8_t          s8                      
207    conv2d_11_bias                    24/96         weights/weights           const int32_t   ss32/ch(24)             
208    conv2d_49_scratch0                672/672       activations/**default**   int8_t          s8                      
209    conv2d_5_weights                  576/576       weights/weights           const int8_t    ss8/ch(24)              
210    conv2d_53_scratch0                672/672       activations/**default**   int8_t          s8                      
211    conv2d_5_bias                     24/96         weights/weights           const int32_t   ss32/ch(24)             
212    conv2d_8_weights                  216/216       weights/weights           const int8_t    ss8/ch(24)              
213    conv2d_54_scratch0                1777/1777     activations/**default**   int8_t          s8                      
214    conv2d_8_bias                     24/96         weights/weights           const int32_t   ss32/ch(24)             
215    conv2d_55_scratch0                672/672       activations/**default**   int8_t          s8                      
216    conv2d_9_weights                  576/576       weights/weights           const int8_t    ss8/ch(24)              
217    conv2d_59_scratch0                672/672       activations/**default**   int8_t          s8                      
------ --------------------------------- ------------- ------------------------- --------------- ------------- --------- 

C-Layers (90)
------ ---------------------- ---- ------------------- --------- ------ ------------------------------------ -------------------- 
c_id   name (*_layer)         id   layer_type          macc      rom    tensors                              shape (array id)     
------ ---------------------- ---- ------------------- --------- ------ ------------------------------------ -------------------- 
0      conversion_0           0    converter           55296     0      I: serving_default_input_10_output   (1,96,96,3) (52)     
                                                                        O: conversion_0_output               (1,96,96,3) (54)     
------ ---------------------- ---- ------------------- --------- ------ ------------------------------------ -------------------- 
1      conv2d_2               1    optimized_conv2d    1493016   744    I: conversion_0_output               (1,96,96,3) (54)     
                                                                        S: conv2d_2_scratch0                                      
                                                                        W: conv2d_2_weights                  (3,24,3,3) (198)     
                                                                        W: conv2d_2_bias                     (1,1,1,24) (200)     
                                                                        O: conv2d_2_output                   (1,48,48,24) (55)    
------ ---------------------- ---- ------------------- --------- ------ ------------------------------------ -------------------- 
2      pad_3                  3    pad                 0         0      I: conv2d_2_output                   (1,48,48,24) (55)    
                                                                        O: pad_3_output                      (1,50,50,24) (57)    
------ ---------------------- ---- ------------------- --------- ------ ------------------------------------ -------------------- 
3      pool_4                 4    pool                124416    0      I: pad_3_output                      (1,50,50,24) (57)    
                                                                        O: pool_4_output                     (1,24,24,24) (58)    
------ ---------------------- ---- ------------------- --------- ------ ------------------------------------ -------------------- 
4      conv2d_10_pad_before   7    pad                 0         0      I: pool_4_output                     (1,24,24,24) (58)    
                                                                        O: conv2d_10_pad_before_output       (1,26,26,24) (60)    
------ ---------------------- ---- ------------------- --------- ------ ------------------------------------ -------------------- 
5      conv2d_10              10   conv2d              31128     312    I: conv2d_10_pad_before_output       (1,26,26,24) (60)    
                                                                        S: conv2d_10_scratch0                                     
                                                                        W: conv2d_10_weights                 (24,1,3,3) (202)     
                                                                        W: conv2d_10_bias                    (1,1,1,24) (203)     
                                                                        O: conv2d_10_output                  (1,12,12,24) (61)    
------ ---------------------- ---- ------------------- --------- ------ ------------------------------------ -------------------- 
6      conv2d_11              11   conv2d              82968     672    I: conv2d_10_output                  (1,12,12,24) (61)    
                                                                        S: conv2d_11_scratch0                                     
                                                                        W: conv2d_11_weights                 (24,24,1,1) (205)    
                                                                        W: conv2d_11_bias                    (1,1,1,24) (207)     
                                                                        O: conv2d_11_output                  (1,12,12,24) (63)    
------ ---------------------- ---- ------------------- --------- ------ ------------------------------------ -------------------- 
7      conv2d_5               5    conv2d              331800    672    I: pool_4_output                     (1,24,24,24) (58)    
                                                                        S: conv2d_5_scratch0                                      
                                                                        W: conv2d_5_weights                  (24,24,1,1) (209)    
                                                                        W: conv2d_5_bias                     (1,1,1,24) (211)     
                                                                        O: conv2d_5_output                   (1,24,24,24) (64)    
------ ---------------------- ---- ------------------- --------- ------ ------------------------------------ -------------------- 
8      conv2d_8_pad_before    6    pad                 0         0      I: conv2d_5_output                   (1,24,24,24) (64)    
                                                                        O: conv2d_8_pad_before_output        (1,26,26,24) (65)    
------ ---------------------- ---- ------------------- --------- ------ ------------------------------------ -------------------- 
9      conv2d_8               8    conv2d              31128     312    I: conv2d_8_pad_before_output        (1,26,26,24) (65)    
                                                                        S: conv2d_8_scratch0                                      
                                                                        W: conv2d_8_weights                  (24,1,3,3) (212)     
                                                                        W: conv2d_8_bias                     (1,1,1,24) (214)     
                                                                        O: conv2d_8_output                   (1,12,12,24) (66)    
------ ---------------------- ---- ------------------- --------- ------ ------------------------------------ -------------------- 
10     conv2d_9               9    conv2d              82968     672    I: conv2d_8_output                   (1,12,12,24) (66)    
                                                                        S: conv2d_9_scratch0                                      
                                                                        W: conv2d_9_weights                  (24,24,1,1) (216)    
                                                                        W: conv2d_9_bias                     (1,1,1,24) (0)       
                                                                        O: conv2d_9_output                   (1,12,12,24) (67)    
------ ---------------------- ---- ------------------- --------- ------ ------------------------------------ -------------------- 
11     concat_12              12   concat              0         0      I: conv2d_11_output                  (1,12,12,24) (63)    
                                                                        I: conv2d_9_output                   (1,12,12,24) (67)    
                                                                        O: concat_12_output                  (1,12,12,48) (68)    
------ ---------------------- ---- ------------------- --------- ------ ------------------------------------ -------------------- 
12     gather_17              17   gather              0         96     I: concat_12_output                  (1,12,12,48) (68)    
                                                                        W: gather_17_indices                 (1,1,24,1) (2)       
                                                                        O: gather_17_output                  (1,12,12,24) (70)    
------ ---------------------- ---- ------------------- --------- ------ ------------------------------------ -------------------- 
13     gather_13              13   gather              0         96     I: concat_12_output                  (1,12,12,48) (68)    
                                                                        W: gather_13_indices                 (1,1,24,1) (3)       
                                                                        O: gather_13_output                  (1,12,12,24) (71)    
------ ---------------------- ---- ------------------- --------- ------ ------------------------------------ -------------------- 
14     conv2d_14              14   conv2d              82968     672    I: gather_13_output                  (1,12,12,24) (71)    
                                                                        S: conv2d_14_scratch0                                     
                                                                        W: conv2d_14_weights                 (24,24,1,1) (5)      
                                                                        W: conv2d_14_bias                    (1,1,1,24) (7)       
                                                                        O: conv2d_14_output                  (1,12,12,24) (73)    
------ ---------------------- ---- ------------------- --------- ------ ------------------------------------ -------------------- 
15     conv2d_15_pad_before   15   pad                 0         0      I: conv2d_14_output                  (1,12,12,24) (73)    
                                                                        O: conv2d_15_pad_before_output       (1,14,14,24) (74)    
------ ---------------------- ---- ------------------- --------- ------ ------------------------------------ -------------------- 
16     conv2d_15              15   conv2d              31128     312    I: conv2d_15_pad_before_output       (1,14,14,24) (74)    
                                                                        S: conv2d_15_scratch0                                     
                                                                        W: conv2d_15_weights                 (24,1,3,3) (9)       
                                                                        W: conv2d_15_bias                    (1,1,1,24) (11)      
                                                                        O: conv2d_15_output                  (1,12,12,24) (76)    
------ ---------------------- ---- ------------------- --------- ------ ------------------------------------ -------------------- 
17     conv2d_16              16   conv2d              82968     672    I: conv2d_15_output                  (1,12,12,24) (76)    
                                                                        S: conv2d_16_scratch0                                     
                                                                        W: conv2d_16_weights                 (24,24,1,1) (12)     
                                                                        W: conv2d_16_bias                    (1,1,1,24) (14)      
                                                                        O: conv2d_16_output                  (1,12,12,24) (77)    
------ ---------------------- ---- ------------------- --------- ------ ------------------------------------ -------------------- 
18     concat_18              18   concat              0         0      I: gather_17_output                  (1,12,12,24) (70)    
                                                                        I: conv2d_16_output                  (1,12,12,24) (77)    
                                                                        O: concat_18_output                  (1,12,12,48) (79)    
------ ---------------------- ---- ------------------- --------- ------ ------------------------------------ -------------------- 
19     gather_20              20   gather              0         96     I: concat_18_output                  (1,12,12,48) (79)    
                                                                        W: gather_13_indices                 (1,1,24,1) (3)       
                                                                        O: gather_20_output                  (1,12,12,24) (80)    
------ ---------------------- ---- ------------------- --------- ------ ------------------------------------ -------------------- 
20     conv2d_21              21   conv2d              82968     672    I: gather_20_output                  (1,12,12,24) (80)    
                                                                        S: conv2d_21_scratch0                                     
                                                                        W: conv2d_21_weights                 (24,24,1,1) (17)     
                                                                        W: conv2d_21_bias                    (1,1,1,24) (19)      
                                                                        O: conv2d_21_output                  (1,12,12,24) (82)    
------ ---------------------- ---- ------------------- --------- ------ ------------------------------------ -------------------- 
21     conv2d_22_pad_before   22   pad                 0         0      I: conv2d_21_output                  (1,12,12,24) (82)    
                                                                        O: conv2d_22_pad_before_output       (1,14,14,24) (83)    
------ ---------------------- ---- ------------------- --------- ------ ------------------------------------ -------------------- 
22     conv2d_22              22   conv2d              31128     312    I: conv2d_22_pad_before_output       (1,14,14,24) (83)    
                                                                        S: conv2d_22_scratch0                                     
                                                                        W: conv2d_22_weights                 (24,1,3,3) (20)      
                                                                        W: conv2d_22_bias                    (1,1,1,24) (22)      
                                                                        O: conv2d_22_output                  (1,12,12,24) (85)    
------ ---------------------- ---- ------------------- --------- ------ ------------------------------------ -------------------- 
23     conv2d_23              23   conv2d              82968     672    I: conv2d_22_output                  (1,12,12,24) (85)    
                                                                        S: conv2d_23_scratch0                                     
                                                                        W: conv2d_23_weights                 (24,24,1,1) (24)     
                                                                        W: conv2d_23_bias                    (1,1,1,24) (25)      
                                                                        O: conv2d_23_output                  (1,12,12,24) (86)    
------ ---------------------- ---- ------------------- --------- ------ ------------------------------------ -------------------- 
24     gather_19              19   gather              0         96     I: concat_18_output                  (1,12,12,48) (79)    
                                                                        W: gather_17_indices                 (1,1,24,1) (2)       
                                                                        O: gather_19_output                  (1,12,12,24) (87)    
------ ---------------------- ---- ------------------- --------- ------ ------------------------------------ -------------------- 
25     concat_24              24   concat              0         0      I: gather_19_output                  (1,12,12,24) (87)    
                                                                        I: conv2d_23_output                  (1,12,12,24) (86)    
                                                                        O: concat_24_output                  (1,12,12,48) (88)    
------ ---------------------- ---- ------------------- --------- ------ ------------------------------------ -------------------- 
26     gather_26              26   gather              0         96     I: concat_24_output                  (1,12,12,48) (88)    
                                                                        W: gather_13_indices                 (1,1,24,1) (3)       
                                                                        O: gather_26_output                  (1,12,12,24) (89)    
------ ---------------------- ---- ------------------- --------- ------ ------------------------------------ -------------------- 
27     conv2d_27              27   conv2d              82968     672    I: gather_26_output                  (1,12,12,24) (89)    
                                                                        S: conv2d_27_scratch0                                     
                                                                        W: conv2d_27_weights                 (24,24,1,1) (26)     
                                                                        W: conv2d_27_bias                    (1,1,1,24) (27)      
                                                                        O: conv2d_27_output                  (1,12,12,24) (90)    
------ ---------------------- ---- ------------------- --------- ------ ------------------------------------ -------------------- 
28     conv2d_28_pad_before   28   pad                 0         0      I: conv2d_27_output                  (1,12,12,24) (90)    
                                                                        O: conv2d_28_pad_before_output       (1,14,14,24) (92)    
------ ---------------------- ---- ------------------- --------- ------ ------------------------------------ -------------------- 
29     conv2d_28              28   conv2d              31128     312    I: conv2d_28_pad_before_output       (1,14,14,24) (92)    
                                                                        S: conv2d_28_scratch0                                     
                                                                        W: conv2d_28_weights                 (24,1,3,3) (28)      
                                                                        W: conv2d_28_bias                    (1,1,1,24) (29)      
                                                                        O: conv2d_28_output                  (1,12,12,24) (93)    
------ ---------------------- ---- ------------------- --------- ------ ------------------------------------ -------------------- 
30     conv2d_29              29   conv2d              82968     672    I: conv2d_28_output                  (1,12,12,24) (93)    
                                                                        S: conv2d_29_scratch0                                     
                                                                        W: conv2d_29_weights                 (24,24,1,1) (30)     
                                                                        W: conv2d_29_bias                    (1,1,1,24) (31)      
                                                                        O: conv2d_29_output                  (1,12,12,24) (95)    
------ ---------------------- ---- ------------------- --------- ------ ------------------------------------ -------------------- 
31     gather_25              25   gather              0         96     I: concat_24_output                  (1,12,12,48) (88)    
                                                                        W: gather_17_indices                 (1,1,24,1) (2)       
                                                                        O: gather_25_output                  (1,12,12,24) (96)    
------ ---------------------- ---- ------------------- --------- ------ ------------------------------------ -------------------- 
32     concat_30              30   concat              0         0      I: gather_25_output                  (1,12,12,24) (96)    
                                                                        I: conv2d_29_output                  (1,12,12,24) (95)    
                                                                        O: concat_30_output                  (1,12,12,48) (98)    
------ ---------------------- ---- ------------------- --------- ------ ------------------------------------ -------------------- 
33     conv2d_36_pad_before   35   pad                 0         0      I: concat_30_output                  (1,12,12,48) (98)    
                                                                        O: conv2d_36_pad_before_output       (1,14,14,48) (99)    
------ ---------------------- ---- ------------------- --------- ------ ------------------------------------ -------------------- 
34     conv2d_36              36   conv2d              15600     624    I: conv2d_36_pad_before_output       (1,14,14,48) (99)    
                                                                        S: conv2d_36_scratch0                                     
                                                                        W: conv2d_36_weights                 (48,1,3,3) (32)      
                                                                        W: conv2d_36_bias                    (1,1,1,48) (33)      
                                                                        O: conv2d_36_output                  (1,6,6,48) (101)     
------ ---------------------- ---- ------------------- --------- ------ ------------------------------------ -------------------- 
35     conv2d_37              37   conv2d              82992     2496   I: conv2d_36_output                  (1,6,6,48) (101)     
                                                                        S: conv2d_37_scratch0                                     
                                                                        W: conv2d_37_weights                 (48,48,1,1) (34)     
                                                                        W: conv2d_37_bias                    (1,1,1,48) (35)      
                                                                        O: conv2d_37_output                  (1,6,6,48) (102)     
------ ---------------------- ---- ------------------- --------- ------ ------------------------------------ -------------------- 
36     conv2d_31              31   conv2d              331824    2496   I: concat_30_output                  (1,12,12,48) (98)    
                                                                        S: conv2d_31_scratch0                                     
                                                                        W: conv2d_31_weights                 (48,48,1,1) (36)     
                                                                        W: conv2d_31_bias                    (1,1,1,48) (37)      
                                                                        O: conv2d_31_output                  (1,12,12,48) (104)   
------ ---------------------- ---- ------------------- --------- ------ ------------------------------------ -------------------- 
37     conv2d_33_pad_before   32   pad                 0         0      I: conv2d_31_output                  (1,12,12,48) (104)   
                                                                        O: conv2d_33_pad_before_output       (1,14,14,48) (105)   
------ ---------------------- ---- ------------------- --------- ------ ------------------------------------ -------------------- 
38     conv2d_33              33   conv2d              15600     624    I: conv2d_33_pad_before_output       (1,14,14,48) (105)   
                                                                        S: conv2d_33_scratch0                                     
                                                                        W: conv2d_33_weights                 (48,1,3,3) (38)      
                                                                        W: conv2d_33_bias                    (1,1,1,48) (39)      
                                                                        O: conv2d_33_output                  (1,6,6,48) (107)     
------ ---------------------- ---- ------------------- --------- ------ ------------------------------------ -------------------- 
39     conv2d_34              34   conv2d              82992     2496   I: conv2d_33_output                  (1,6,6,48) (107)     
                                                                        S: conv2d_34_scratch0                                     
                                                                        W: conv2d_34_weights                 (48,48,1,1) (40)     
                                                                        W: conv2d_34_bias                    (1,1,1,48) (41)      
                                                                        O: conv2d_34_output                  (1,6,6,48) (108)     
------ ---------------------- ---- ------------------- --------- ------ ------------------------------------ -------------------- 
40     concat_38              38   concat              0         0      I: conv2d_37_output                  (1,6,6,48) (102)     
                                                                        I: conv2d_34_output                  (1,6,6,48) (108)     
                                                                        O: concat_38_output                  (1,6,6,96) (109)     
------ ---------------------- ---- ------------------- --------- ------ ------------------------------------ -------------------- 
41     gather_40              40   gather              0         192    I: concat_38_output                  (1,6,6,96) (109)     
                                                                        W: gather_40_indices                 (1,1,48,1) (42)      
                                                                        O: gather_40_output                  (1,6,6,48) (110)     
------ ---------------------- ---- ------------------- --------- ------ ------------------------------------ -------------------- 
42     conv2d_41              41   conv2d              82992     2496   I: gather_40_output                  (1,6,6,48) (110)     
                                                                        S: conv2d_41_scratch0                                     
                                                                        W: conv2d_41_weights                 (48,48,1,1) (43)     
                                                                        W: conv2d_41_bias                    (1,1,1,48) (44)      
                                                                        O: conv2d_41_output                  (1,6,6,48) (111)     
------ ---------------------- ---- ------------------- --------- ------ ------------------------------------ -------------------- 
43     conv2d_42_pad_before   42   pad                 0         0      I: conv2d_41_output                  (1,6,6,48) (111)     
                                                                        O: conv2d_42_pad_before_output       (1,8,8,48) (112)     
------ ---------------------- ---- ------------------- --------- ------ ------------------------------------ -------------------- 
44     conv2d_42              42   conv2d              15600     624    I: conv2d_42_pad_before_output       (1,8,8,48) (112)     
                                                                        S: conv2d_42_scratch0                                     
                                                                        W: conv2d_42_weights                 (48,1,3,3) (45)      
                                                                        W: conv2d_42_bias                    (1,1,1,48) (46)      
                                                                        O: conv2d_42_output                  (1,6,6,48) (114)     
------ ---------------------- ---- ------------------- --------- ------ ------------------------------------ -------------------- 
45     conv2d_43              43   conv2d              82992     2496   I: conv2d_42_output                  (1,6,6,48) (114)     
                                                                        S: conv2d_43_scratch0                                     
                                                                        W: conv2d_43_weights                 (48,48,1,1) (47)     
                                                                        W: conv2d_43_bias                    (1,1,1,48) (48)      
                                                                        O: conv2d_43_output                  (1,6,6,48) (115)     
------ ---------------------- ---- ------------------- --------- ------ ------------------------------------ -------------------- 
46     gather_39              39   gather              0         192    I: concat_38_output                  (1,6,6,96) (109)     
                                                                        W: gather_39_indices                 (1,1,48,1) (49)      
                                                                        O: gather_39_output                  (1,6,6,48) (117)     
------ ---------------------- ---- ------------------- --------- ------ ------------------------------------ -------------------- 
47     concat_44              44   concat              0         0      I: gather_39_output                  (1,6,6,48) (117)     
                                                                        I: conv2d_43_output                  (1,6,6,48) (115)     
                                                                        O: concat_44_output                  (1,6,6,96) (118)     
------ ---------------------- ---- ------------------- --------- ------ ------------------------------------ -------------------- 
48     gather_46              46   gather              0         192    I: concat_44_output                  (1,6,6,96) (118)     
                                                                        W: gather_40_indices                 (1,1,48,1) (42)      
                                                                        O: gather_46_output                  (1,6,6,48) (120)     
------ ---------------------- ---- ------------------- --------- ------ ------------------------------------ -------------------- 
49     conv2d_47              47   conv2d              82992     2496   I: gather_46_output                  (1,6,6,48) (120)     
                                                                        S: conv2d_47_scratch0                                     
                                                                        W: conv2d_47_weights                 (48,48,1,1) (50)     
                                                                        W: conv2d_47_bias                    (1,1,1,48) (51)      
                                                                        O: conv2d_47_output                  (1,6,6,48) (121)     
------ ---------------------- ---- ------------------- --------- ------ ------------------------------------ -------------------- 
50     conv2d_48_pad_before   48   pad                 0         0      I: conv2d_47_output                  (1,6,6,48) (121)     
                                                                        O: conv2d_48_pad_before_output       (1,8,8,48) (123)     
------ ---------------------- ---- ------------------- --------- ------ ------------------------------------ -------------------- 
51     conv2d_48              48   conv2d              15600     624    I: conv2d_48_pad_before_output       (1,8,8,48) (123)     
                                                                        S: conv2d_48_scratch0                                     
                                                                        W: conv2d_48_weights                 (48,1,3,3) (53)      
                                                                        W: conv2d_48_bias                    (1,1,1,48) (56)      
                                                                        O: conv2d_48_output                  (1,6,6,48) (124)     
------ ---------------------- ---- ------------------- --------- ------ ------------------------------------ -------------------- 
52     conv2d_49              49   conv2d              82992     2496   I: conv2d_48_output                  (1,6,6,48) (124)     
                                                                        S: conv2d_49_scratch0                                     
                                                                        W: conv2d_49_weights                 (48,48,1,1) (59)     
                                                                        W: conv2d_49_bias                    (1,1,1,48) (62)      
                                                                        O: conv2d_49_output                  (1,6,6,48) (126)     
------ ---------------------- ---- ------------------- --------- ------ ------------------------------------ -------------------- 
53     gather_45              45   gather              0         192    I: concat_44_output                  (1,6,6,96) (118)     
                                                                        W: gather_39_indices                 (1,1,48,1) (49)      
                                                                        O: gather_45_output                  (1,6,6,48) (127)     
------ ---------------------- ---- ------------------- --------- ------ ------------------------------------ -------------------- 
54     concat_50              50   concat              0         0      I: gather_45_output                  (1,6,6,48) (127)     
                                                                        I: conv2d_49_output                  (1,6,6,48) (126)     
                                                                        O: concat_50_output                  (1,6,6,96) (129)     
------ ---------------------- ---- ------------------- --------- ------ ------------------------------------ -------------------- 
55     gather_52              52   gather              0         192    I: concat_50_output                  (1,6,6,96) (129)     
                                                                        W: gather_40_indices                 (1,1,48,1) (42)      
                                                                        O: gather_52_output                  (1,6,6,48) (130)     
------ ---------------------- ---- ------------------- --------- ------ ------------------------------------ -------------------- 
56     conv2d_53              53   conv2d              82992     2496   I: gather_52_output                  (1,6,6,48) (130)     
                                                                        S: conv2d_53_scratch0                                     
                                                                        W: conv2d_53_weights                 (48,48,1,1) (69)     
                                                                        W: conv2d_53_bias                    (1,1,1,48) (72)      
                                                                        O: conv2d_53_output                  (1,6,6,48) (131)     
------ ---------------------- ---- ------------------- --------- ------ ------------------------------------ -------------------- 
57     conv2d_54_pad_before   54   pad                 0         0      I: conv2d_53_output                  (1,6,6,48) (131)     
                                                                        O: conv2d_54_pad_before_output       (1,8,8,48) (132)     
------ ---------------------- ---- ------------------- --------- ------ ------------------------------------ -------------------- 
58     conv2d_54              54   conv2d              15600     624    I: conv2d_54_pad_before_output       (1,8,8,48) (132)     
                                                                        S: conv2d_54_scratch0                                     
                                                                        W: conv2d_54_weights                 (48,1,3,3) (75)      
                                                                        W: conv2d_54_bias                    (1,1,1,48) (78)      
                                                                        O: conv2d_54_output                  (1,6,6,48) (133)     
------ ---------------------- ---- ------------------- --------- ------ ------------------------------------ -------------------- 
59     conv2d_55              55   conv2d              82992     2496   I: conv2d_54_output                  (1,6,6,48) (133)     
                                                                        S: conv2d_55_scratch0                                     
                                                                        W: conv2d_55_weights                 (48,48,1,1) (81)     
                                                                        W: conv2d_55_bias                    (1,1,1,48) (84)      
                                                                        O: conv2d_55_output                  (1,6,6,48) (134)     
------ ---------------------- ---- ------------------- --------- ------ ------------------------------------ -------------------- 
60     gather_51              51   gather              0         192    I: concat_50_output                  (1,6,6,96) (129)     
                                                                        W: gather_39_indices                 (1,1,48,1) (49)      
                                                                        O: gather_51_output                  (1,6,6,48) (136)     
------ ---------------------- ---- ------------------- --------- ------ ------------------------------------ -------------------- 
61     concat_56              56   concat              0         0      I: gather_51_output                  (1,6,6,48) (136)     
                                                                        I: conv2d_55_output                  (1,6,6,48) (134)     
                                                                        O: concat_56_output                  (1,6,6,96) (137)     
------ ---------------------- ---- ------------------- --------- ------ ------------------------------------ -------------------- 
62     gather_58              58   gather              0         192    I: concat_56_output                  (1,6,6,96) (137)     
                                                                        W: gather_40_indices                 (1,1,48,1) (42)      
                                                                        O: gather_58_output                  (1,6,6,48) (139)     
------ ---------------------- ---- ------------------- --------- ------ ------------------------------------ -------------------- 
63     conv2d_59              59   conv2d              82992     2496   I: gather_58_output                  (1,6,6,48) (139)     
                                                                        S: conv2d_59_scratch0                                     
                                                                        W: conv2d_59_weights                 (48,48,1,1) (91)     
                                                                        W: conv2d_59_bias                    (1,1,1,48) (94)      
                                                                        O: conv2d_59_output                  (1,6,6,48) (140)     
------ ---------------------- ---- ------------------- --------- ------ ------------------------------------ -------------------- 
64     conv2d_60_pad_before   60   pad                 0         0      I: conv2d_59_output                  (1,6,6,48) (140)     
                                                                        O: conv2d_60_pad_before_output       (1,8,8,48) (142)     
------ ---------------------- ---- ------------------- --------- ------ ------------------------------------ -------------------- 
65     conv2d_60              60   conv2d              15600     624    I: conv2d_60_pad_before_output       (1,8,8,48) (142)     
                                                                        S: conv2d_60_scratch0                                     
                                                                        W: conv2d_60_weights                 (48,1,3,3) (97)      
                                                                        W: conv2d_60_bias                    (1,1,1,48) (100)     
                                                                        O: conv2d_60_output                  (1,6,6,48) (143)     
------ ---------------------- ---- ------------------- --------- ------ ------------------------------------ -------------------- 
66     conv2d_61              61   conv2d              82992     2496   I: conv2d_60_output                  (1,6,6,48) (143)     
                                                                        S: conv2d_61_scratch0                                     
                                                                        W: conv2d_61_weights                 (48,48,1,1) (103)    
                                                                        W: conv2d_61_bias                    (1,1,1,48) (106)     
                                                                        O: conv2d_61_output                  (1,6,6,48) (145)     
------ ---------------------- ---- ------------------- --------- ------ ------------------------------------ -------------------- 
67     gather_57              57   gather              0         192    I: concat_56_output                  (1,6,6,96) (137)     
                                                                        W: gather_39_indices                 (1,1,48,1) (49)      
                                                                        O: gather_57_output                  (1,6,6,48) (146)     
------ ---------------------- ---- ------------------- --------- ------ ------------------------------------ -------------------- 
68     concat_62              62   concat              0         0      I: gather_57_output                  (1,6,6,48) (146)     
                                                                        I: conv2d_61_output                  (1,6,6,48) (145)     
                                                                        O: concat_62_output                  (1,6,6,96) (148)     
------ ---------------------- ---- ------------------- --------- ------ ------------------------------------ -------------------- 
69     gather_64              64   gather              0         192    I: concat_62_output                  (1,6,6,96) (148)     
                                                                        W: gather_40_indices                 (1,1,48,1) (42)      
                                                                        O: gather_64_output                  (1,6,6,48) (149)     
------ ---------------------- ---- ------------------- --------- ------ ------------------------------------ -------------------- 
70     conv2d_65              65   conv2d              82992     2496   I: gather_64_output                  (1,6,6,48) (149)     
                                                                        S: conv2d_65_scratch0                                     
                                                                        W: conv2d_65_weights                 (48,48,1,1) (113)    
                                                                        W: conv2d_65_bias                    (1,1,1,48) (116)     
                                                                        O: conv2d_65_output                  (1,6,6,48) (151)     
------ ---------------------- ---- ------------------- --------- ------ ------------------------------------ -------------------- 
71     conv2d_66_pad_before   66   pad                 0         0      I: conv2d_65_output                  (1,6,6,48) (151)     
                                                                        O: conv2d_66_pad_before_output       (1,8,8,48) (152)     
------ ---------------------- ---- ------------------- --------- ------ ------------------------------------ -------------------- 
72     conv2d_66              66   conv2d              15600     624    I: conv2d_66_pad_before_output       (1,8,8,48) (152)     
                                                                        S: conv2d_66_scratch0                                     
                                                                        W: conv2d_66_weights                 (48,1,3,3) (119)     
                                                                        W: conv2d_66_bias                    (1,1,1,48) (122)     
                                                                        O: conv2d_66_output                  (1,6,6,48) (153)     
------ ---------------------- ---- ------------------- --------- ------ ------------------------------------ -------------------- 
73     conv2d_67              67   conv2d              82992     2496   I: conv2d_66_output                  (1,6,6,48) (153)     
                                                                        S: conv2d_67_scratch0                                     
                                                                        W: conv2d_67_weights                 (48,48,1,1) (125)    
                                                                        W: conv2d_67_bias                    (1,1,1,48) (128)     
                                                                        O: conv2d_67_output                  (1,6,6,48) (154)     
------ ---------------------- ---- ------------------- --------- ------ ------------------------------------ -------------------- 
74     gather_63              63   gather              0         192    I: concat_62_output                  (1,6,6,96) (148)     
                                                                        W: gather_39_indices                 (1,1,48,1) (49)      
                                                                        O: gather_63_output                  (1,6,6,48) (155)     
------ ---------------------- ---- ------------------- --------- ------ ------------------------------------ -------------------- 
75     concat_68              68   concat              0         0      I: gather_63_output                  (1,6,6,48) (155)     
                                                                        I: conv2d_67_output                  (1,6,6,48) (154)     
                                                                        O: concat_68_output                  (1,6,6,96) (156)     
------ ---------------------- ---- ------------------- --------- ------ ------------------------------------ -------------------- 
76     gather_70              70   gather              0         192    I: concat_68_output                  (1,6,6,96) (156)     
                                                                        W: gather_40_indices                 (1,1,48,1) (42)      
                                                                        O: gather_70_output                  (1,6,6,48) (158)     
------ ---------------------- ---- ------------------- --------- ------ ------------------------------------ -------------------- 
77     conv2d_71              71   conv2d              82992     2496   I: gather_70_output                  (1,6,6,48) (158)     
                                                                        S: conv2d_71_scratch0                                     
                                                                        W: conv2d_71_weights                 (48,48,1,1) (135)    
                                                                        W: conv2d_71_bias                    (1,1,1,48) (138)     
                                                                        O: conv2d_71_output                  (1,6,6,48) (159)     
------ ---------------------- ---- ------------------- --------- ------ ------------------------------------ -------------------- 
78     conv2d_72_pad_before   72   pad                 0         0      I: conv2d_71_output                  (1,6,6,48) (159)     
                                                                        O: conv2d_72_pad_before_output       (1,8,8,48) (161)     
------ ---------------------- ---- ------------------- --------- ------ ------------------------------------ -------------------- 
79     conv2d_72              72   conv2d              15600     624    I: conv2d_72_pad_before_output       (1,8,8,48) (161)     
                                                                        S: conv2d_72_scratch0                                     
                                                                        W: conv2d_72_weights                 (48,1,3,3) (141)     
                                                                        W: conv2d_72_bias                    (1,1,1,48) (144)     
                                                                        O: conv2d_72_output                  (1,6,6,48) (162)     
------ ---------------------- ---- ------------------- --------- ------ ------------------------------------ -------------------- 
80     conv2d_73              73   conv2d              82992     2496   I: conv2d_72_output                  (1,6,6,48) (162)     
                                                                        S: conv2d_73_scratch0                                     
                                                                        W: conv2d_73_weights                 (48,48,1,1) (147)    
                                                                        W: conv2d_73_bias                    (1,1,1,48) (150)     
                                                                        O: conv2d_73_output                  (1,6,6,48) (164)     
------ ---------------------- ---- ------------------- --------- ------ ------------------------------------ -------------------- 
81     gather_69              69   gather              0         192    I: concat_68_output                  (1,6,6,96) (156)     
                                                                        W: gather_39_indices                 (1,1,48,1) (49)      
                                                                        O: gather_69_output                  (1,6,6,48) (165)     
------ ---------------------- ---- ------------------- --------- ------ ------------------------------------ -------------------- 
82     concat_74              74   concat              0         0      I: gather_69_output                  (1,6,6,48) (165)     
                                                                        I: conv2d_73_output                  (1,6,6,48) (164)     
                                                                        O: concat_74_output                  (1,6,6,96) (167)     
------ ---------------------- ---- ------------------- --------- ------ ------------------------------------ -------------------- 
83     gather_76              76   gather              0         192    I: concat_74_output                  (1,6,6,96) (167)     
                                                                        W: gather_40_indices                 (1,1,48,1) (42)      
                                                                        O: gather_76_output                  (1,6,6,48) (168)     
------ ---------------------- ---- ------------------- --------- ------ ------------------------------------ -------------------- 
84     conv2d_77              77   conv2d              82992     2496   I: gather_76_output                  (1,6,6,48) (168)     
                                                                        S: conv2d_77_scratch0                                     
                                                                        W: conv2d_77_weights                 (48,48,1,1) (157)    
                                                                        W: conv2d_77_bias                    (1,1,1,48) (160)     
                                                                        O: conv2d_77_output                  (1,6,6,48) (170)     
------ ---------------------- ---- ------------------- --------- ------ ------------------------------------ -------------------- 
85     conv2d_78_pad_before   78   pad                 0         0      I: conv2d_77_output                  (1,6,6,48) (170)     
                                                                        O: conv2d_78_pad_before_output       (1,8,8,48) (171)     
------ ---------------------- ---- ------------------- --------- ------ ------------------------------------ -------------------- 
86     conv2d_78              78   conv2d              15600     624    I: conv2d_78_pad_before_output       (1,8,8,48) (171)     
                                                                        S: conv2d_78_scratch0                                     
                                                                        W: conv2d_78_weights                 (48,1,3,3) (163)     
                                                                        W: conv2d_78_bias                    (1,1,1,48) (166)     
                                                                        O: conv2d_78_output                  (1,6,6,48) (173)     
------ ---------------------- ---- ------------------- --------- ------ ------------------------------------ -------------------- 
87     conv2d_79              79   conv2d              82992     2496   I: conv2d_78_output                  (1,6,6,48) (173)     
                                                                        S: conv2d_79_scratch0                                     
                                                                        W: conv2d_79_weights                 (48,48,1,1) (169)    
                                                                        W: conv2d_79_bias                    (1,1,1,48) (172)     
                                                                        O: conv2d_79_output                  (1,6,6,48) (174)     
------ ---------------------- ---- ------------------- --------- ------ ------------------------------------ -------------------- 
88     gather_75              75   gather              0         192    I: concat_74_output                  (1,6,6,96) (167)     
                                                                        W: gather_39_indices                 (1,1,48,1) (49)      
                                                                        O: gather_75_output                  (1,6,6,48) (175)     
------ ---------------------- ---- ------------------- --------- ------ ------------------------------------ -------------------- 
89     concat_80              80   concat              0         0      I: gather_75_output                  (1,6,6,48) (175)     
                                                                        I: conv2d_79_output                  (1,6,6,48) (174)     
                                                                        O: concat_80_output                  (1,6,6,96) (176)     
------ ---------------------- ---- ------------------- --------- ------ ------------------------------------ -------------------- 



Number of operations per c-layer
------- ------ ----------------------------- ----------- ------------- -------- ---------- 
c_id    m_id   name (type)                           #op          type   #param   sparsity 
------- ------ ----------------------------- ----------- ------------- -------- ---------- 
0       0      conversion_0 (converter)           55,296    smul_u8_s8          
1       1      conv2d_2 (optimized_conv2d)     1,493,016    smul_s8_s8      672     0.0030 
2       3      pad_3 (pad)                             0    smul_s8_s8          
3       4      pool_4 (pool)                     124,416      op_s8_s8          
4       7      conv2d_10_pad_before (pad)              0    smul_s8_s8          
5       10     conv2d_10 (conv2d)                 31,128    smul_s8_s8      240     0.0292 
6       11     conv2d_11 (conv2d)                 82,968    smul_s8_s8      600     0.0133 
7       5      conv2d_5 (conv2d)                 331,800    smul_s8_s8      600     0.0283 
8       6      conv2d_8_pad_before (pad)               0    smul_s8_s8          
9       8      conv2d_8 (conv2d)                  31,128    smul_s8_s8      240     0.0083 
10      9      conv2d_9 (conv2d)                  82,968    smul_s8_s8      600     0.0183 
11      12     concat_12 (concat)                      0      op_s8_s8          
12      17     gather_17 (gather)                      0   smul_s8_s32       24     0.0417 
13      13     gather_13 (gather)                      0   smul_s8_s32       24     0.0000 
14      14     conv2d_14 (conv2d)                 82,968    smul_s8_s8      600     0.0100 
15      15     conv2d_15_pad_before (pad)              0    smul_s8_s8          
16      15     conv2d_15 (conv2d)                 31,128    smul_s8_s8      240     0.0208 
17      16     conv2d_16 (conv2d)                 82,968    smul_s8_s8      600     0.0200 
18      18     concat_18 (concat)                      0      op_s8_s8          
19      20     gather_20 (gather)                      0   smul_s8_s32       24     0.0000 
20      21     conv2d_21 (conv2d)                 82,968    smul_s8_s8      600     0.0183 
21      22     conv2d_22_pad_before (pad)              0    smul_s8_s8          
22      22     conv2d_22 (conv2d)                 31,128    smul_s8_s8      240     0.0083 
23      23     conv2d_23 (conv2d)                 82,968    smul_s8_s8      600     0.0050 
24      19     gather_19 (gather)                      0   smul_s8_s32       24     0.0417 
25      24     concat_24 (concat)                      0      op_s8_s8          
26      26     gather_26 (gather)                      0   smul_s8_s32       24     0.0000 
27      27     conv2d_27 (conv2d)                 82,968    smul_s8_s8      600     0.0167 
28      28     conv2d_28_pad_before (pad)              0    smul_s8_s8          
29      28     conv2d_28 (conv2d)                 31,128    smul_s8_s8      240     0.0125 
30      29     conv2d_29 (conv2d)                 82,968    smul_s8_s8      600     0.0050 
31      25     gather_25 (gather)                      0   smul_s8_s32       24     0.0417 
32      30     concat_30 (concat)                      0      op_s8_s8          
33      35     conv2d_36_pad_before (pad)              0    smul_s8_s8          
34      36     conv2d_36 (conv2d)                 15,600    smul_s8_s8      480     0.0062 
35      37     conv2d_37 (conv2d)                 82,992    smul_s8_s8    2,352     0.0081 
36      31     conv2d_31 (conv2d)                331,824    smul_s8_s8    2,352     0.0068 
37      32     conv2d_33_pad_before (pad)              0    smul_s8_s8          
38      33     conv2d_33 (conv2d)                 15,600    smul_s8_s8      480     0.0000 
39      34     conv2d_34 (conv2d)                 82,992    smul_s8_s8    2,352     0.0094 
40      38     concat_38 (concat)                      0      op_s8_s8          
41      40     gather_40 (gather)                      0   smul_s8_s32       48     0.0000 
42      41     conv2d_41 (conv2d)                 82,992    smul_s8_s8    2,352     0.0098 
43      42     conv2d_42_pad_before (pad)              0    smul_s8_s8          
44      42     conv2d_42 (conv2d)                 15,600    smul_s8_s8      480     0.0042 
45      43     conv2d_43 (conv2d)                 82,992    smul_s8_s8    2,352     0.0106 
46      39     gather_39 (gather)                      0   smul_s8_s32       48     0.0208 
47      44     concat_44 (concat)                      0      op_s8_s8          
48      46     gather_46 (gather)                      0   smul_s8_s32       48     0.0000 
49      47     conv2d_47 (conv2d)                 82,992    smul_s8_s8    2,352     0.0060 
50      48     conv2d_48_pad_before (pad)              0    smul_s8_s8          
51      48     conv2d_48 (conv2d)                 15,600    smul_s8_s8      480     0.0083 
52      49     conv2d_49 (conv2d)                 82,992    smul_s8_s8    2,352     0.0081 
53      45     gather_45 (gather)                      0   smul_s8_s32       48     0.0208 
54      50     concat_50 (concat)                      0      op_s8_s8          
55      52     gather_52 (gather)                      0   smul_s8_s32       48     0.0000 
56      53     conv2d_53 (conv2d)                 82,992    smul_s8_s8    2,352     0.0153 
57      54     conv2d_54_pad_before (pad)              0    smul_s8_s8          
58      54     conv2d_54 (conv2d)                 15,600    smul_s8_s8      480     0.0167 
59      55     conv2d_55 (conv2d)                 82,992    smul_s8_s8    2,352     0.0077 
60      51     gather_51 (gather)                      0   smul_s8_s32       48     0.0208 
61      56     concat_56 (concat)                      0      op_s8_s8          
62      58     gather_58 (gather)                      0   smul_s8_s32       48     0.0000 
63      59     conv2d_59 (conv2d)                 82,992    smul_s8_s8    2,352     0.0081 
64      60     conv2d_60_pad_before (pad)              0    smul_s8_s8          
65      60     conv2d_60 (conv2d)                 15,600    smul_s8_s8      480     0.0083 
66      61     conv2d_61 (conv2d)                 82,992    smul_s8_s8    2,352     0.0043 
67      57     gather_57 (gather)                      0   smul_s8_s32       48     0.0208 
68      62     concat_62 (concat)                      0      op_s8_s8          
69      64     gather_64 (gather)                      0   smul_s8_s32       48     0.0000 
70      65     conv2d_65 (conv2d)                 82,992    smul_s8_s8    2,352     0.0089 
71      66     conv2d_66_pad_before (pad)              0    smul_s8_s8          
72      66     conv2d_66 (conv2d)                 15,600    smul_s8_s8      480     0.0083 
73      67     conv2d_67 (conv2d)                 82,992    smul_s8_s8    2,352     0.0077 
74      63     gather_63 (gather)                      0   smul_s8_s32       48     0.0208 
75      68     concat_68 (concat)                      0      op_s8_s8          
76      70     gather_70 (gather)                      0   smul_s8_s32       48     0.0000 
77      71     conv2d_71 (conv2d)                 82,992    smul_s8_s8    2,352     0.0077 
78      72     conv2d_72_pad_before (pad)              0    smul_s8_s8          
79      72     conv2d_72 (conv2d)                 15,600    smul_s8_s8      480     0.0062 
80      73     conv2d_73 (conv2d)                 82,992    smul_s8_s8    2,352     0.0068 
81      69     gather_69 (gather)                      0   smul_s8_s32       48     0.0208 
82      74     concat_74 (concat)                      0      op_s8_s8          
83      76     gather_76 (gather)                      0   smul_s8_s32       48     0.0000 
84      77     conv2d_77 (conv2d)                 82,992    smul_s8_s8    2,352     0.0089 
85      78     conv2d_78_pad_before (pad)              0    smul_s8_s8          
86      78     conv2d_78 (conv2d)                 15,600    smul_s8_s8      480     0.0042 
87      79     conv2d_79 (conv2d)                 82,992    smul_s8_s8    2,352     0.0077 
88      75     gather_75 (gather)                      0   smul_s8_s32       48     0.0208 
89      80     concat_80 (concat)                      0      op_s8_s8          
------- ------ ----------------------------- ----------- ------------- -------- ---------- 
total                                          4,624,008                 52,392     0.0091 

Number of operation types
---------------- ----------- ----------- 
operation type             #           % 
---------------- ----------- ----------- 
smul_u8_s8            55,296        1.2% 
smul_s8_s8         4,444,296       96.1% 
op_s8_s8             124,416        2.7% 
smul_s8_s32                0        0.0% 

Complexity report (model)
------ -------------------------- ------------------------- ------------------------- ---------- 
m_id   name                       c_macc                    c_rom                     c_id       
------ -------------------------- ------------------------- ------------------------- ---------- 
0      serving_default_input_10   |                  1.2%   |                  0.0%   [0]        
1      pad_1                      ||||||||||||||||  32.3%   |||||              1.3%   [1]        
3      pad_3                      |                  0.0%   |                  0.0%   [2]        
4      pool_4                     ||                 2.7%   |                  0.0%   [3]        
5      conv2d_5                   ||||               7.2%   |||||              1.2%   [7]        
6      pad_6                      |                  0.0%   |                  0.0%   [8]        
7      pad_7                      |                  0.0%   |                  0.0%   [4]        
8      conv2d_8                   |                  0.7%   ||                 0.5%   [9]        
9      conv2d_9                   |                  1.8%   |||||              1.2%   [10]       
10     conv2d_10                  |                  0.7%   ||                 0.5%   [5]        
11     conv2d_11                  |                  1.8%   |||||              1.2%   [6]        
12     concat_12                  |                  0.0%   |                  0.0%   [11]       
13     gather_13                  |                  0.0%   |                  0.2%   [13]       
14     conv2d_14                  |                  1.8%   |||||              1.2%   [14]       
15     conv2d_15                  |                  0.7%   ||                 0.5%   [15, 16]   
16     conv2d_16                  |                  1.8%   |||||              1.2%   [17]       
17     gather_17                  |                  0.0%   |                  0.2%   [12]       
18     concat_18                  |                  0.0%   |                  0.0%   [18]       
19     gather_19                  |                  0.0%   |                  0.2%   [24]       
20     gather_20                  |                  0.0%   |                  0.2%   [19]       
21     conv2d_21                  |                  1.8%   |||||              1.2%   [20]       
22     conv2d_22                  |                  0.7%   ||                 0.5%   [21, 22]   
23     conv2d_23                  |                  1.8%   |||||              1.2%   [23]       
24     concat_24                  |                  0.0%   |                  0.0%   [25]       
25     gather_25                  |                  0.0%   |                  0.2%   [31]       
26     gather_26                  |                  0.0%   |                  0.2%   [26]       
27     conv2d_27                  |                  1.8%   |||||              1.2%   [27]       
28     conv2d_28                  |                  0.7%   ||                 0.5%   [28, 29]   
29     conv2d_29                  |                  1.8%   |||||              1.2%   [30]       
30     concat_30                  |                  0.0%   |                  0.0%   [32]       
31     conv2d_31                  ||||               7.2%   ||||||||||||||||   4.4%   [36]       
32     pad_32                     |                  0.0%   |                  0.0%   [37]       
33     conv2d_33                  |                  0.3%   ||||               1.1%   [38]       
34     conv2d_34                  |                  1.8%   ||||||||||||||||   4.4%   [39]       
35     pad_35                     |                  0.0%   |                  0.0%   [33]       
36     conv2d_36                  |                  0.3%   ||||               1.1%   [34]       
37     conv2d_37                  |                  1.8%   ||||||||||||||||   4.4%   [35]       
38     concat_38                  |                  0.0%   |                  0.0%   [40]       
39     gather_39                  |                  0.0%   ||                 0.3%   [46]       
40     gather_40                  |                  0.0%   ||                 0.3%   [41]       
41     conv2d_41                  |                  1.8%   ||||||||||||||||   4.4%   [42]       
42     conv2d_42                  |                  0.3%   ||||               1.1%   [43, 44]   
43     conv2d_43                  |                  1.8%   ||||||||||||||||   4.4%   [45]       
44     concat_44                  |                  0.0%   |                  0.0%   [47]       
45     gather_45                  |                  0.0%   ||                 0.3%   [53]       
46     gather_46                  |                  0.0%   ||                 0.3%   [48]       
47     conv2d_47                  |                  1.8%   ||||||||||||||||   4.4%   [49]       
48     conv2d_48                  |                  0.3%   ||||               1.1%   [50, 51]   
49     conv2d_49                  |                  1.8%   ||||||||||||||||   4.4%   [52]       
50     concat_50                  |                  0.0%   |                  0.0%   [54]       
51     gather_51                  |                  0.0%   ||                 0.3%   [60]       
52     gather_52                  |                  0.0%   ||                 0.3%   [55]       
53     conv2d_53                  |                  1.8%   ||||||||||||||||   4.4%   [56]       
54     conv2d_54                  |                  0.3%   ||||               1.1%   [57, 58]   
55     conv2d_55                  |                  1.8%   ||||||||||||||||   4.4%   [59]       
56     concat_56                  |                  0.0%   |                  0.0%   [61]       
57     gather_57                  |                  0.0%   ||                 0.3%   [67]       
58     gather_58                  |                  0.0%   ||                 0.3%   [62]       
59     conv2d_59                  |                  1.8%   ||||||||||||||||   4.4%   [63]       
60     conv2d_60                  |                  0.3%   ||||               1.1%   [64, 65]   
61     conv2d_61                  |                  1.8%   ||||||||||||||||   4.4%   [66]       
62     concat_62                  |                  0.0%   |                  0.0%   [68]       
63     gather_63                  |                  0.0%   ||                 0.3%   [74]       
64     gather_64                  |                  0.0%   ||                 0.3%   [69]       
65     conv2d_65                  |                  1.8%   ||||||||||||||||   4.4%   [70]       
66     conv2d_66                  |                  0.3%   ||||               1.1%   [71, 72]   
67     conv2d_67                  |                  1.8%   ||||||||||||||||   4.4%   [73]       
68     concat_68                  |                  0.0%   |                  0.0%   [75]       
69     gather_69                  |                  0.0%   ||                 0.3%   [81]       
70     gather_70                  |                  0.0%   ||                 0.3%   [76]       
71     conv2d_71                  |                  1.8%   ||||||||||||||||   4.4%   [77]       
72     conv2d_72                  |                  0.3%   ||||               1.1%   [78, 79]   
73     conv2d_73                  |                  1.8%   ||||||||||||||||   4.4%   [80]       
74     concat_74                  |                  0.0%   |                  0.0%   [82]       
75     gather_75                  |                  0.0%   ||                 0.3%   [88]       
76     gather_76                  |                  0.0%   ||                 0.3%   [83]       
77     conv2d_77                  |                  1.8%   ||||||||||||||||   4.4%   [84]       
78     conv2d_78                  |                  0.3%   ||||               1.1%   [85, 86]   
79     conv2d_79                  |                  1.8%   ||||||||||||||||   4.4%   [87]       
80     concat_80                  |                  0.0%   |                  0.0%   [89]       
------ -------------------------- ------------------------- ------------------------- ---------- 
macc=4,624,008 weights=56,976 act=63,516 ram_io=0

Generated files (7)
---------------------------------------------------------------------- 
C:\Users\kyuliea\.stm32cubemx\network_output\network_1_config.h        
C:\Users\kyuliea\.stm32cubemx\network_output\network_1.h               
C:\Users\kyuliea\.stm32cubemx\network_output\network_1.c               
C:\Users\kyuliea\.stm32cubemx\network_output\network_1_data_params.h   
C:\Users\kyuliea\.stm32cubemx\network_output\network_1_data_params.c   
C:\Users\kyuliea\.stm32cubemx\network_output\network_1_data.h          
C:\Users\kyuliea\.stm32cubemx\network_output\network_1_data.c          
