Neural Network Tools for STM32AI v1.7.0 (STM.ai v8.0.1-19451)
Created date          : 2024-03-25 12:17:46
Parameters            : generate --name network_2 -m results/deploy\food-101_0002\tflite\model_post.tflite --type tflite --compression none --verbosity 1 --workspace results/deploy\food-101_0002\temp --output results/deploy\food-101_0002\Edge_AI\model --allocate-inputs --series stm32h7 --allocate-outputs

Exec/report summary (generate)
------------------------------------------------------------------------------------------------------------------------------------------------
model file         :   F:\MyWork\PyWork\gd32ai-modelzoo\image_classification\ml_fastvit\results\deploy\food-101_0002\tflite\model_post.tflite   
type               :   tflite                                                                                                                   
c_name             :   network_2                                                                                                                
compression        :   none                                                                                                                     
options            :   allocate-inputs, allocate-outputs                                                                                        
optimization       :   balanced                                                                                                                 
target/series      :   stm32h7                                                                                                                  
workspace dir      :   F:\MyWork\PyWork\gd32ai-modelzoo\image_classification\ml_fastvit\results\deploy\food-101_0002\temp                       
output dir         :   F:\MyWork\PyWork\gd32ai-modelzoo\image_classification\ml_fastvit\results\deploy\food-101_0002\Edge_AI\model              
model_fmt          :   ss/sa per-channel                                                                                                        
model_name         :   model_post                                                                                                               
model_hash         :   07f1c64b3ca5370c60c7abb2caedad29                                                                                         
params #           :   256,734 items (259.52 KiB)                                                                                               
------------------------------------------------------------------------------------------------------------------------------------------------
input 1/1          :   'serving_default_input_20' (domain:activations/**default**)                                                              
                   :   37632 items, 36.75 KiB, ai_i8, s=0.07568943, zp=12, (1,28,28,48)                                                         
output 1/1         :   'conversion_55' (domain:activations/**default**)                                                                         
                   :   101 items, 404 B, ai_float, float, (1,1,1,101)                                                                           
macc               :   18,896,031                                                                                                               
weights (ro)       :   265,752 B (259.52 KiB) (1 segment) / -761,184(-74.1%) vs float model                                                     
activations (rw)   :   73,108 B (71.39 KiB) (1 segment) *                                                                                       
ram (total)        :   73,108 B (71.39 KiB) = 73,108 + 0 + 0                                                                                    
------------------------------------------------------------------------------------------------------------------------------------------------
(*) 'input'/'output' buffers can be used from the activations buffer

Model name - model_post ['serving_default_input_20'] ['conversion_55']
------ ------------------------------------------------------------------ -------------------------- --------------- ----------- -------------------------------------------------- --- ------------------ ------------------- ---------------------------- 
m_id   layer (type,original)                                              oshape                     param/size             macc                                       connected to   | c_size             c_macc              c_type                       
------ ------------------------------------------------------------------ -------------------------- --------------- ----------- -------------------------------------------------- --- ------------------ ------------------- ---------------------------- 
0      serving_default_input_20 (Input, )                                 [b:1,h:28,w:28,c:48]                                                                                        |                                        pad_oi8[0]                   
       pad_0 (Pad, PAD)                                                   [b:1,h:34,w:34,c:48]                                                             serving_default_input_20   |                                        
------ ------------------------------------------------------------------ -------------------------- --------------- ----------- -------------------------------------------------- --- ------------------ ------------------- ---------------------------- 
1      conv2d_1 (Conv2D, DEPTHWISE_CONV_2D)                               [b:1,h:14,w:14,c:48]       2,400/2,544         461,040                                              pad_0   |                                        conv2d_oi8[2]                
------ ------------------------------------------------------------------ -------------------------- --------------- ----------- -------------------------------------------------- --- ------------------ ------------------- ---------------------------- 
2      reshape_2 (Reshape, RESHAPE)                                       [b:1,h:1,w:14,d:14,c:48]                                                                         conv2d_1   |                                        
------ ------------------------------------------------------------------ -------------------------- --------------- ----------- -------------------------------------------------- --- ------------------ ------------------- ---------------------------- 
3      conv2d_3 (Conv2D, DEPTHWISE_CONV_2D)                               [b:1,h:14,w:14,c:48]       2,400/2,544         461,040                                              pad_0   |                                        conv2d_oi8[1]                
------ ------------------------------------------------------------------ -------------------------- --------------- ----------- -------------------------------------------------- --- ------------------ ------------------- ---------------------------- 
4      reshape_4 (Reshape, RESHAPE)                                       [b:1,h:1,w:14,d:14,c:48]                                                                         conv2d_3   |                                        
------ ------------------------------------------------------------------ -------------------------- --------------- ----------- -------------------------------------------------- --- ------------------ ------------------- ---------------------------- 
5      concat_5 (Concat, CONCATENATION)                                   [b:1,h:2,w:14,d:14,c:48]                                                                        reshape_2   |                                        concat_oi8[3]                
                                                                                                                                                                          reshape_4   | 
------ ------------------------------------------------------------------ -------------------------- --------------- ----------- -------------------------------------------------- --- ------------------ ------------------- ---------------------------- 
6      transpose_6 (Transpose, TRANSPOSE)                                 [b:1,h:48,w:2,d:14,c:14]                                                                         concat_5   |                                        transpose_oi8[4]             
------ ------------------------------------------------------------------ -------------------------- --------------- ----------- -------------------------------------------------- --- ------------------ ------------------- ---------------------------- 
7      reshape_7 (Reshape, RESHAPE)                                       [b:1,h:96,w:14,c:14]                                                                          transpose_6   |                                        
------ ------------------------------------------------------------------ -------------------------- --------------- ----------- -------------------------------------------------- --- ------------------ ------------------- ---------------------------- 
8      transpose_8 (Transpose, TRANSPOSE)                                 [b:1,h:14,w:14,c:96]                                                                            reshape_7   |                                        transpose_oi8[5]             
------ ------------------------------------------------------------------ -------------------------- --------------- ----------- -------------------------------------------------- --- ------------------ ------------------- ---------------------------- 
9      conv2d_9 (Conv2D, CONV_2D)                                         [b:1,h:14,w:14,c:96]       9,312/9,600       1,806,432                                        transpose_8   |                                        conv2d_oi8[6]                
       nl_9_nl (Nonlinearity, CONV_2D)                                    [b:1,h:14,w:14,c:96]                            18,816                                           conv2d_9   |                    -18,816(-100.0%)    
------ ------------------------------------------------------------------ -------------------------- --------------- ----------- -------------------------------------------------- --- ------------------ ------------------- ---------------------------- 
10     conv2d_10 (Conv2D, DEPTHWISE_CONV_2D)                              [b:1,h:14,w:14,c:96]       960/1,248           169,440                                            nl_9_nl   |                                        pad_oi8/conv2d_oi8[7, 8]     
------ ------------------------------------------------------------------ -------------------------- --------------- ----------- -------------------------------------------------- --- ------------------ ------------------- ---------------------------- 
11     pad_11 (Pad, PAD)                                                  [b:1,h:20,w:20,c:96]                                                                            conv2d_10   | +5,088(+100.0%)    +922,080(+100.0%)   conv2d_oi8[9]                
------ ------------------------------------------------------------------ -------------------------- --------------- ----------- -------------------------------------------------- --- ------------------ ------------------- ---------------------------- 
12     conv2d_12 (Conv2D, DEPTHWISE_CONV_2D)                              [b:1,h:14,w:14,c:96]       4,800/5,088         922,080                                             pad_11   | -5,088(-100.0%)    -922,080(-100.0%)   
------ ------------------------------------------------------------------ -------------------------- --------------- ----------- -------------------------------------------------- --- ------------------ ------------------- ---------------------------- 
13     conv2d_13 (Conv2D, CONV_2D)                                        [b:1,h:14,w:14,c:96]       9,312/9,600       1,806,432                                          conv2d_12   |                                        conv2d_oi8[10]               
       nl_13_nl (Nonlinearity, CONV_2D)                                   [b:1,h:14,w:14,c:96]                            18,816                                          conv2d_13   |                    -18,816(-100.0%)    
------ ------------------------------------------------------------------ -------------------------- --------------- ----------- -------------------------------------------------- --- ------------------ ------------------- ---------------------------- 
14     conv2d_14 (Conv2D, CONV_2D)                                        [b:1,h:14,w:14,c:96]       9,312/9,600       1,806,432                                           nl_13_nl   |                                        conv2d_oi8[11]               
------ ------------------------------------------------------------------ -------------------------- --------------- ----------- -------------------------------------------------- --- ------------------ ------------------- ---------------------------- 
15     eltwise_15 (Eltwise, ADD)                                          [b:1,h:14,w:14,c:96]                            18,816                                          conv2d_10   |                                        eltwise_integer_oi8[12]      
                                                                                                                                                                          conv2d_14   | 
------ ------------------------------------------------------------------ -------------------------- --------------- ----------- -------------------------------------------------- --- ------------------ ------------------- ---------------------------- 
16     conv2d_16 (Conv2D, DEPTHWISE_CONV_2D)                              [b:1,h:14,w:14,c:96]       960/1,248           169,440                                         eltwise_15   |                                        pad_oi8/conv2d_oi8[13, 14]   
------ ------------------------------------------------------------------ -------------------------- --------------- ----------- -------------------------------------------------- --- ------------------ ------------------- ---------------------------- 
17     pad_17 (Pad, PAD)                                                  [b:1,h:20,w:20,c:96]                                                                            conv2d_16   | +5,088(+100.0%)    +922,080(+100.0%)   conv2d_oi8[15]               
------ ------------------------------------------------------------------ -------------------------- --------------- ----------- -------------------------------------------------- --- ------------------ ------------------- ---------------------------- 
18     conv2d_18 (Conv2D, DEPTHWISE_CONV_2D)                              [b:1,h:14,w:14,c:96]       4,800/5,088         922,080                                             pad_17   | -5,088(-100.0%)    -922,080(-100.0%)   
------ ------------------------------------------------------------------ -------------------------- --------------- ----------- -------------------------------------------------- --- ------------------ ------------------- ---------------------------- 
19     conv2d_19 (Conv2D, CONV_2D)                                        [b:1,h:14,w:14,c:96]       9,312/9,600       1,806,432                                          conv2d_18   |                                        conv2d_oi8[16]               
       nl_19_nl (Nonlinearity, CONV_2D)                                   [b:1,h:14,w:14,c:96]                            18,816                                          conv2d_19   |                    -18,816(-100.0%)    
------ ------------------------------------------------------------------ -------------------------- --------------- ----------- -------------------------------------------------- --- ------------------ ------------------- ---------------------------- 
20     conv2d_20 (Conv2D, CONV_2D)                                        [b:1,h:14,w:14,c:96]       9,312/9,600       1,806,432                                           nl_19_nl   |                                        conv2d_oi8[17]               
------ ------------------------------------------------------------------ -------------------------- --------------- ----------- -------------------------------------------------- --- ------------------ ------------------- ---------------------------- 
21     eltwise_21 (Eltwise, ADD)                                          [b:1,h:14,w:14,c:96]                            18,816                                          conv2d_16   |                                        eltwise_integer_oi8[18]      
                                                                                                                                                                          conv2d_20   | 
------ ------------------------------------------------------------------ -------------------------- --------------- ----------- -------------------------------------------------- --- ------------------ ------------------- ---------------------------- 
22     pad_22 (Pad, PAD)                                                  [b:1,h:20,w:20,c:96]                                                                           eltwise_21   |                                        pad_oi8[19]                  
------ ------------------------------------------------------------------ -------------------------- --------------- ----------- -------------------------------------------------- --- ------------------ ------------------- ---------------------------- 
23     conv2d_23 (Conv2D, DEPTHWISE_CONV_2D)                              [b:1,h:7,w:7,c:96]         4,800/5,088         230,592                                             pad_22   |                                        conv2d_oi8[21]               
------ ------------------------------------------------------------------ -------------------------- --------------- ----------- -------------------------------------------------- --- ------------------ ------------------- ---------------------------- 
24     reshape_24 (Reshape, RESHAPE)                                      [b:1,h:1,w:7,d:7,c:96]                                                                          conv2d_23   |                                        
------ ------------------------------------------------------------------ -------------------------- --------------- ----------- -------------------------------------------------- --- ------------------ ------------------- ---------------------------- 
25     conv2d_25 (Conv2D, DEPTHWISE_CONV_2D)                              [b:1,h:7,w:7,c:96]         4,800/5,088         230,592                                             pad_22   |                                        conv2d_oi8[20]               
------ ------------------------------------------------------------------ -------------------------- --------------- ----------- -------------------------------------------------- --- ------------------ ------------------- ---------------------------- 
26     reshape_26 (Reshape, RESHAPE)                                      [b:1,h:1,w:7,d:7,c:96]                                                                          conv2d_25   |                                        
------ ------------------------------------------------------------------ -------------------------- --------------- ----------- -------------------------------------------------- --- ------------------ ------------------- ---------------------------- 
27     concat_27 (Concat, CONCATENATION)                                  [b:1,h:2,w:7,d:7,c:96]                                                                         reshape_24   |                                        concat_oi8[22]               
                                                                                                                                                                         reshape_26   | 
------ ------------------------------------------------------------------ -------------------------- --------------- ----------- -------------------------------------------------- --- ------------------ ------------------- ---------------------------- 
28     transpose_28 (Transpose, TRANSPOSE)                                [b:1,h:96,w:2,d:7,c:7]                                                                          concat_27   |                                        transpose_oi8[23]            
------ ------------------------------------------------------------------ -------------------------- --------------- ----------- -------------------------------------------------- --- ------------------ ------------------- ---------------------------- 
29     reshape_29 (Reshape, RESHAPE)                                      [b:1,h:192,w:7,c:7]                                                                          transpose_28   |                                        
------ ------------------------------------------------------------------ -------------------------- --------------- ----------- -------------------------------------------------- --- ------------------ ------------------- ---------------------------- 
30     transpose_30 (Transpose, TRANSPOSE)                                [b:1,h:7,w:7,c:192]                                                                            reshape_29   |                                        transpose_oi8[24]            
------ ------------------------------------------------------------------ -------------------------- --------------- ----------- -------------------------------------------------- --- ------------------ ------------------- ---------------------------- 
31     conv2d_31 (Conv2D, CONV_2D)                                        [b:1,h:7,w:7,c:192]        37,056/37,632     1,806,528                                       transpose_30   |                                        conv2d_oi8[25]               
       nl_31_nl (Nonlinearity, CONV_2D)                                   [b:1,h:7,w:7,c:192]                              9,408                                          conv2d_31   |                    -9,408(-100.0%)     
------ ------------------------------------------------------------------ -------------------------- --------------- ----------- -------------------------------------------------- --- ------------------ ------------------- ---------------------------- 
32     conv2d_32 (Conv2D, DEPTHWISE_CONV_2D)                              [b:1,h:7,w:7,c:192]        1,920/2,496          84,864                                           nl_31_nl   |                                        pad_oi8/conv2d_oi8[26, 27]   
------ ------------------------------------------------------------------ -------------------------- --------------- ----------- -------------------------------------------------- --- ------------------ ------------------- ---------------------------- 
33     pad_33 (Pad, PAD)                                                  [b:1,h:13,w:13,c:192]                                                                           conv2d_32   | +10,176(+100.0%)   +461,184(+100.0%)   conv2d_oi8[28]               
------ ------------------------------------------------------------------ -------------------------- --------------- ----------- -------------------------------------------------- --- ------------------ ------------------- ---------------------------- 
34     conv2d_34 (Conv2D, DEPTHWISE_CONV_2D)                              [b:1,h:7,w:7,c:192]        9,600/10,176        461,184                                             pad_33   | -10,176(-100.0%)   -461,184(-100.0%)   
------ ------------------------------------------------------------------ -------------------------- --------------- ----------- -------------------------------------------------- --- ------------------ ------------------- ---------------------------- 
35     conv2d_35 (Conv2D, CONV_2D)                                        [b:1,h:7,w:7,c:192]        37,056/37,632     1,806,528                                          conv2d_34   |                                        conv2d_oi8[29]               
       nl_35_nl (Nonlinearity, CONV_2D)                                   [b:1,h:7,w:7,c:192]                              9,408                                          conv2d_35   |                    -9,408(-100.0%)     
------ ------------------------------------------------------------------ -------------------------- --------------- ----------- -------------------------------------------------- --- ------------------ ------------------- ---------------------------- 
36     conv2d_36 (Conv2D, CONV_2D)                                        [b:1,h:7,w:7,c:192]        37,056/37,632     1,806,528                                           nl_35_nl   |                                        conv2d_oi8[30]               
------ ------------------------------------------------------------------ -------------------------- --------------- ----------- -------------------------------------------------- --- ------------------ ------------------- ---------------------------- 
37     eltwise_37 (Eltwise, ADD)                                          [b:1,h:7,w:7,c:192]                              9,408                                          conv2d_32   |                                        eltwise_integer_oi8[31]      
                                                                                                                                                                          conv2d_36   | 
------ ------------------------------------------------------------------ -------------------------- --------------- ----------- -------------------------------------------------- --- ------------------ ------------------- ---------------------------- 
38     conv2d_38 (Conv2D, DEPTHWISE_CONV_2D)                              [b:1,h:7,w:7,c:192]        1,920/2,496          84,864                                         eltwise_37   |                                        pad_oi8/conv2d_oi8[32, 33]   
------ ------------------------------------------------------------------ -------------------------- --------------- ----------- -------------------------------------------------- --- ------------------ ------------------- ---------------------------- 
39     reshape_39 (Reshape, RESHAPE)                                      [b:1,h:1,w:7,d:7,c:192]                                                                         conv2d_38   |                                        
------ ------------------------------------------------------------------ -------------------------- --------------- ----------- -------------------------------------------------- --- ------------------ ------------------- ---------------------------- 
40     conv2d_40 (Conv2D, DEPTHWISE_CONV_2D)                              [b:1,h:7,w:7,c:192]        1,920/2,496          84,864                                         eltwise_37   |                                        pad_oi8/conv2d_oi8[34, 35]   
------ ------------------------------------------------------------------ -------------------------- --------------- ----------- -------------------------------------------------- --- ------------------ ------------------- ---------------------------- 
41     reshape_41 (Reshape, RESHAPE)                                      [b:1,h:1,w:7,d:7,c:192]                                                                         conv2d_40   |                                        
------ ------------------------------------------------------------------ -------------------------- --------------- ----------- -------------------------------------------------- --- ------------------ ------------------- ---------------------------- 
42     concat_42 (Concat, CONCATENATION)                                  [b:1,h:2,w:7,d:7,c:192]                                                                        reshape_39   |                                        concat_oi8[36]               
                                                                                                                                                                         reshape_41   | 
------ ------------------------------------------------------------------ -------------------------- --------------- ----------- -------------------------------------------------- --- ------------------ ------------------- ---------------------------- 
43     transpose_43 (Transpose, TRANSPOSE)                                [b:1,h:192,w:2,d:7,c:7]                                                                         concat_42   |                                        transpose_oi8[37]            
------ ------------------------------------------------------------------ -------------------------- --------------- ----------- -------------------------------------------------- --- ------------------ ------------------- ---------------------------- 
44     reshape_44 (Reshape, RESHAPE)                                      [b:1,h:384,w:7,c:7]                                                                          transpose_43   |                                        
------ ------------------------------------------------------------------ -------------------------- --------------- ----------- -------------------------------------------------- --- ------------------ ------------------- ---------------------------- 
45     transpose_45 (Transpose, TRANSPOSE)                                [b:1,h:7,w:7,c:384]                                                                            reshape_44   |                                        transpose_oi8[38]            
------ ------------------------------------------------------------------ -------------------------- --------------- ----------- -------------------------------------------------- --- ------------------ ------------------- ---------------------------- 
46     pool_46 (Pool, AVERAGE_POOL_2D)                                    [b:1,h:1,w:1,c:384]                             18,816                                       transpose_45   |                                        pool_oi8[39]                 
------ ------------------------------------------------------------------ -------------------------- --------------- ----------- -------------------------------------------------- --- ------------------ ------------------- ---------------------------- 
47     conv2d_47 (Conv2D, CONV_2D)                                        [b:1,h:1,w:1,c:24]         9,240/9,312           9,240                                            pool_46   | -9,312(-100.0%)    -9,240(-100.0%)     
       nl_47_nl (Nonlinearity, CONV_2D)                                   [b:1,h:1,w:1,c:24]                                  24                                          conv2d_47   |                    -24(-100.0%)        
------ ------------------------------------------------------------------ -------------------------- --------------- ----------- -------------------------------------------------- --- ------------------ ------------------- ---------------------------- 
48     nl_48 (Nonlinearity, RELU6)                                        [b:1,h:1,w:1,c:24]                                  24                                           nl_47_nl   | +9,312(+100.0%)    +9,240(+38500.0%)   conv2d_oi8[40]               
------ ------------------------------------------------------------------ -------------------------- --------------- ----------- -------------------------------------------------- --- ------------------ ------------------- ---------------------------- 
49     conv2d_49 (Conv2D, CONV_2D)                                        [b:1,h:1,w:1,c:384]        9,600/10,752          9,600                                              nl_48   |                                        conv2d_oi8[41]               
------ ------------------------------------------------------------------ -------------------------- --------------- ----------- -------------------------------------------------- --- ------------------ ------------------- ---------------------------- 
50     model_1_tf_clip_by_value_clip_by_value_Minimum_y (Placeholder, )   []                         1/1                                                                              | +3(+300.0%)        +384(+100.0%)       eltwise_integer_oi8[42]      
       eltwise_50 (Eltwise, MINIMUM)                                      [b:1,h:1,w:1,c:384]                                384                                          conv2d_49   |                    -384(-100.0%)       
                                                                                                                                   model_1_tf_clip_by_value_clip_by_value_Minimum_y   | 
------ ------------------------------------------------------------------ -------------------------- --------------- ----------- -------------------------------------------------- --- ------------------ ------------------- ---------------------------- 
51     nl_51 (Nonlinearity, RELU)                                         [b:1,h:1,w:1,c:384]                                384                                         eltwise_50   |                                        nl_oi8[43]                   
------ ------------------------------------------------------------------ -------------------------- --------------- ----------- -------------------------------------------------- --- ------------------ ------------------- ---------------------------- 
52     eltwise_52 (Eltwise, MUL)                                          [b:1,h:7,w:7,c:384]                             18,816                                       transpose_45   |                                        eltwise_integer_oi8[44]      
                                                                                                                                                                              nl_51   | 
       nl_52_nl (Nonlinearity, MUL)                                       [b:1,h:7,w:7,c:384]                             18,816                                         eltwise_52   |                    -18,816(-100.0%)    
------ ------------------------------------------------------------------ -------------------------- --------------- ----------- -------------------------------------------------- --- ------------------ ------------------- ---------------------------- 
53     pool_53 (Pool, MEAN)                                               [b:1,h:1,w:1,c:384]                             18,816                                           nl_52_nl   |                                        pool_oi8[45]                 
------ ------------------------------------------------------------------ -------------------------- --------------- ----------- -------------------------------------------------- --- ------------------ ------------------- ---------------------------- 
54     reshape_54 (Reshape, FULLY_CONNECTED)                              [b:1,c:384]                                                                                       pool_53   | +39,188(+100.0%)   +38,885(+100.0%)    dense_oi8[46]                
       dense_54_dense (Dense, FULLY_CONNECTED)                            [b:1,c:101]                38,885/39,188        38,885                                         reshape_54   | -39,188(-100.0%)   -38,885(-100.0%)    
------ ------------------------------------------------------------------ -------------------------- --------------- ----------- -------------------------------------------------- --- ------------------ ------------------- ---------------------------- 
55     conversion_55 (Conversion, DEQUANTIZE)                             [b:1,c:101]                                        202                                     dense_54_dense   |                                        converter_of32[o][47]        
------ ------------------------------------------------------------------ -------------------------- --------------- ----------- -------------------------------------------------- --- ------------------ ------------------- ---------------------------- 
model/c-model: macc=18,990,135/18,896,031 -94,104(-0.5%) weights=265,749/265,752 +3(+0.0%) activations=--/73,108 io=--/0



Generated C-graph summary
------------------------------------------------------------------------------------------------------------------------
model name            : model_post
c-name                : network_2
c-node #              : 48
c-array #             : 125
activations size      : 73108 (1 segment)
weights size          : 265752 (1 segment)
macc                  : 18896031
inputs                : ['serving_default_input_20_output']
outputs               : ['conversion_55_output']

C-Arrays (125)
------ -------------------------------------------------- ------------- ------------------------- --------------- -------------- --------- 
c_id   name (*_array)                                     item/size     domain/mem-pool           c-type          fmt            comment   
------ -------------------------------------------------- ------------- ------------------------- --------------- -------------- --------- 
0      concat_42_output                                   18816/18816   activations/**default**   int8_t          sa8                      
1      transpose_43_output                                18816/18816   activations/**default**   int8_t          sa8                      
2      transpose_45_output                                18816/18816   activations/**default**   int8_t          sa8                      
3      pool_46_output                                     384/384       activations/**default**   int8_t          sa8                      
4      conv2d_47_output                                   24/24         activations/**default**   int8_t          sa8                      
5      conv2d_49_output                                   384/384       activations/**default**   int8_t          sa8                      
6      eltwise_50_output                                  384/384       activations/**default**   int8_t          sa8                      
7      nl_51_output                                       384/384       activations/**default**   int8_t          sa8                      
8      eltwise_52_output                                  18816/18816   activations/**default**   int8_t          sa8                      
9      pool_53_output                                     384/384       activations/**default**   int8_t          sa8                      
10     dense_54_dense_output                              101/101       activations/**default**   int8_t          sa8                      
11     conversion_55_output                               101/404       activations/**default**   float           float32        /output   
12     model_1_tf_clip_by_value_clip_by_value_Minimum_y   1/4           weights/weights           const int8_t    sa8                      
13     conv2d_3_weights                                   2352/2352     weights/weights           const int8_t    ss8/ch(48)               
14     conv2d_3_bias                                      48/192        weights/weights           const int32_t   ss32/ch(48)              
15     conv2d_1_weights                                   2352/2352     weights/weights           const int8_t    ss8/ch(48)               
16     conv2d_1_bias                                      48/192        weights/weights           const int32_t   ss32/ch(48)              
17     conv2d_9_weights                                   9216/9216     weights/weights           const int8_t    ss8/ch(96)               
18     conv2d_9_bias                                      96/384        weights/weights           const int32_t   ss32/ch(96)              
19     conv2d_10_weights                                  864/864       weights/weights           const int8_t    ss8/ch(96)               
20     conv2d_10_bias                                     96/384        weights/weights           const int32_t   ss32/ch(96)              
21     conv2d_12_weights                                  4704/4704     weights/weights           const int8_t    ss8/ch(96)               
22     conv2d_12_bias                                     96/384        weights/weights           const int32_t   ss32/ch(96)              
23     conv2d_13_weights                                  9216/9216     weights/weights           const int8_t    ss8/ch(96)               
24     conv2d_13_bias                                     96/384        weights/weights           const int32_t   ss32/ch(96)              
25     conv2d_14_weights                                  9216/9216     weights/weights           const int8_t    ss8/ch(96)               
26     conv2d_14_bias                                     96/384        weights/weights           const int32_t   ss32/ch(96)              
27     conv2d_16_weights                                  864/864       weights/weights           const int8_t    ss8/ch(96)               
28     conv2d_16_bias                                     96/384        weights/weights           const int32_t   ss32/ch(96)              
29     conv2d_18_weights                                  4704/4704     weights/weights           const int8_t    ss8/ch(96)               
30     conv2d_18_bias                                     96/384        weights/weights           const int32_t   ss32/ch(96)              
31     conv2d_19_weights                                  9216/9216     weights/weights           const int8_t    ss8/ch(96)               
32     conv2d_19_bias                                     96/384        weights/weights           const int32_t   ss32/ch(96)              
33     conv2d_20_weights                                  9216/9216     weights/weights           const int8_t    ss8/ch(96)               
34     conv2d_20_bias                                     96/384        weights/weights           const int32_t   ss32/ch(96)              
35     conv2d_25_weights                                  4704/4704     weights/weights           const int8_t    ss8/ch(96)               
36     conv2d_25_bias                                     96/384        weights/weights           const int32_t   ss32/ch(96)              
37     conv2d_23_weights                                  4704/4704     weights/weights           const int8_t    ss8/ch(96)               
38     conv2d_23_bias                                     96/384        weights/weights           const int32_t   ss32/ch(96)              
39     conv2d_31_weights                                  36864/36864   weights/weights           const int8_t    ss8/ch(192)              
40     conv2d_31_bias                                     192/768       weights/weights           const int32_t   ss32/ch(192)             
41     conv2d_32_weights                                  1728/1728     weights/weights           const int8_t    ss8/ch(192)              
42     conv2d_32_bias                                     192/768       weights/weights           const int32_t   ss32/ch(192)             
43     conv2d_34_weights                                  9408/9408     weights/weights           const int8_t    ss8/ch(192)              
44     conv2d_34_bias                                     192/768       weights/weights           const int32_t   ss32/ch(192)             
45     conv2d_35_weights                                  36864/36864   weights/weights           const int8_t    ss8/ch(192)              
46     conv2d_35_bias                                     192/768       weights/weights           const int32_t   ss32/ch(192)             
47     conv2d_36_weights                                  36864/36864   weights/weights           const int8_t    ss8/ch(192)              
48     conv2d_36_bias                                     192/768       weights/weights           const int32_t   ss32/ch(192)             
49     conv2d_38_weights                                  1728/1728     weights/weights           const int8_t    ss8/ch(192)              
50     conv2d_38_bias                                     192/768       weights/weights           const int32_t   ss32/ch(192)             
51     conv2d_40_weights                                  1728/1728     weights/weights           const int8_t    ss8/ch(192)              
52     conv2d_40_bias                                     192/768       weights/weights           const int32_t   ss32/ch(192)             
53     conv2d_47_weights                                  9216/9216     weights/weights           const int8_t    ss8/ch(24)               
54     conv2d_47_bias                                     24/96         weights/weights           const int32_t   ss32/ch(24)              
55     conv2d_49_weights                                  9216/9216     weights/weights           const int8_t    ss8/ch(384)              
56     conv2d_49_bias                                     384/1536      weights/weights           const int32_t   ss32/ch(384)             
57     dense_54_dense_weights                             38784/38784   weights/weights           const int8_t    ss8                      
58     dense_54_dense_bias                                101/404       weights/weights           const int32_t   ss32                     
59     conv2d_3_scratch0                                  7537/7537     activations/**default**   int8_t          s8                       
60     conv2d_1_scratch0                                  7537/7537     activations/**default**   int8_t          s8                       
61     conv2d_9_scratch0                                  1344/1344     activations/**default**   int8_t          s8                       
62     conv2d_9_scratch1                                  18816/18816   activations/**default**   int8_t          sa8                      
63     conv2d_10_scratch0                                 3553/3553     activations/**default**   int8_t          s8                       
64     conv2d_12_scratch0                                 15073/15073   activations/**default**   int8_t          s8                       
65     conv2d_13_scratch0                                 1344/1344     activations/**default**   int8_t          s8                       
66     conv2d_13_scratch1                                 18816/18816   activations/**default**   int8_t          sa8                      
67     conv2d_14_scratch0                                 1344/1344     activations/**default**   int8_t          s8                       
68     conv2d_16_scratch0                                 3553/3553     activations/**default**   int8_t          s8                       
69     conv2d_18_scratch0                                 15073/15073   activations/**default**   int8_t          s8                       
70     conv2d_19_scratch0                                 1344/1344     activations/**default**   int8_t          s8                       
71     conv2d_19_scratch1                                 18816/18816   activations/**default**   int8_t          sa8                      
72     conv2d_20_scratch0                                 1344/1344     activations/**default**   int8_t          s8                       
73     conv2d_25_scratch0                                 15073/15073   activations/**default**   int8_t          s8                       
74     conv2d_23_scratch0                                 15073/15073   activations/**default**   int8_t          s8                       
75     conv2d_31_scratch0                                 2688/2688     activations/**default**   int8_t          s8                       
76     conv2d_31_scratch1                                 9408/9408     activations/**default**   int8_t          sa8                      
77     conv2d_32_scratch0                                 7105/7105     activations/**default**   int8_t          s8                       
78     conv2d_34_scratch0                                 30145/30145   activations/**default**   int8_t          s8                       
79     conv2d_35_scratch0                                 2688/2688     activations/**default**   int8_t          s8                       
80     conv2d_35_scratch1                                 9408/9408     activations/**default**   int8_t          sa8                      
81     conv2d_36_scratch0                                 2688/2688     activations/**default**   int8_t          s8                       
82     conv2d_38_scratch0                                 7105/7105     activations/**default**   int8_t          s8                       
83     conv2d_40_scratch0                                 7105/7105     activations/**default**   int8_t          s8                       
84     conv2d_47_scratch0                                 1776/1776     activations/**default**   int8_t          s8                       
85     conv2d_47_scratch1                                 24/24         activations/**default**   int8_t          sa8                      
86     conv2d_49_scratch0                                 3936/3936     activations/**default**   int8_t          s8                       
87     dense_54_dense_scratch0                            384/768       activations/**default**   int16_t         s16                      
88     serving_default_input_20_output                    37632/37632   activations/**default**   int8_t          sa8            /input    
89     pad_0_output                                       55488/55488   activations/**default**   int8_t          sa8                      
90     conv2d_3_output                                    9408/9408     activations/**default**   int8_t          sa8                      
91     conv2d_1_output                                    9408/9408     activations/**default**   int8_t          sa8                      
92     concat_5_output                                    18816/18816   activations/**default**   int8_t          sa8                      
93     transpose_6_output                                 18816/18816   activations/**default**   int8_t          sa8                      
94     transpose_8_output                                 18816/18816   activations/**default**   int8_t          sa8                      
95     conv2d_9_output                                    18816/18816   activations/**default**   int8_t          sa8                      
96     conv2d_10_pad_before_output                        24576/24576   activations/**default**   int8_t          sa8                      
97     conv2d_10_output                                   18816/18816   activations/**default**   int8_t          sa8                      
98     conv2d_12_output                                   18816/18816   activations/**default**   int8_t          sa8                      
99     conv2d_13_output                                   18816/18816   activations/**default**   int8_t          sa8                      
100    conv2d_14_output                                   18816/18816   activations/**default**   int8_t          sa8                      
101    eltwise_15_output                                  18816/18816   activations/**default**   int8_t          sa8                      
102    conv2d_16_pad_before_output                        24576/24576   activations/**default**   int8_t          sa8                      
103    conv2d_16_output                                   18816/18816   activations/**default**   int8_t          sa8                      
104    conv2d_18_output                                   18816/18816   activations/**default**   int8_t          sa8                      
105    conv2d_19_output                                   18816/18816   activations/**default**   int8_t          sa8                      
106    conv2d_20_output                                   18816/18816   activations/**default**   int8_t          sa8                      
107    eltwise_21_output                                  18816/18816   activations/**default**   int8_t          sa8                      
108    pad_22_output                                      38400/38400   activations/**default**   int8_t          sa8                      
109    conv2d_25_output                                   4704/4704     activations/**default**   int8_t          sa8                      
110    conv2d_23_output                                   4704/4704     activations/**default**   int8_t          sa8                      
111    concat_27_output                                   9408/9408     activations/**default**   int8_t          sa8                      
112    transpose_28_output                                9408/9408     activations/**default**   int8_t          sa8                      
113    transpose_30_output                                9408/9408     activations/**default**   int8_t          sa8                      
114    conv2d_31_output                                   9408/9408     activations/**default**   int8_t          sa8                      
115    conv2d_32_pad_before_output                        15552/15552   activations/**default**   int8_t          sa8                      
116    conv2d_32_output                                   9408/9408     activations/**default**   int8_t          sa8                      
117    conv2d_34_output                                   9408/9408     activations/**default**   int8_t          sa8                      
118    conv2d_35_output                                   9408/9408     activations/**default**   int8_t          sa8                      
119    conv2d_36_output                                   9408/9408     activations/**default**   int8_t          sa8                      
120    eltwise_37_output                                  9408/9408     activations/**default**   int8_t          sa8                      
121    conv2d_38_pad_before_output                        15552/15552   activations/**default**   int8_t          sa8                      
122    conv2d_38_output                                   9408/9408     activations/**default**   int8_t          sa8                      
123    conv2d_40_pad_before_output                        15552/15552   activations/**default**   int8_t          sa8                      
124    conv2d_40_output                                   9408/9408     activations/**default**   int8_t          sa8                      
------ -------------------------------------------------- ------------- ------------------------- --------------- -------------- --------- 

C-Layers (48)
------ ---------------------- ---- ------------------ --------- ------- ----------------------------------------------------- --------------------- 
c_id   name (*_layer)         id   layer_type         macc      rom     tensors                                               shape (array id)      
------ ---------------------- ---- ------------------ --------- ------- ----------------------------------------------------- --------------------- 
0      pad_0                  0    pad                0         0       I: serving_default_input_20_output                    (1,28,28,48) (88)     
                                                                        O: pad_0_output                                       (1,34,34,48) (89)     
------ ---------------------- ---- ------------------ --------- ------- ----------------------------------------------------- --------------------- 
1      conv2d_3               3    conv2d             461040    2544    I: pad_0_output                                       (1,34,34,48) (89)     
                                                                        S: conv2d_3_scratch0                                                        
                                                                        W: conv2d_3_weights                                   (48,1,7,7) (13)       
                                                                        W: conv2d_3_bias                                      (1,1,1,48) (14)       
                                                                        O: conv2d_3_output                                    (1,14,14,48) (90)     
------ ---------------------- ---- ------------------ --------- ------- ----------------------------------------------------- --------------------- 
2      conv2d_1               1    conv2d             461040    2544    I: pad_0_output                                       (1,34,34,48) (89)     
                                                                        S: conv2d_1_scratch0                                                        
                                                                        W: conv2d_1_weights                                   (48,1,7,7) (15)       
                                                                        W: conv2d_1_bias                                      (1,1,1,48) (16)       
                                                                        O: conv2d_1_output                                    (1,14,14,48) (91)     
------ ---------------------- ---- ------------------ --------- ------- ----------------------------------------------------- --------------------- 
3      concat_5               5    concat             0         0       I: conv2d_1_output0                                   (1,1,14,14,48) (91)   
                                                                        I: conv2d_3_output0                                   (1,1,14,14,48) (90)   
                                                                        O: concat_5_output                                    (1,2,14,14,48) (92)   
------ ---------------------- ---- ------------------ --------- ------- ----------------------------------------------------- --------------------- 
4      transpose_6            6    transpose          0         0       I: concat_5_output                                    (1,2,14,14,48) (92)   
                                                                        O: transpose_6_output                                 (1,48,2,14,14) (93)   
------ ---------------------- ---- ------------------ --------- ------- ----------------------------------------------------- --------------------- 
5      transpose_8            8    transpose          0         0       I: transpose_6_output0                                (1,96,14,14) (93)     
                                                                        O: transpose_8_output                                 (1,14,14,96) (94)     
------ ---------------------- ---- ------------------ --------- ------- ----------------------------------------------------- --------------------- 
6      conv2d_9               9    conv2d             1806432   9600    I: transpose_8_output                                 (1,14,14,96) (94)     
                                                                        S: conv2d_9_scratch0                                                        
                                                                        S: conv2d_9_scratch1                                                        
                                                                        W: conv2d_9_weights                                   (96,96,1,1) (17)      
                                                                        W: conv2d_9_bias                                      (1,1,1,96) (18)       
                                                                        O: conv2d_9_output                                    (1,14,14,96) (95)     
------ ---------------------- ---- ------------------ --------- ------- ----------------------------------------------------- --------------------- 
7      conv2d_10_pad_before   10   pad                0         0       I: conv2d_9_output                                    (1,14,14,96) (95)     
                                                                        O: conv2d_10_pad_before_output                        (1,16,16,96) (96)     
------ ---------------------- ---- ------------------ --------- ------- ----------------------------------------------------- --------------------- 
8      conv2d_10              10   conv2d             169440    1248    I: conv2d_10_pad_before_output                        (1,16,16,96) (96)     
                                                                        S: conv2d_10_scratch0                                                       
                                                                        W: conv2d_10_weights                                  (96,1,3,3) (19)       
                                                                        W: conv2d_10_bias                                     (1,1,1,96) (20)       
                                                                        O: conv2d_10_output                                   (1,14,14,96) (97)     
------ ---------------------- ---- ------------------ --------- ------- ----------------------------------------------------- --------------------- 
9      conv2d_12              11   conv2d             922080    5088    I: conv2d_10_output                                   (1,14,14,96) (97)     
                                                                        S: conv2d_12_scratch0                                                       
                                                                        W: conv2d_12_weights                                  (96,1,7,7) (21)       
                                                                        W: conv2d_12_bias                                     (1,1,1,96) (22)       
                                                                        O: conv2d_12_output                                   (1,14,14,96) (98)     
------ ---------------------- ---- ------------------ --------- ------- ----------------------------------------------------- --------------------- 
10     conv2d_13              13   conv2d             1806432   9600    I: conv2d_12_output                                   (1,14,14,96) (98)     
                                                                        S: conv2d_13_scratch0                                                       
                                                                        S: conv2d_13_scratch1                                                       
                                                                        W: conv2d_13_weights                                  (96,96,1,1) (23)      
                                                                        W: conv2d_13_bias                                     (1,1,1,96) (24)       
                                                                        O: conv2d_13_output                                   (1,14,14,96) (99)     
------ ---------------------- ---- ------------------ --------- ------- ----------------------------------------------------- --------------------- 
11     conv2d_14              14   conv2d             1806432   9600    I: conv2d_13_output                                   (1,14,14,96) (99)     
                                                                        S: conv2d_14_scratch0                                                       
                                                                        W: conv2d_14_weights                                  (96,96,1,1) (25)      
                                                                        W: conv2d_14_bias                                     (1,1,1,96) (26)       
                                                                        O: conv2d_14_output                                   (1,14,14,96) (100)    
------ ---------------------- ---- ------------------ --------- ------- ----------------------------------------------------- --------------------- 
12     eltwise_15             15   eltwise_integer    18816     0       I: conv2d_10_output                                   (1,14,14,96) (97)     
                                                                        I: conv2d_14_output                                   (1,14,14,96) (100)    
                                                                        O: eltwise_15_output                                  (1,14,14,96) (101)    
------ ---------------------- ---- ------------------ --------- ------- ----------------------------------------------------- --------------------- 
13     conv2d_16_pad_before   16   pad                0         0       I: eltwise_15_output                                  (1,14,14,96) (101)    
                                                                        O: conv2d_16_pad_before_output                        (1,16,16,96) (102)    
------ ---------------------- ---- ------------------ --------- ------- ----------------------------------------------------- --------------------- 
14     conv2d_16              16   conv2d             169440    1248    I: conv2d_16_pad_before_output                        (1,16,16,96) (102)    
                                                                        S: conv2d_16_scratch0                                                       
                                                                        W: conv2d_16_weights                                  (96,1,3,3) (27)       
                                                                        W: conv2d_16_bias                                     (1,1,1,96) (28)       
                                                                        O: conv2d_16_output                                   (1,14,14,96) (103)    
------ ---------------------- ---- ------------------ --------- ------- ----------------------------------------------------- --------------------- 
15     conv2d_18              17   conv2d             922080    5088    I: conv2d_16_output                                   (1,14,14,96) (103)    
                                                                        S: conv2d_18_scratch0                                                       
                                                                        W: conv2d_18_weights                                  (96,1,7,7) (29)       
                                                                        W: conv2d_18_bias                                     (1,1,1,96) (30)       
                                                                        O: conv2d_18_output                                   (1,14,14,96) (104)    
------ ---------------------- ---- ------------------ --------- ------- ----------------------------------------------------- --------------------- 
16     conv2d_19              19   conv2d             1806432   9600    I: conv2d_18_output                                   (1,14,14,96) (104)    
                                                                        S: conv2d_19_scratch0                                                       
                                                                        S: conv2d_19_scratch1                                                       
                                                                        W: conv2d_19_weights                                  (96,96,1,1) (31)      
                                                                        W: conv2d_19_bias                                     (1,1,1,96) (32)       
                                                                        O: conv2d_19_output                                   (1,14,14,96) (105)    
------ ---------------------- ---- ------------------ --------- ------- ----------------------------------------------------- --------------------- 
17     conv2d_20              20   conv2d             1806432   9600    I: conv2d_19_output                                   (1,14,14,96) (105)    
                                                                        S: conv2d_20_scratch0                                                       
                                                                        W: conv2d_20_weights                                  (96,96,1,1) (33)      
                                                                        W: conv2d_20_bias                                     (1,1,1,96) (34)       
                                                                        O: conv2d_20_output                                   (1,14,14,96) (106)    
------ ---------------------- ---- ------------------ --------- ------- ----------------------------------------------------- --------------------- 
18     eltwise_21             21   eltwise_integer    18816     0       I: conv2d_16_output                                   (1,14,14,96) (103)    
                                                                        I: conv2d_20_output                                   (1,14,14,96) (106)    
                                                                        O: eltwise_21_output                                  (1,14,14,96) (107)    
------ ---------------------- ---- ------------------ --------- ------- ----------------------------------------------------- --------------------- 
19     pad_22                 22   pad                0         0       I: eltwise_21_output                                  (1,14,14,96) (107)    
                                                                        O: pad_22_output                                      (1,20,20,96) (108)    
------ ---------------------- ---- ------------------ --------- ------- ----------------------------------------------------- --------------------- 
20     conv2d_25              25   conv2d             230592    5088    I: pad_22_output                                      (1,20,20,96) (108)    
                                                                        S: conv2d_25_scratch0                                                       
                                                                        W: conv2d_25_weights                                  (96,1,7,7) (35)       
                                                                        W: conv2d_25_bias                                     (1,1,1,96) (36)       
                                                                        O: conv2d_25_output                                   (1,7,7,96) (109)      
------ ---------------------- ---- ------------------ --------- ------- ----------------------------------------------------- --------------------- 
21     conv2d_23              23   conv2d             230592    5088    I: pad_22_output                                      (1,20,20,96) (108)    
                                                                        S: conv2d_23_scratch0                                                       
                                                                        W: conv2d_23_weights                                  (96,1,7,7) (37)       
                                                                        W: conv2d_23_bias                                     (1,1,1,96) (38)       
                                                                        O: conv2d_23_output                                   (1,7,7,96) (110)      
------ ---------------------- ---- ------------------ --------- ------- ----------------------------------------------------- --------------------- 
22     concat_27              27   concat             0         0       I: conv2d_23_output0                                  (1,1,7,7,96) (110)    
                                                                        I: conv2d_25_output0                                  (1,1,7,7,96) (109)    
                                                                        O: concat_27_output                                   (1,2,7,7,96) (111)    
------ ---------------------- ---- ------------------ --------- ------- ----------------------------------------------------- --------------------- 
23     transpose_28           28   transpose          0         0       I: concat_27_output                                   (1,2,7,7,96) (111)    
                                                                        O: transpose_28_output                                (1,96,2,7,7) (112)    
------ ---------------------- ---- ------------------ --------- ------- ----------------------------------------------------- --------------------- 
24     transpose_30           30   transpose          0         0       I: transpose_28_output0                               (1,192,7,7) (112)     
                                                                        O: transpose_30_output                                (1,7,7,192) (113)     
------ ---------------------- ---- ------------------ --------- ------- ----------------------------------------------------- --------------------- 
25     conv2d_31              31   conv2d             1806528   37632   I: transpose_30_output                                (1,7,7,192) (113)     
                                                                        S: conv2d_31_scratch0                                                       
                                                                        S: conv2d_31_scratch1                                                       
                                                                        W: conv2d_31_weights                                  (192,192,1,1) (39)    
                                                                        W: conv2d_31_bias                                     (1,1,1,192) (40)      
                                                                        O: conv2d_31_output                                   (1,7,7,192) (114)     
------ ---------------------- ---- ------------------ --------- ------- ----------------------------------------------------- --------------------- 
26     conv2d_32_pad_before   32   pad                0         0       I: conv2d_31_output                                   (1,7,7,192) (114)     
                                                                        O: conv2d_32_pad_before_output                        (1,9,9,192) (115)     
------ ---------------------- ---- ------------------ --------- ------- ----------------------------------------------------- --------------------- 
27     conv2d_32              32   conv2d             84864     2496    I: conv2d_32_pad_before_output                        (1,9,9,192) (115)     
                                                                        S: conv2d_32_scratch0                                                       
                                                                        W: conv2d_32_weights                                  (192,1,3,3) (41)      
                                                                        W: conv2d_32_bias                                     (1,1,1,192) (42)      
                                                                        O: conv2d_32_output                                   (1,7,7,192) (116)     
------ ---------------------- ---- ------------------ --------- ------- ----------------------------------------------------- --------------------- 
28     conv2d_34              33   conv2d             461184    10176   I: conv2d_32_output                                   (1,7,7,192) (116)     
                                                                        S: conv2d_34_scratch0                                                       
                                                                        W: conv2d_34_weights                                  (192,1,7,7) (43)      
                                                                        W: conv2d_34_bias                                     (1,1,1,192) (44)      
                                                                        O: conv2d_34_output                                   (1,7,7,192) (117)     
------ ---------------------- ---- ------------------ --------- ------- ----------------------------------------------------- --------------------- 
29     conv2d_35              35   conv2d             1806528   37632   I: conv2d_34_output                                   (1,7,7,192) (117)     
                                                                        S: conv2d_35_scratch0                                                       
                                                                        S: conv2d_35_scratch1                                                       
                                                                        W: conv2d_35_weights                                  (192,192,1,1) (45)    
                                                                        W: conv2d_35_bias                                     (1,1,1,192) (46)      
                                                                        O: conv2d_35_output                                   (1,7,7,192) (118)     
------ ---------------------- ---- ------------------ --------- ------- ----------------------------------------------------- --------------------- 
30     conv2d_36              36   conv2d             1806528   37632   I: conv2d_35_output                                   (1,7,7,192) (118)     
                                                                        S: conv2d_36_scratch0                                                       
                                                                        W: conv2d_36_weights                                  (192,192,1,1) (47)    
                                                                        W: conv2d_36_bias                                     (1,1,1,192) (48)      
                                                                        O: conv2d_36_output                                   (1,7,7,192) (119)     
------ ---------------------- ---- ------------------ --------- ------- ----------------------------------------------------- --------------------- 
31     eltwise_37             37   eltwise_integer    9408      0       I: conv2d_32_output                                   (1,7,7,192) (116)     
                                                                        I: conv2d_36_output                                   (1,7,7,192) (119)     
                                                                        O: eltwise_37_output                                  (1,7,7,192) (120)     
------ ---------------------- ---- ------------------ --------- ------- ----------------------------------------------------- --------------------- 
32     conv2d_38_pad_before   38   pad                0         0       I: eltwise_37_output                                  (1,7,7,192) (120)     
                                                                        O: conv2d_38_pad_before_output                        (1,9,9,192) (121)     
------ ---------------------- ---- ------------------ --------- ------- ----------------------------------------------------- --------------------- 
33     conv2d_38              38   conv2d             84864     2496    I: conv2d_38_pad_before_output                        (1,9,9,192) (121)     
                                                                        S: conv2d_38_scratch0                                                       
                                                                        W: conv2d_38_weights                                  (192,1,3,3) (49)      
                                                                        W: conv2d_38_bias                                     (1,1,1,192) (50)      
                                                                        O: conv2d_38_output                                   (1,7,7,192) (122)     
------ ---------------------- ---- ------------------ --------- ------- ----------------------------------------------------- --------------------- 
34     conv2d_40_pad_before   40   pad                0         0       I: eltwise_37_output                                  (1,7,7,192) (120)     
                                                                        O: conv2d_40_pad_before_output                        (1,9,9,192) (123)     
------ ---------------------- ---- ------------------ --------- ------- ----------------------------------------------------- --------------------- 
35     conv2d_40              40   conv2d             84864     2496    I: conv2d_40_pad_before_output                        (1,9,9,192) (123)     
                                                                        S: conv2d_40_scratch0                                                       
                                                                        W: conv2d_40_weights                                  (192,1,3,3) (51)      
                                                                        W: conv2d_40_bias                                     (1,1,1,192) (52)      
                                                                        O: conv2d_40_output                                   (1,7,7,192) (124)     
------ ---------------------- ---- ------------------ --------- ------- ----------------------------------------------------- --------------------- 
36     concat_42              42   concat             0         0       I: conv2d_38_output0                                  (1,1,7,7,192) (122)   
                                                                        I: conv2d_40_output0                                  (1,1,7,7,192) (124)   
                                                                        O: concat_42_output                                   (1,2,7,7,192) (0)     
------ ---------------------- ---- ------------------ --------- ------- ----------------------------------------------------- --------------------- 
37     transpose_43           43   transpose          0         0       I: concat_42_output                                   (1,2,7,7,192) (0)     
                                                                        O: transpose_43_output                                (1,192,2,7,7) (1)     
------ ---------------------- ---- ------------------ --------- ------- ----------------------------------------------------- --------------------- 
38     transpose_45           45   transpose          0         0       I: transpose_43_output0                               (1,384,7,7) (1)       
                                                                        O: transpose_45_output                                (1,7,7,384) (2)       
------ ---------------------- ---- ------------------ --------- ------- ----------------------------------------------------- --------------------- 
39     pool_46                46   pool               18816     0       I: transpose_45_output                                (1,7,7,384) (2)       
                                                                        O: pool_46_output                                     (1,1,1,384) (3)       
------ ---------------------- ---- ------------------ --------- ------- ----------------------------------------------------- --------------------- 
40     conv2d_47              48   conv2d             9264      9312    I: pool_46_output                                     (1,1,1,384) (3)       
                                                                        S: conv2d_47_scratch0                                                       
                                                                        S: conv2d_47_scratch1                                                       
                                                                        W: conv2d_47_weights                                  (384,24,1,1) (53)     
                                                                        W: conv2d_47_bias                                     (1,1,1,24) (54)       
                                                                        O: conv2d_47_output                                   (1,1,1,24) (4)        
------ ---------------------- ---- ------------------ --------- ------- ----------------------------------------------------- --------------------- 
41     conv2d_49              49   conv2d             9600      10752   I: conv2d_47_output                                   (1,1,1,24) (4)        
                                                                        S: conv2d_49_scratch0                                                       
                                                                        W: conv2d_49_weights                                  (24,384,1,1) (55)     
                                                                        W: conv2d_49_bias                                     (1,1,1,384) (56)      
                                                                        O: conv2d_49_output                                   (1,1,1,384) (5)       
------ ---------------------- ---- ------------------ --------- ------- ----------------------------------------------------- --------------------- 
42     eltwise_50             50   eltwise_integer    384       4       I: conv2d_49_output                                   (1,1,1,384) (5)       
                                                                        I: model_1_tf_clip_by_value_clip_by_value_Minimum_y   (1,1,1,1) (12)        
                                                                        O: eltwise_50_output                                  (1,1,1,384) (6)       
------ ---------------------- ---- ------------------ --------- ------- ----------------------------------------------------- --------------------- 
43     nl_51                  51   nl                 384       0       I: eltwise_50_output                                  (1,1,1,384) (6)       
                                                                        O: nl_51_output                                       (1,1,1,384) (7)       
------ ---------------------- ---- ------------------ --------- ------- ----------------------------------------------------- --------------------- 
44     eltwise_52             52   eltwise_integer    18816     0       I: transpose_45_output                                (1,7,7,384) (2)       
                                                                        I: nl_51_output                                       (1,1,1,384) (7)       
                                                                        O: eltwise_52_output                                  (1,7,7,384) (8)       
------ ---------------------- ---- ------------------ --------- ------- ----------------------------------------------------- --------------------- 
45     pool_53                53   pool               18816     0       I: eltwise_52_output                                  (1,7,7,384) (8)       
                                                                        O: pool_53_output                                     (1,1,1,384) (9)       
------ ---------------------- ---- ------------------ --------- ------- ----------------------------------------------------- --------------------- 
46     dense_54_dense         54   dense              38885     39188   I: pool_53_output                                     (1,1,1,384) (9)       
                                                                        S: dense_54_dense_scratch0                                                  
                                                                        W: dense_54_dense_weights                             (384,1,1,101) (57)    
                                                                        W: dense_54_dense_bias                                (1,1,1,101) (58)      
                                                                        O: dense_54_dense_output                              (1,1,1,101) (10)      
------ ---------------------- ---- ------------------ --------- ------- ----------------------------------------------------- --------------------- 
47     conversion_55          55   converter          202       0       I: dense_54_dense_output                              (1,1,1,101) (10)      
                                                                        O: conversion_55_output                               (1,1,1,101) (11)      
------ ---------------------- ---- ------------------ --------- ------- ----------------------------------------------------- --------------------- 



Number of operations per c-layer
------- ------ ------------------------------ ------------ ------------- --------- ---------- 
c_id    m_id   name (type)                             #op          type    #param   sparsity 
------- ------ ------------------------------ ------------ ------------- --------- ---------- 
0       0      pad_0 (pad)                               0    smul_s8_s8           
1       3      conv2d_3 (conv2d)                   461,040    smul_s8_s8     2,400     0.0279 
2       1      conv2d_1 (conv2d)                   461,040    smul_s8_s8     2,400     0.0242 
3       5      concat_5 (concat)                         0      op_s8_s8           
4       6      transpose_6 (transpose)                   0    smul_s8_s8           
5       8      transpose_8 (transpose)                   0    smul_s8_s8           
6       9      conv2d_9 (conv2d)                 1,806,432    smul_s8_s8     9,312     0.0232 
7       10     conv2d_10_pad_before (pad)                0    smul_s8_s8           
8       10     conv2d_10 (conv2d)                  169,440    smul_s8_s8       960     0.3323 
9       11     conv2d_12 (conv2d)                  922,080    smul_s8_s8     4,800     0.0265 
10      13     conv2d_13 (conv2d)                1,806,432    smul_s8_s8     9,312     0.0132 
11      14     conv2d_14 (conv2d)                1,806,432    smul_s8_s8     9,312     0.0113 
12      15     eltwise_15 (eltwise_integer)         18,816    smul_s8_s8           
13      16     conv2d_16_pad_before (pad)                0    smul_s8_s8           
14      16     conv2d_16 (conv2d)                  169,440    smul_s8_s8       960     0.5375 
15      17     conv2d_18 (conv2d)                  922,080    smul_s8_s8     4,800     0.0390 
16      19     conv2d_19 (conv2d)                1,806,432    smul_s8_s8     9,312     0.0111 
17      20     conv2d_20 (conv2d)                1,806,432    smul_s8_s8     9,312     0.0093 
18      21     eltwise_21 (eltwise_integer)         18,816    smul_s8_s8           
19      22     pad_22 (pad)                              0    smul_s8_s8           
20      25     conv2d_25 (conv2d)                  230,592    smul_s8_s8     4,800     0.0240 
21      23     conv2d_23 (conv2d)                  230,592    smul_s8_s8     4,800     0.0169 
22      27     concat_27 (concat)                        0      op_s8_s8           
23      28     transpose_28 (transpose)                  0    smul_s8_s8           
24      30     transpose_30 (transpose)                  0    smul_s8_s8           
25      31     conv2d_31 (conv2d)                1,806,528    smul_s8_s8    37,056     0.0142 
26      32     conv2d_32_pad_before (pad)                0    smul_s8_s8           
27      32     conv2d_32 (conv2d)                   84,864    smul_s8_s8     1,920     0.2786 
28      33     conv2d_34 (conv2d)                  461,184    smul_s8_s8     9,600     0.0201 
29      35     conv2d_35 (conv2d)                1,806,528    smul_s8_s8    37,056     0.0113 
30      36     conv2d_36 (conv2d)                1,806,528    smul_s8_s8    37,056     0.0128 
31      37     eltwise_37 (eltwise_integer)          9,408    smul_s8_s8           
32      38     conv2d_38_pad_before (pad)                0    smul_s8_s8           
33      38     conv2d_38 (conv2d)                   84,864    smul_s8_s8     1,920     0.0188 
34      40     conv2d_40_pad_before (pad)                0    smul_s8_s8           
35      40     conv2d_40 (conv2d)                   84,864    smul_s8_s8     1,920     0.0078 
36      42     concat_42 (concat)                        0      op_s8_s8           
37      43     transpose_43 (transpose)                  0    smul_s8_s8           
38      45     transpose_45 (transpose)                  0    smul_s8_s8           
39      46     pool_46 (pool)                       18,816      op_s8_s8           
40      48     conv2d_47 (conv2d)                    9,264    smul_s8_s8     9,240     0.0306 
41      49     conv2d_49 (conv2d)                    9,600    smul_s8_s8     9,600     0.0057 
42      50     eltwise_50 (eltwise_integer)            384    smul_s8_s8         0     0.0000 
43      51     nl_51 (nl)                              384      op_s8_s8           
44      52     eltwise_52 (eltwise_integer)         18,816    smul_s8_s8           
45      53     pool_53 (pool)                       18,816      op_s8_s8           
46      54     dense_54_dense (dense)               38,885    smul_s8_s8    38,885     0.0279 
47      55     conversion_55 (converter)               202   smul_s8_f32           
------- ------ ------------------------------ ------------ ------------- --------- ---------- 
total                                           18,896,031                 256,733     0.0223 

Number of operation types
---------------- ------------ ----------- 
operation type              #           % 
---------------- ------------ ----------- 
smul_s8_s8         18,857,813       99.8% 
op_s8_s8               38,016        0.2% 
smul_s8_f32               202        0.0% 

Complexity report (model)
------ -------------------------------------------------- ------------------------- ------------------------- ---------- 
m_id   name                                               c_macc                    c_rom                     c_id       
------ -------------------------------------------------- ------------------------- ------------------------- ---------- 
0      serving_default_input_20                           |                  0.0%   |                  0.0%   [0]        
1      conv2d_1                                           ||||               2.4%   |                  1.0%   [2]        
3      conv2d_3                                           ||||               2.4%   |                  1.0%   [1]        
5      concat_5                                           |                  0.0%   |                  0.0%   [3]        
6      transpose_6                                        |                  0.0%   |                  0.0%   [4]        
8      transpose_8                                        |                  0.0%   |                  0.0%   [5]        
9      conv2d_9                                           |||||||||||||||    9.6%   ||||               3.6%   [6]        
10     conv2d_10                                          ||                 0.9%   |                  0.5%   [7, 8]     
11     pad_11                                             ||||||||           4.9%   ||                 1.9%   [9]        
13     conv2d_13                                          |||||||||||||||    9.6%   ||||               3.6%   [10]       
14     conv2d_14                                          |||||||||||||||    9.6%   ||||               3.6%   [11]       
15     eltwise_15                                         |                  0.1%   |                  0.0%   [12]       
16     conv2d_16                                          ||                 0.9%   |                  0.5%   [13, 14]   
17     pad_17                                             ||||||||           4.9%   ||                 1.9%   [15]       
19     conv2d_19                                          |||||||||||||||    9.6%   ||||               3.6%   [16]       
20     conv2d_20                                          |||||||||||||||    9.6%   ||||               3.6%   [17]       
21     eltwise_21                                         |                  0.1%   |                  0.0%   [18]       
22     pad_22                                             |                  0.0%   |                  0.0%   [19]       
23     conv2d_23                                          ||                 1.2%   ||                 1.9%   [21]       
25     conv2d_25                                          ||                 1.2%   ||                 1.9%   [20]       
27     concat_27                                          |                  0.0%   |                  0.0%   [22]       
28     transpose_28                                       |                  0.0%   |                  0.0%   [23]       
30     transpose_30                                       |                  0.0%   |                  0.0%   [24]       
31     conv2d_31                                          ||||||||||||||||   9.6%   |||||||||||||||   14.2%   [25]       
32     conv2d_32                                          |                  0.4%   |                  0.9%   [26, 27]   
33     pad_33                                             ||||               2.4%   ||||               3.8%   [28]       
35     conv2d_35                                          ||||||||||||||||   9.6%   |||||||||||||||   14.2%   [29]       
36     conv2d_36                                          ||||||||||||||||   9.6%   |||||||||||||||   14.2%   [30]       
37     eltwise_37                                         |                  0.0%   |                  0.0%   [31]       
38     conv2d_38                                          |                  0.4%   |                  0.9%   [32, 33]   
40     conv2d_40                                          |                  0.4%   |                  0.9%   [34, 35]   
42     concat_42                                          |                  0.0%   |                  0.0%   [36]       
43     transpose_43                                       |                  0.0%   |                  0.0%   [37]       
45     transpose_45                                       |                  0.0%   |                  0.0%   [38]       
46     pool_46                                            |                  0.1%   |                  0.0%   [39]       
48     nl_48                                              |                  0.0%   ||||               3.5%   [40]       
49     conv2d_49                                          |                  0.1%   |||||              4.0%   [41]       
50     model_1_tf_clip_by_value_clip_by_value_Minimum_y   |                  0.0%   |                  0.0%   [42]       
51     nl_51                                              |                  0.0%   |                  0.0%   [43]       
52     eltwise_52                                         |                  0.1%   |                  0.0%   [44]       
53     pool_53                                            |                  0.1%   |                  0.0%   [45]       
54     reshape_54                                         |                  0.2%   ||||||||||||||||  14.7%   [46]       
55     conversion_55                                      |                  0.0%   |                  0.0%   [47]       
------ -------------------------------------------------- ------------------------- ------------------------- ---------- 
macc=18,896,031 weights=265,752 act=73,108 ram_io=0

Generated files (7)
------------------------------------------------------------------------------------------------------------------------------------- 
F:\MyWork\PyWork\gd32ai-modelzoo\image_classification\ml_fastvit\results\deploy\food-101_0002\Edge_AI\model\network_2_config.h        
F:\MyWork\PyWork\gd32ai-modelzoo\image_classification\ml_fastvit\results\deploy\food-101_0002\Edge_AI\model\network_2.h               
F:\MyWork\PyWork\gd32ai-modelzoo\image_classification\ml_fastvit\results\deploy\food-101_0002\Edge_AI\model\network_2.c               
F:\MyWork\PyWork\gd32ai-modelzoo\image_classification\ml_fastvit\results\deploy\food-101_0002\Edge_AI\model\network_2_data_params.h   
F:\MyWork\PyWork\gd32ai-modelzoo\image_classification\ml_fastvit\results\deploy\food-101_0002\Edge_AI\model\network_2_data_params.c   
F:\MyWork\PyWork\gd32ai-modelzoo\image_classification\ml_fastvit\results\deploy\food-101_0002\Edge_AI\model\network_2_data.h          
F:\MyWork\PyWork\gd32ai-modelzoo\image_classification\ml_fastvit\results\deploy\food-101_0002\Edge_AI\model\network_2_data.c          
