Neural Network Tools for STM32AI v1.7.0 (STM.ai v8.0.1-19451)
Created date          : 2024-07-01 14:49:11
Parameters            : generate --name network_1 -m results/deploy\coco_sp_0000\tflite\model_front.tflite --type tflite --compression none --verbosity 1 --workspace results/deploy\coco_sp_0000\temp --output results/deploy\coco_sp_0000\Edge_AI\model --allocate-inputs --series stm32h7 --allocate-outputs

Exec/report summary (generate)
------------------------------------------------------------------------------------------------------------------------------------------------
model file         :   F:\MyWork\PyWork\gd32ai-modelzoo\object_detection\yolo_fastestv2\results\deploy\coco_sp_0000\tflite\model_front.tflite   
type               :   tflite                                                                                                                   
c_name             :   network_1                                                                                                                
compression        :   none                                                                                                                     
options            :   allocate-inputs, allocate-outputs                                                                                        
optimization       :   balanced                                                                                                                 
target/series      :   stm32h7                                                                                                                  
workspace dir      :   F:\MyWork\PyWork\gd32ai-modelzoo\object_detection\yolo_fastestv2\results\deploy\coco_sp_0000\temp                        
output dir         :   F:\MyWork\PyWork\gd32ai-modelzoo\object_detection\yolo_fastestv2\results\deploy\coco_sp_0000\Edge_AI\model               
model_fmt          :   ss/sa per-channel                                                                                                        
model_name         :   model_front                                                                                                              
model_hash         :   9ccffb7865dc47ec0b7ba3ca9be12899                                                                                         
params #           :   52,392 items (58.27 KiB)                                                                                                 
------------------------------------------------------------------------------------------------------------------------------------------------
input 1/1          :   'serving_default_input_10' (domain:activations/**default**)                                                              
                   :   49152 items, 48.00 KiB, ai_i8, s=0.00392157, zp=-128, (1,128,128,3)                                                      
output 1/1         :   'concat_79' (domain:activations/**default**)                                                                             
                   :   6144 items, 6.00 KiB, ai_i8, s=0.00563824, zp=-128, (1,8,8,96)                                                           
macc               :   8,120,904                                                                                                                
weights (ro)       :   56,976 B (55.64 KiB) (1 segment) / -152,592(-72.8%) vs float model                                                       
activations (rw)   :   108,636 B (106.09 KiB) (1 segment) *                                                                                     
ram (total)        :   108,636 B (106.09 KiB) = 108,636 + 0 + 0                                                                                 
------------------------------------------------------------------------------------------------------------------------------------------------
(*) 'input'/'output' buffers can be used from the activations buffer

Model name - model_front ['serving_default_input_10'] ['concat_79']
------ --------------------------------------- ----------------------- ------------- ----------- -------------------------- --- --------------- --------------------- ---------------------------- 
m_id   layer (type,original)                   oshape                  param/size           macc               connected to   | c_size          c_macc                c_type                       
------ --------------------------------------- ----------------------- ------------- ----------- -------------------------- --- --------------- --------------------- ---------------------------- 
0      serving_default_input_10 (Input, )      [b:1,h:128,w:128,c:3]                                                          | +744(+100.0%)   +2,654,232(+100.0%)   optimized_conv2d_oi8[0]      
       pad_0 (Pad, PAD)                        [b:1,h:130,w:130,c:3]                               serving_default_input_10   |                                       
------ --------------------------------------- ----------------------- ------------- ----------- -------------------------- --- --------------- --------------------- ---------------------------- 
1      conv2d_1 (Conv2D, CONV_2D)              [b:1,h:64,w:64,c:24]    672/744         2,654,232                      pad_0   | -744(-100.0%)   -2,654,232(-100.0%)   
       nl_1_nl (Nonlinearity, CONV_2D)         [b:1,h:64,w:64,c:24]                       98,304                   conv2d_1   |                 -98,304(-100.0%)      
------ --------------------------------------- ----------------------- ------------- ----------- -------------------------- --- --------------- --------------------- ---------------------------- 
2      pad_2 (Pad, PAD)                        [b:1,h:66,w:66,c:24]                                                 nl_1_nl   |                                       pad_oi8[1]                   
------ --------------------------------------- ----------------------- ------------- ----------- -------------------------- --- --------------- --------------------- ---------------------------- 
3      pool_3 (Pool, MAX_POOL_2D)              [b:1,h:32,w:32,c:24]                      221,184                      pad_2   |                                       pool_oi8[2]                  
------ --------------------------------------- ----------------------- ------------- ----------- -------------------------- --- --------------- --------------------- ---------------------------- 
4      conv2d_4 (Conv2D, CONV_2D)              [b:1,h:32,w:32,c:24]    600/672           589,848                     pool_3   |                                       conv2d_oi8[6]                
       nl_4_nl (Nonlinearity, CONV_2D)         [b:1,h:32,w:32,c:24]                       24,576                   conv2d_4   |                 -24,576(-100.0%)      
------ --------------------------------------- ----------------------- ------------- ----------- -------------------------- --- --------------- --------------------- ---------------------------- 
5      pad_5 (Pad, PAD)                        [b:1,h:34,w:34,c:24]                                                 nl_4_nl   |                                       pad_oi8[7]                   
------ --------------------------------------- ----------------------- ------------- ----------- -------------------------- --- --------------- --------------------- ---------------------------- 
6      pad_6 (Pad, PAD)                        [b:1,h:34,w:34,c:24]                                                  pool_3   |                                       pad_oi8[3]                   
------ --------------------------------------- ----------------------- ------------- ----------- -------------------------- --- --------------- --------------------- ---------------------------- 
7      conv2d_7 (Conv2D, DEPTHWISE_CONV_2D)    [b:1,h:16,w:16,c:24]    240/312            55,320                      pad_5   |                                       conv2d_oi8[8]                
------ --------------------------------------- ----------------------- ------------- ----------- -------------------------- --- --------------- --------------------- ---------------------------- 
8      conv2d_8 (Conv2D, CONV_2D)              [b:1,h:16,w:16,c:24]    600/672           147,480                   conv2d_7   |                                       conv2d_oi8[9]                
       nl_8_nl (Nonlinearity, CONV_2D)         [b:1,h:16,w:16,c:24]                        6,144                   conv2d_8   |                 -6,144(-100.0%)       
------ --------------------------------------- ----------------------- ------------- ----------- -------------------------- --- --------------- --------------------- ---------------------------- 
9      conv2d_9 (Conv2D, DEPTHWISE_CONV_2D)    [b:1,h:16,w:16,c:24]    240/312            55,320                      pad_6   |                                       conv2d_oi8[4]                
------ --------------------------------------- ----------------------- ------------- ----------- -------------------------- --- --------------- --------------------- ---------------------------- 
10     conv2d_10 (Conv2D, CONV_2D)             [b:1,h:16,w:16,c:24]    600/672           147,480                   conv2d_9   |                                       conv2d_oi8[5]                
       nl_10_nl (Nonlinearity, CONV_2D)        [b:1,h:16,w:16,c:24]                        6,144                  conv2d_10   |                 -6,144(-100.0%)       
------ --------------------------------------- ----------------------- ------------- ----------- -------------------------- --- --------------- --------------------- ---------------------------- 
11     concat_11 (Concat, CONCATENATION)       [b:1,h:16,w:16,c:48]                                                nl_10_nl   |                                       concat_oi8[10]               
                                                                                                                    nl_8_nl   | 
------ --------------------------------------- ----------------------- ------------- ----------- -------------------------- --- --------------- --------------------- ---------------------------- 
12     gather_12 (Gather, GATHER)              [b:1,h:16,w:16,c:24]    24/96                                      concat_11   |                                       gather_oi8[12]               
------ --------------------------------------- ----------------------- ------------- ----------- -------------------------- --- --------------- --------------------- ---------------------------- 
13     conv2d_13 (Conv2D, CONV_2D)             [b:1,h:16,w:16,c:24]    600/672           147,480                  gather_12   |                                       conv2d_oi8[13]               
       nl_13_nl (Nonlinearity, CONV_2D)        [b:1,h:16,w:16,c:24]                        6,144                  conv2d_13   |                 -6,144(-100.0%)       
------ --------------------------------------- ----------------------- ------------- ----------- -------------------------- --- --------------- --------------------- ---------------------------- 
14     conv2d_14 (Conv2D, DEPTHWISE_CONV_2D)   [b:1,h:16,w:16,c:24]    240/312            55,320                   nl_13_nl   |                                       pad_oi8/conv2d_oi8[14, 15]   
------ --------------------------------------- ----------------------- ------------- ----------- -------------------------- --- --------------- --------------------- ---------------------------- 
15     conv2d_15 (Conv2D, CONV_2D)             [b:1,h:16,w:16,c:24]    600/672           147,480                  conv2d_14   |                                       conv2d_oi8[16]               
       nl_15_nl (Nonlinearity, CONV_2D)        [b:1,h:16,w:16,c:24]                        6,144                  conv2d_15   |                 -6,144(-100.0%)       
------ --------------------------------------- ----------------------- ------------- ----------- -------------------------- --- --------------- --------------------- ---------------------------- 
16     gather_16 (Gather, GATHER)              [b:1,h:16,w:16,c:24]    24/96                                      concat_11   |                                       gather_oi8[11]               
------ --------------------------------------- ----------------------- ------------- ----------- -------------------------- --- --------------- --------------------- ---------------------------- 
17     concat_17 (Concat, CONCATENATION)       [b:1,h:16,w:16,c:48]                                               gather_16   |                                       concat_oi8[17]               
                                                                                                                   nl_15_nl   | 
------ --------------------------------------- ----------------------- ------------- ----------- -------------------------- --- --------------- --------------------- ---------------------------- 
18     gather_18 (Gather, GATHER)              [b:1,h:16,w:16,c:24]    24/96                                      concat_17   |                                       gather_oi8[23]               
------ --------------------------------------- ----------------------- ------------- ----------- -------------------------- --- --------------- --------------------- ---------------------------- 
19     gather_19 (Gather, GATHER)              [b:1,h:16,w:16,c:24]    24/96                                      concat_17   |                                       gather_oi8[18]               
------ --------------------------------------- ----------------------- ------------- ----------- -------------------------- --- --------------- --------------------- ---------------------------- 
20     conv2d_20 (Conv2D, CONV_2D)             [b:1,h:16,w:16,c:24]    600/672           147,480                  gather_19   |                                       conv2d_oi8[19]               
       nl_20_nl (Nonlinearity, CONV_2D)        [b:1,h:16,w:16,c:24]                        6,144                  conv2d_20   |                 -6,144(-100.0%)       
------ --------------------------------------- ----------------------- ------------- ----------- -------------------------- --- --------------- --------------------- ---------------------------- 
21     conv2d_21 (Conv2D, DEPTHWISE_CONV_2D)   [b:1,h:16,w:16,c:24]    240/312            55,320                   nl_20_nl   |                                       pad_oi8/conv2d_oi8[20, 21]   
------ --------------------------------------- ----------------------- ------------- ----------- -------------------------- --- --------------- --------------------- ---------------------------- 
22     conv2d_22 (Conv2D, CONV_2D)             [b:1,h:16,w:16,c:24]    600/672           147,480                  conv2d_21   |                                       conv2d_oi8[22]               
       nl_22_nl (Nonlinearity, CONV_2D)        [b:1,h:16,w:16,c:24]                        6,144                  conv2d_22   |                 -6,144(-100.0%)       
------ --------------------------------------- ----------------------- ------------- ----------- -------------------------- --- --------------- --------------------- ---------------------------- 
23     concat_23 (Concat, CONCATENATION)       [b:1,h:16,w:16,c:48]                                               gather_18   |                                       concat_oi8[24]               
                                                                                                                   nl_22_nl   | 
------ --------------------------------------- ----------------------- ------------- ----------- -------------------------- --- --------------- --------------------- ---------------------------- 
24     gather_24 (Gather, GATHER)              [b:1,h:16,w:16,c:24]    24/96                                      concat_23   |                                       gather_oi8[30]               
------ --------------------------------------- ----------------------- ------------- ----------- -------------------------- --- --------------- --------------------- ---------------------------- 
25     gather_25 (Gather, GATHER)              [b:1,h:16,w:16,c:24]    24/96                                      concat_23   |                                       gather_oi8[25]               
------ --------------------------------------- ----------------------- ------------- ----------- -------------------------- --- --------------- --------------------- ---------------------------- 
26     conv2d_26 (Conv2D, CONV_2D)             [b:1,h:16,w:16,c:24]    600/672           147,480                  gather_25   |                                       conv2d_oi8[26]               
       nl_26_nl (Nonlinearity, CONV_2D)        [b:1,h:16,w:16,c:24]                        6,144                  conv2d_26   |                 -6,144(-100.0%)       
------ --------------------------------------- ----------------------- ------------- ----------- -------------------------- --- --------------- --------------------- ---------------------------- 
27     conv2d_27 (Conv2D, DEPTHWISE_CONV_2D)   [b:1,h:16,w:16,c:24]    240/312            55,320                   nl_26_nl   |                                       pad_oi8/conv2d_oi8[27, 28]   
------ --------------------------------------- ----------------------- ------------- ----------- -------------------------- --- --------------- --------------------- ---------------------------- 
28     conv2d_28 (Conv2D, CONV_2D)             [b:1,h:16,w:16,c:24]    600/672           147,480                  conv2d_27   |                                       conv2d_oi8[29]               
       nl_28_nl (Nonlinearity, CONV_2D)        [b:1,h:16,w:16,c:24]                        6,144                  conv2d_28   |                 -6,144(-100.0%)       
------ --------------------------------------- ----------------------- ------------- ----------- -------------------------- --- --------------- --------------------- ---------------------------- 
29     concat_29 (Concat, CONCATENATION)       [b:1,h:16,w:16,c:48]                                               gather_24   |                                       concat_oi8[31]               
                                                                                                                   nl_28_nl   | 
------ --------------------------------------- ----------------------- ------------- ----------- -------------------------- --- --------------- --------------------- ---------------------------- 
30     conv2d_30 (Conv2D, CONV_2D)             [b:1,h:16,w:16,c:48]    2,352/2,496       589,872                  concat_29   |                                       conv2d_oi8[35]               
       nl_30_nl (Nonlinearity, CONV_2D)        [b:1,h:16,w:16,c:48]                       12,288                  conv2d_30   |                 -12,288(-100.0%)      
------ --------------------------------------- ----------------------- ------------- ----------- -------------------------- --- --------------- --------------------- ---------------------------- 
31     pad_31 (Pad, PAD)                       [b:1,h:18,w:18,c:48]                                                nl_30_nl   |                                       pad_oi8[36]                  
------ --------------------------------------- ----------------------- ------------- ----------- -------------------------- --- --------------- --------------------- ---------------------------- 
32     conv2d_32 (Conv2D, DEPTHWISE_CONV_2D)   [b:1,h:8,w:8,c:48]      480/624            27,696                     pad_31   |                                       conv2d_oi8[37]               
------ --------------------------------------- ----------------------- ------------- ----------- -------------------------- --- --------------- --------------------- ---------------------------- 
33     conv2d_33 (Conv2D, CONV_2D)             [b:1,h:8,w:8,c:48]      2,352/2,496       147,504                  conv2d_32   |                                       conv2d_oi8[38]               
       nl_33_nl (Nonlinearity, CONV_2D)        [b:1,h:8,w:8,c:48]                          3,072                  conv2d_33   |                 -3,072(-100.0%)       
------ --------------------------------------- ----------------------- ------------- ----------- -------------------------- --- --------------- --------------------- ---------------------------- 
34     pad_34 (Pad, PAD)                       [b:1,h:18,w:18,c:48]                                               concat_29   |                                       pad_oi8[32]                  
------ --------------------------------------- ----------------------- ------------- ----------- -------------------------- --- --------------- --------------------- ---------------------------- 
35     conv2d_35 (Conv2D, DEPTHWISE_CONV_2D)   [b:1,h:8,w:8,c:48]      480/624            27,696                     pad_34   |                                       conv2d_oi8[33]               
------ --------------------------------------- ----------------------- ------------- ----------- -------------------------- --- --------------- --------------------- ---------------------------- 
36     conv2d_36 (Conv2D, CONV_2D)             [b:1,h:8,w:8,c:48]      2,352/2,496       147,504                  conv2d_35   |                                       conv2d_oi8[34]               
       nl_36_nl (Nonlinearity, CONV_2D)        [b:1,h:8,w:8,c:48]                          3,072                  conv2d_36   |                 -3,072(-100.0%)       
------ --------------------------------------- ----------------------- ------------- ----------- -------------------------- --- --------------- --------------------- ---------------------------- 
37     concat_37 (Concat, CONCATENATION)       [b:1,h:8,w:8,c:96]                                                  nl_36_nl   |                                       concat_oi8[39]               
                                                                                                                   nl_33_nl   | 
------ --------------------------------------- ----------------------- ------------- ----------- -------------------------- --- --------------- --------------------- ---------------------------- 
38     gather_38 (Gather, GATHER)              [b:1,h:8,w:8,c:48]      48/192                                     concat_37   |                                       gather_oi8[45]               
------ --------------------------------------- ----------------------- ------------- ----------- -------------------------- --- --------------- --------------------- ---------------------------- 
39     gather_39 (Gather, GATHER)              [b:1,h:8,w:8,c:48]      48/192                                     concat_37   |                                       gather_oi8[40]               
------ --------------------------------------- ----------------------- ------------- ----------- -------------------------- --- --------------- --------------------- ---------------------------- 
40     conv2d_40 (Conv2D, CONV_2D)             [b:1,h:8,w:8,c:48]      2,352/2,496       147,504                  gather_39   |                                       conv2d_oi8[41]               
       nl_40_nl (Nonlinearity, CONV_2D)        [b:1,h:8,w:8,c:48]                          3,072                  conv2d_40   |                 -3,072(-100.0%)       
------ --------------------------------------- ----------------------- ------------- ----------- -------------------------- --- --------------- --------------------- ---------------------------- 
41     conv2d_41 (Conv2D, DEPTHWISE_CONV_2D)   [b:1,h:8,w:8,c:48]      480/624            27,696                   nl_40_nl   |                                       pad_oi8/conv2d_oi8[42, 43]   
------ --------------------------------------- ----------------------- ------------- ----------- -------------------------- --- --------------- --------------------- ---------------------------- 
42     conv2d_42 (Conv2D, CONV_2D)             [b:1,h:8,w:8,c:48]      2,352/2,496       147,504                  conv2d_41   |                                       conv2d_oi8[44]               
       nl_42_nl (Nonlinearity, CONV_2D)        [b:1,h:8,w:8,c:48]                          3,072                  conv2d_42   |                 -3,072(-100.0%)       
------ --------------------------------------- ----------------------- ------------- ----------- -------------------------- --- --------------- --------------------- ---------------------------- 
43     concat_43 (Concat, CONCATENATION)       [b:1,h:8,w:8,c:96]                                                 gather_38   |                                       concat_oi8[46]               
                                                                                                                   nl_42_nl   | 
------ --------------------------------------- ----------------------- ------------- ----------- -------------------------- --- --------------- --------------------- ---------------------------- 
44     gather_44 (Gather, GATHER)              [b:1,h:8,w:8,c:48]      48/192                                     concat_43   |                                       gather_oi8[52]               
------ --------------------------------------- ----------------------- ------------- ----------- -------------------------- --- --------------- --------------------- ---------------------------- 
45     gather_45 (Gather, GATHER)              [b:1,h:8,w:8,c:48]      48/192                                     concat_43   |                                       gather_oi8[47]               
------ --------------------------------------- ----------------------- ------------- ----------- -------------------------- --- --------------- --------------------- ---------------------------- 
46     conv2d_46 (Conv2D, CONV_2D)             [b:1,h:8,w:8,c:48]      2,352/2,496       147,504                  gather_45   |                                       conv2d_oi8[48]               
       nl_46_nl (Nonlinearity, CONV_2D)        [b:1,h:8,w:8,c:48]                          3,072                  conv2d_46   |                 -3,072(-100.0%)       
------ --------------------------------------- ----------------------- ------------- ----------- -------------------------- --- --------------- --------------------- ---------------------------- 
47     conv2d_47 (Conv2D, DEPTHWISE_CONV_2D)   [b:1,h:8,w:8,c:48]      480/624            27,696                   nl_46_nl   |                                       pad_oi8/conv2d_oi8[49, 50]   
------ --------------------------------------- ----------------------- ------------- ----------- -------------------------- --- --------------- --------------------- ---------------------------- 
48     conv2d_48 (Conv2D, CONV_2D)             [b:1,h:8,w:8,c:48]      2,352/2,496       147,504                  conv2d_47   |                                       conv2d_oi8[51]               
       nl_48_nl (Nonlinearity, CONV_2D)        [b:1,h:8,w:8,c:48]                          3,072                  conv2d_48   |                 -3,072(-100.0%)       
------ --------------------------------------- ----------------------- ------------- ----------- -------------------------- --- --------------- --------------------- ---------------------------- 
49     concat_49 (Concat, CONCATENATION)       [b:1,h:8,w:8,c:96]                                                 gather_44   |                                       concat_oi8[53]               
                                                                                                                   nl_48_nl   | 
------ --------------------------------------- ----------------------- ------------- ----------- -------------------------- --- --------------- --------------------- ---------------------------- 
50     gather_50 (Gather, GATHER)              [b:1,h:8,w:8,c:48]      48/192                                     concat_49   |                                       gather_oi8[59]               
------ --------------------------------------- ----------------------- ------------- ----------- -------------------------- --- --------------- --------------------- ---------------------------- 
51     gather_51 (Gather, GATHER)              [b:1,h:8,w:8,c:48]      48/192                                     concat_49   |                                       gather_oi8[54]               
------ --------------------------------------- ----------------------- ------------- ----------- -------------------------- --- --------------- --------------------- ---------------------------- 
52     conv2d_52 (Conv2D, CONV_2D)             [b:1,h:8,w:8,c:48]      2,352/2,496       147,504                  gather_51   |                                       conv2d_oi8[55]               
       nl_52_nl (Nonlinearity, CONV_2D)        [b:1,h:8,w:8,c:48]                          3,072                  conv2d_52   |                 -3,072(-100.0%)       
------ --------------------------------------- ----------------------- ------------- ----------- -------------------------- --- --------------- --------------------- ---------------------------- 
53     conv2d_53 (Conv2D, DEPTHWISE_CONV_2D)   [b:1,h:8,w:8,c:48]      480/624            27,696                   nl_52_nl   |                                       pad_oi8/conv2d_oi8[56, 57]   
------ --------------------------------------- ----------------------- ------------- ----------- -------------------------- --- --------------- --------------------- ---------------------------- 
54     conv2d_54 (Conv2D, CONV_2D)             [b:1,h:8,w:8,c:48]      2,352/2,496       147,504                  conv2d_53   |                                       conv2d_oi8[58]               
       nl_54_nl (Nonlinearity, CONV_2D)        [b:1,h:8,w:8,c:48]                          3,072                  conv2d_54   |                 -3,072(-100.0%)       
------ --------------------------------------- ----------------------- ------------- ----------- -------------------------- --- --------------- --------------------- ---------------------------- 
55     concat_55 (Concat, CONCATENATION)       [b:1,h:8,w:8,c:96]                                                 gather_50   |                                       concat_oi8[60]               
                                                                                                                   nl_54_nl   | 
------ --------------------------------------- ----------------------- ------------- ----------- -------------------------- --- --------------- --------------------- ---------------------------- 
56     gather_56 (Gather, GATHER)              [b:1,h:8,w:8,c:48]      48/192                                     concat_55   |                                       gather_oi8[66]               
------ --------------------------------------- ----------------------- ------------- ----------- -------------------------- --- --------------- --------------------- ---------------------------- 
57     gather_57 (Gather, GATHER)              [b:1,h:8,w:8,c:48]      48/192                                     concat_55   |                                       gather_oi8[61]               
------ --------------------------------------- ----------------------- ------------- ----------- -------------------------- --- --------------- --------------------- ---------------------------- 
58     conv2d_58 (Conv2D, CONV_2D)             [b:1,h:8,w:8,c:48]      2,352/2,496       147,504                  gather_57   |                                       conv2d_oi8[62]               
       nl_58_nl (Nonlinearity, CONV_2D)        [b:1,h:8,w:8,c:48]                          3,072                  conv2d_58   |                 -3,072(-100.0%)       
------ --------------------------------------- ----------------------- ------------- ----------- -------------------------- --- --------------- --------------------- ---------------------------- 
59     conv2d_59 (Conv2D, DEPTHWISE_CONV_2D)   [b:1,h:8,w:8,c:48]      480/624            27,696                   nl_58_nl   |                                       pad_oi8/conv2d_oi8[63, 64]   
------ --------------------------------------- ----------------------- ------------- ----------- -------------------------- --- --------------- --------------------- ---------------------------- 
60     conv2d_60 (Conv2D, CONV_2D)             [b:1,h:8,w:8,c:48]      2,352/2,496       147,504                  conv2d_59   |                                       conv2d_oi8[65]               
       nl_60_nl (Nonlinearity, CONV_2D)        [b:1,h:8,w:8,c:48]                          3,072                  conv2d_60   |                 -3,072(-100.0%)       
------ --------------------------------------- ----------------------- ------------- ----------- -------------------------- --- --------------- --------------------- ---------------------------- 
61     concat_61 (Concat, CONCATENATION)       [b:1,h:8,w:8,c:96]                                                 gather_56   |                                       concat_oi8[67]               
                                                                                                                   nl_60_nl   | 
------ --------------------------------------- ----------------------- ------------- ----------- -------------------------- --- --------------- --------------------- ---------------------------- 
62     gather_62 (Gather, GATHER)              [b:1,h:8,w:8,c:48]      48/192                                     concat_61   |                                       gather_oi8[73]               
------ --------------------------------------- ----------------------- ------------- ----------- -------------------------- --- --------------- --------------------- ---------------------------- 
63     gather_63 (Gather, GATHER)              [b:1,h:8,w:8,c:48]      48/192                                     concat_61   |                                       gather_oi8[68]               
------ --------------------------------------- ----------------------- ------------- ----------- -------------------------- --- --------------- --------------------- ---------------------------- 
64     conv2d_64 (Conv2D, CONV_2D)             [b:1,h:8,w:8,c:48]      2,352/2,496       147,504                  gather_63   |                                       conv2d_oi8[69]               
       nl_64_nl (Nonlinearity, CONV_2D)        [b:1,h:8,w:8,c:48]                          3,072                  conv2d_64   |                 -3,072(-100.0%)       
------ --------------------------------------- ----------------------- ------------- ----------- -------------------------- --- --------------- --------------------- ---------------------------- 
65     conv2d_65 (Conv2D, DEPTHWISE_CONV_2D)   [b:1,h:8,w:8,c:48]      480/624            27,696                   nl_64_nl   |                                       pad_oi8/conv2d_oi8[70, 71]   
------ --------------------------------------- ----------------------- ------------- ----------- -------------------------- --- --------------- --------------------- ---------------------------- 
66     conv2d_66 (Conv2D, CONV_2D)             [b:1,h:8,w:8,c:48]      2,352/2,496       147,504                  conv2d_65   |                                       conv2d_oi8[72]               
       nl_66_nl (Nonlinearity, CONV_2D)        [b:1,h:8,w:8,c:48]                          3,072                  conv2d_66   |                 -3,072(-100.0%)       
------ --------------------------------------- ----------------------- ------------- ----------- -------------------------- --- --------------- --------------------- ---------------------------- 
67     concat_67 (Concat, CONCATENATION)       [b:1,h:8,w:8,c:96]                                                 gather_62   |                                       concat_oi8[74]               
                                                                                                                   nl_66_nl   | 
------ --------------------------------------- ----------------------- ------------- ----------- -------------------------- --- --------------- --------------------- ---------------------------- 
68     gather_68 (Gather, GATHER)              [b:1,h:8,w:8,c:48]      48/192                                     concat_67   |                                       gather_oi8[80]               
------ --------------------------------------- ----------------------- ------------- ----------- -------------------------- --- --------------- --------------------- ---------------------------- 
69     gather_69 (Gather, GATHER)              [b:1,h:8,w:8,c:48]      48/192                                     concat_67   |                                       gather_oi8[75]               
------ --------------------------------------- ----------------------- ------------- ----------- -------------------------- --- --------------- --------------------- ---------------------------- 
70     conv2d_70 (Conv2D, CONV_2D)             [b:1,h:8,w:8,c:48]      2,352/2,496       147,504                  gather_69   |                                       conv2d_oi8[76]               
       nl_70_nl (Nonlinearity, CONV_2D)        [b:1,h:8,w:8,c:48]                          3,072                  conv2d_70   |                 -3,072(-100.0%)       
------ --------------------------------------- ----------------------- ------------- ----------- -------------------------- --- --------------- --------------------- ---------------------------- 
71     conv2d_71 (Conv2D, DEPTHWISE_CONV_2D)   [b:1,h:8,w:8,c:48]      480/624            27,696                   nl_70_nl   |                                       pad_oi8/conv2d_oi8[77, 78]   
------ --------------------------------------- ----------------------- ------------- ----------- -------------------------- --- --------------- --------------------- ---------------------------- 
72     conv2d_72 (Conv2D, CONV_2D)             [b:1,h:8,w:8,c:48]      2,352/2,496       147,504                  conv2d_71   |                                       conv2d_oi8[79]               
       nl_72_nl (Nonlinearity, CONV_2D)        [b:1,h:8,w:8,c:48]                          3,072                  conv2d_72   |                 -3,072(-100.0%)       
------ --------------------------------------- ----------------------- ------------- ----------- -------------------------- --- --------------- --------------------- ---------------------------- 
73     concat_73 (Concat, CONCATENATION)       [b:1,h:8,w:8,c:96]                                                 gather_68   |                                       concat_oi8[81]               
                                                                                                                   nl_72_nl   | 
------ --------------------------------------- ----------------------- ------------- ----------- -------------------------- --- --------------- --------------------- ---------------------------- 
74     gather_74 (Gather, GATHER)              [b:1,h:8,w:8,c:48]      48/192                                     concat_73   |                                       gather_oi8[87]               
------ --------------------------------------- ----------------------- ------------- ----------- -------------------------- --- --------------- --------------------- ---------------------------- 
75     gather_75 (Gather, GATHER)              [b:1,h:8,w:8,c:48]      48/192                                     concat_73   |                                       gather_oi8[82]               
------ --------------------------------------- ----------------------- ------------- ----------- -------------------------- --- --------------- --------------------- ---------------------------- 
76     conv2d_76 (Conv2D, CONV_2D)             [b:1,h:8,w:8,c:48]      2,352/2,496       147,504                  gather_75   |                                       conv2d_oi8[83]               
       nl_76_nl (Nonlinearity, CONV_2D)        [b:1,h:8,w:8,c:48]                          3,072                  conv2d_76   |                 -3,072(-100.0%)       
------ --------------------------------------- ----------------------- ------------- ----------- -------------------------- --- --------------- --------------------- ---------------------------- 
77     conv2d_77 (Conv2D, DEPTHWISE_CONV_2D)   [b:1,h:8,w:8,c:48]      480/624            27,696                   nl_76_nl   |                                       pad_oi8/conv2d_oi8[84, 85]   
------ --------------------------------------- ----------------------- ------------- ----------- -------------------------- --- --------------- --------------------- ---------------------------- 
78     conv2d_78 (Conv2D, CONV_2D)             [b:1,h:8,w:8,c:48]      2,352/2,496       147,504                  conv2d_77   |                                       conv2d_oi8[86]               
       nl_78_nl (Nonlinearity, CONV_2D)        [b:1,h:8,w:8,c:48]                          3,072                  conv2d_78   |                 -3,072(-100.0%)       
------ --------------------------------------- ----------------------- ------------- ----------- -------------------------- --- --------------- --------------------- ---------------------------- 
79     concat_79 (Concat, CONCATENATION)       [b:1,h:8,w:8,c:96]                                                 gather_74   |                                       concat_oi8[o][88]            
                                                                                                                   nl_78_nl   | 
------ --------------------------------------- ----------------------- ------------- ----------- -------------------------- --- --------------- --------------------- ---------------------------- 
model/c-model: macc=8,354,376/8,120,904 -233,472(-2.8%) weights=59,664/56,976 -2,688(-4.5%) activations=--/108,636 io=--/0



Generated C-graph summary
------------------------------------------------------------------------------------------------------------------------
model name            : model_front
c-name                : network_1
c-node #              : 89
c-array #             : 217
activations size      : 108636 (1 segment)
weights size          : 56976 (1 segment)
macc                  : 8120904
inputs                : ['serving_default_input_10_output']
outputs               : ['concat_79_output']

C-Arrays (217)
------ --------------------------------- --------------- ------------------------- --------------- ------------- --------- 
c_id   name (*_array)                    item/size       domain/mem-pool           c-type          fmt           comment   
------ --------------------------------- --------------- ------------------------- --------------- ------------- --------- 
0      gather_12_indices                 24/96           weights/weights           const int32_t   s32                     
1      conv2d_60_scratch0                672/672         activations/**default**   int8_t          s8                      
2      conv2d_13_weights                 576/576         weights/weights           const int8_t    ss8/ch(24)              
3      conv2d_64_scratch0                672/672         activations/**default**   int8_t          s8                      
4      conv2d_13_bias                    24/96           weights/weights           const int32_t   ss32/ch(24)             
5      conv2d_65_scratch0                1777/1777       activations/**default**   int8_t          s8                      
6      conv2d_14_weights                 216/216         weights/weights           const int8_t    ss8/ch(24)              
7      conv2d_66_scratch0                672/672         activations/**default**   int8_t          s8                      
8      conv2d_14_bias                    24/96           weights/weights           const int32_t   ss32/ch(24)             
9      conv2d_15_weights                 576/576         weights/weights           const int8_t    ss8/ch(24)              
10     conv2d_70_scratch0                672/672         activations/**default**   int8_t          s8                      
11     conv2d_15_bias                    24/96           weights/weights           const int32_t   ss32/ch(24)             
12     conv2d_71_scratch0                1777/1777       activations/**default**   int8_t          s8                      
13     conv2d_72_scratch0                672/672         activations/**default**   int8_t          s8                      
14     conv2d_20_weights                 576/576         weights/weights           const int8_t    ss8/ch(24)              
15     conv2d_76_scratch0                672/672         activations/**default**   int8_t          s8                      
16     conv2d_20_bias                    24/96           weights/weights           const int32_t   ss32/ch(24)             
17     conv2d_21_weights                 216/216         weights/weights           const int8_t    ss8/ch(24)              
18     conv2d_77_scratch0                1777/1777       activations/**default**   int8_t          s8                      
19     conv2d_21_bias                    24/96           weights/weights           const int32_t   ss32/ch(24)             
20     conv2d_78_scratch0                672/672         activations/**default**   int8_t          s8                      
21     conv2d_22_weights                 576/576         weights/weights           const int8_t    ss8/ch(24)              
22     conv2d_22_bias                    24/96           weights/weights           const int32_t   ss32/ch(24)             
23     conv2d_26_weights                 576/576         weights/weights           const int8_t    ss8/ch(24)              
24     conv2d_26_bias                    24/96           weights/weights           const int32_t   ss32/ch(24)             
25     conv2d_27_weights                 216/216         weights/weights           const int8_t    ss8/ch(24)              
26     conv2d_27_bias                    24/96           weights/weights           const int32_t   ss32/ch(24)             
27     conv2d_28_weights                 576/576         weights/weights           const int8_t    ss8/ch(24)              
28     conv2d_28_bias                    24/96           weights/weights           const int32_t   ss32/ch(24)             
29     conv2d_35_weights                 432/432         weights/weights           const int8_t    ss8/ch(48)              
30     conv2d_35_bias                    48/192          weights/weights           const int32_t   ss32/ch(48)             
31     conv2d_36_weights                 2304/2304       weights/weights           const int8_t    ss8/ch(48)              
32     conv2d_36_bias                    48/192          weights/weights           const int32_t   ss32/ch(48)             
33     conv2d_30_weights                 2304/2304       weights/weights           const int8_t    ss8/ch(48)              
34     conv2d_30_bias                    48/192          weights/weights           const int32_t   ss32/ch(48)             
35     conv2d_32_weights                 432/432         weights/weights           const int8_t    ss8/ch(48)              
36     conv2d_32_bias                    48/192          weights/weights           const int32_t   ss32/ch(48)             
37     conv2d_33_weights                 2304/2304       weights/weights           const int8_t    ss8/ch(48)              
38     conv2d_33_bias                    48/192          weights/weights           const int32_t   ss32/ch(48)             
39     gather_39_indices                 48/192          weights/weights           const int32_t   s32                     
40     conv2d_40_weights                 2304/2304       weights/weights           const int8_t    ss8/ch(48)              
41     conv2d_40_bias                    48/192          weights/weights           const int32_t   ss32/ch(48)             
42     conv2d_41_weights                 432/432         weights/weights           const int8_t    ss8/ch(48)              
43     conv2d_41_bias                    48/192          weights/weights           const int32_t   ss32/ch(48)             
44     conv2d_42_weights                 2304/2304       weights/weights           const int8_t    ss8/ch(48)              
45     conv2d_42_bias                    48/192          weights/weights           const int32_t   ss32/ch(48)             
46     gather_38_indices                 48/192          weights/weights           const int32_t   s32                     
47     conv2d_46_weights                 2304/2304       weights/weights           const int8_t    ss8/ch(48)              
48     conv2d_46_bias                    48/192          weights/weights           const int32_t   ss32/ch(48)             
49     conv2d_47_weights                 432/432         weights/weights           const int8_t    ss8/ch(48)              
50     serving_default_input_10_output   49152/49153     activations/**default**   int8_t          sa8           /input    
51     conv2d_1_output                   98304/98304     activations/**default**   int8_t          sa8                     
52     conv2d_47_bias                    48/192          weights/weights           const int32_t   ss32/ch(48)             
53     pad_2_output                      104544/104544   activations/**default**   int8_t          sa8                     
54     pool_3_output                     24576/24576     activations/**default**   int8_t          sa8                     
55     conv2d_48_weights                 2304/2304       weights/weights           const int8_t    ss8/ch(48)              
56     conv2d_9_pad_before_output        27744/27744     activations/**default**   int8_t          sa8                     
57     conv2d_9_output                   6144/6144       activations/**default**   int8_t          sa8                     
58     conv2d_48_bias                    48/192          weights/weights           const int32_t   ss32/ch(48)             
59     conv2d_10_output                  6144/6144       activations/**default**   int8_t          sa8                     
60     conv2d_4_output                   24576/24576     activations/**default**   int8_t          sa8                     
61     conv2d_7_pad_before_output        27744/27744     activations/**default**   int8_t          sa8                     
62     conv2d_7_output                   6144/6144       activations/**default**   int8_t          sa8                     
63     conv2d_8_output                   6144/6144       activations/**default**   int8_t          sa8                     
64     concat_11_output                  12288/12288     activations/**default**   int8_t          sa8                     
65     conv2d_52_weights                 2304/2304       weights/weights           const int8_t    ss8/ch(48)              
66     gather_16_output                  6144/6144       activations/**default**   int8_t          sa8                     
67     gather_12_output                  6144/6144       activations/**default**   int8_t          sa8                     
68     conv2d_52_bias                    48/192          weights/weights           const int32_t   ss32/ch(48)             
69     conv2d_13_output                  6144/6144       activations/**default**   int8_t          sa8                     
70     conv2d_14_pad_before_output       7776/7776       activations/**default**   int8_t          sa8                     
71     conv2d_53_weights                 432/432         weights/weights           const int8_t    ss8/ch(48)              
72     conv2d_14_output                  6144/6144       activations/**default**   int8_t          sa8                     
73     conv2d_15_output                  6144/6144       activations/**default**   int8_t          sa8                     
74     conv2d_53_bias                    48/192          weights/weights           const int32_t   ss32/ch(48)             
75     concat_17_output                  12288/12288     activations/**default**   int8_t          sa8                     
76     gather_19_output                  6144/6144       activations/**default**   int8_t          sa8                     
77     conv2d_54_weights                 2304/2304       weights/weights           const int8_t    ss8/ch(48)              
78     conv2d_20_output                  6144/6144       activations/**default**   int8_t          sa8                     
79     conv2d_21_pad_before_output       7776/7776       activations/**default**   int8_t          sa8                     
80     conv2d_54_bias                    48/192          weights/weights           const int32_t   ss32/ch(48)             
81     conv2d_21_output                  6144/6144       activations/**default**   int8_t          sa8                     
82     conv2d_22_output                  6144/6144       activations/**default**   int8_t          sa8                     
83     gather_18_output                  6144/6144       activations/**default**   int8_t          sa8                     
84     concat_23_output                  12288/12288     activations/**default**   int8_t          sa8                     
85     gather_25_output                  6144/6144       activations/**default**   int8_t          sa8                     
86     conv2d_26_output                  6144/6144       activations/**default**   int8_t          sa8                     
87     conv2d_58_weights                 2304/2304       weights/weights           const int8_t    ss8/ch(48)              
88     conv2d_27_pad_before_output       7776/7776       activations/**default**   int8_t          sa8                     
89     conv2d_27_output                  6144/6144       activations/**default**   int8_t          sa8                     
90     conv2d_58_bias                    48/192          weights/weights           const int32_t   ss32/ch(48)             
91     conv2d_28_output                  6144/6144       activations/**default**   int8_t          sa8                     
92     gather_24_output                  6144/6144       activations/**default**   int8_t          sa8                     
93     conv2d_59_weights                 432/432         weights/weights           const int8_t    ss8/ch(48)              
94     concat_29_output                  12288/12288     activations/**default**   int8_t          sa8                     
95     conv2d_35_pad_before_output       15552/15552     activations/**default**   int8_t          sa8                     
96     conv2d_59_bias                    48/192          weights/weights           const int32_t   ss32/ch(48)             
97     conv2d_35_output                  3072/3072       activations/**default**   int8_t          sa8                     
98     conv2d_36_output                  3072/3072       activations/**default**   int8_t          sa8                     
99     conv2d_60_weights                 2304/2304       weights/weights           const int8_t    ss8/ch(48)              
100    conv2d_30_output                  12288/12288     activations/**default**   int8_t          sa8                     
101    conv2d_32_pad_before_output       15552/15552     activations/**default**   int8_t          sa8                     
102    conv2d_60_bias                    48/192          weights/weights           const int32_t   ss32/ch(48)             
103    conv2d_32_output                  3072/3072       activations/**default**   int8_t          sa8                     
104    conv2d_33_output                  3072/3072       activations/**default**   int8_t          sa8                     
105    concat_37_output                  6144/6144       activations/**default**   int8_t          sa8                     
106    gather_39_output                  3072/3072       activations/**default**   int8_t          sa8                     
107    conv2d_40_output                  3072/3072       activations/**default**   int8_t          sa8                     
108    conv2d_41_pad_before_output       4800/4800       activations/**default**   int8_t          sa8                     
109    conv2d_64_weights                 2304/2304       weights/weights           const int8_t    ss8/ch(48)              
110    conv2d_41_output                  3072/3072       activations/**default**   int8_t          sa8                     
111    conv2d_42_output                  3072/3072       activations/**default**   int8_t          sa8                     
112    conv2d_64_bias                    48/192          weights/weights           const int32_t   ss32/ch(48)             
113    gather_38_output                  3072/3072       activations/**default**   int8_t          sa8                     
114    concat_43_output                  6144/6144       activations/**default**   int8_t          sa8                     
115    conv2d_65_weights                 432/432         weights/weights           const int8_t    ss8/ch(48)              
116    gather_45_output                  3072/3072       activations/**default**   int8_t          sa8                     
117    conv2d_46_output                  3072/3072       activations/**default**   int8_t          sa8                     
118    conv2d_65_bias                    48/192          weights/weights           const int32_t   ss32/ch(48)             
119    conv2d_47_pad_before_output       4800/4800       activations/**default**   int8_t          sa8                     
120    conv2d_47_output                  3072/3072       activations/**default**   int8_t          sa8                     
121    conv2d_66_weights                 2304/2304       weights/weights           const int8_t    ss8/ch(48)              
122    conv2d_48_output                  3072/3072       activations/**default**   int8_t          sa8                     
123    gather_44_output                  3072/3072       activations/**default**   int8_t          sa8                     
124    conv2d_66_bias                    48/192          weights/weights           const int32_t   ss32/ch(48)             
125    concat_49_output                  6144/6144       activations/**default**   int8_t          sa8                     
126    gather_51_output                  3072/3072       activations/**default**   int8_t          sa8                     
127    conv2d_52_output                  3072/3072       activations/**default**   int8_t          sa8                     
128    conv2d_53_pad_before_output       4800/4800       activations/**default**   int8_t          sa8                     
129    conv2d_53_output                  3072/3072       activations/**default**   int8_t          sa8                     
130    conv2d_54_output                  3072/3072       activations/**default**   int8_t          sa8                     
131    conv2d_70_weights                 2304/2304       weights/weights           const int8_t    ss8/ch(48)              
132    gather_50_output                  3072/3072       activations/**default**   int8_t          sa8                     
133    concat_55_output                  6144/6144       activations/**default**   int8_t          sa8                     
134    conv2d_70_bias                    48/192          weights/weights           const int32_t   ss32/ch(48)             
135    gather_57_output                  3072/3072       activations/**default**   int8_t          sa8                     
136    conv2d_58_output                  3072/3072       activations/**default**   int8_t          sa8                     
137    conv2d_71_weights                 432/432         weights/weights           const int8_t    ss8/ch(48)              
138    conv2d_59_pad_before_output       4800/4800       activations/**default**   int8_t          sa8                     
139    conv2d_59_output                  3072/3072       activations/**default**   int8_t          sa8                     
140    conv2d_71_bias                    48/192          weights/weights           const int32_t   ss32/ch(48)             
141    conv2d_60_output                  3072/3072       activations/**default**   int8_t          sa8                     
142    gather_56_output                  3072/3072       activations/**default**   int8_t          sa8                     
143    conv2d_72_weights                 2304/2304       weights/weights           const int8_t    ss8/ch(48)              
144    concat_61_output                  6144/6144       activations/**default**   int8_t          sa8                     
145    gather_63_output                  3072/3072       activations/**default**   int8_t          sa8                     
146    conv2d_72_bias                    48/192          weights/weights           const int32_t   ss32/ch(48)             
147    conv2d_64_output                  3072/3072       activations/**default**   int8_t          sa8                     
148    conv2d_65_pad_before_output       4800/4800       activations/**default**   int8_t          sa8                     
149    conv2d_65_output                  3072/3072       activations/**default**   int8_t          sa8                     
150    conv2d_66_output                  3072/3072       activations/**default**   int8_t          sa8                     
151    gather_62_output                  3072/3072       activations/**default**   int8_t          sa8                     
152    concat_67_output                  6144/6144       activations/**default**   int8_t          sa8                     
153    conv2d_76_weights                 2304/2304       weights/weights           const int8_t    ss8/ch(48)              
154    gather_69_output                  3072/3072       activations/**default**   int8_t          sa8                     
155    conv2d_70_output                  3072/3072       activations/**default**   int8_t          sa8                     
156    conv2d_76_bias                    48/192          weights/weights           const int32_t   ss32/ch(48)             
157    conv2d_71_pad_before_output       4800/4800       activations/**default**   int8_t          sa8                     
158    conv2d_71_output                  3072/3072       activations/**default**   int8_t          sa8                     
159    conv2d_77_weights                 432/432         weights/weights           const int8_t    ss8/ch(48)              
160    conv2d_72_output                  3072/3072       activations/**default**   int8_t          sa8                     
161    gather_68_output                  3072/3072       activations/**default**   int8_t          sa8                     
162    conv2d_77_bias                    48/192          weights/weights           const int32_t   ss32/ch(48)             
163    concat_73_output                  6144/6144       activations/**default**   int8_t          sa8                     
164    gather_75_output                  3072/3072       activations/**default**   int8_t          sa8                     
165    conv2d_78_weights                 2304/2304       weights/weights           const int8_t    ss8/ch(48)              
166    conv2d_76_output                  3072/3072       activations/**default**   int8_t          sa8                     
167    conv2d_77_pad_before_output       4800/4800       activations/**default**   int8_t          sa8                     
168    conv2d_78_bias                    48/192          weights/weights           const int32_t   ss32/ch(48)             
169    conv2d_77_output                  3072/3072       activations/**default**   int8_t          sa8                     
170    conv2d_78_output                  3072/3072       activations/**default**   int8_t          sa8                     
171    gather_74_output                  3072/3072       activations/**default**   int8_t          sa8                     
172    concat_79_output                  6144/6144       activations/**default**   int8_t          sa8           /output   
173    conv2d_1_scratch0                 1740/1740       activations/**default**   int8_t          s8                      
174    conv2d_9_scratch0                 889/889         activations/**default**   int8_t          s8                      
175    conv2d_10_scratch0                336/336         activations/**default**   int8_t          s8                      
176    conv2d_4_scratch0                 336/336         activations/**default**   int8_t          s8                      
177    conv2d_7_scratch0                 889/889         activations/**default**   int8_t          s8                      
178    conv2d_8_scratch0                 336/336         activations/**default**   int8_t          s8                      
179    conv2d_13_scratch0                336/336         activations/**default**   int8_t          s8                      
180    conv2d_14_scratch0                889/889         activations/**default**   int8_t          s8                      
181    conv2d_15_scratch0                336/336         activations/**default**   int8_t          s8                      
182    conv2d_20_scratch0                336/336         activations/**default**   int8_t          s8                      
183    conv2d_21_scratch0                889/889         activations/**default**   int8_t          s8                      
184    conv2d_22_scratch0                336/336         activations/**default**   int8_t          s8                      
185    conv2d_26_scratch0                336/336         activations/**default**   int8_t          s8                      
186    conv2d_27_scratch0                889/889         activations/**default**   int8_t          s8                      
187    conv2d_28_scratch0                336/336         activations/**default**   int8_t          s8                      
188    conv2d_35_scratch0                1777/1777       activations/**default**   int8_t          s8                      
189    conv2d_36_scratch0                672/672         activations/**default**   int8_t          s8                      
190    conv2d_30_scratch0                672/672         activations/**default**   int8_t          s8                      
191    conv2d_32_scratch0                1777/1777       activations/**default**   int8_t          s8                      
192    conv2d_33_scratch0                672/672         activations/**default**   int8_t          s8                      
193    conv2d_40_scratch0                672/672         activations/**default**   int8_t          s8                      
194    conv2d_1_weights                  648/648         weights/weights           const int8_t    ss8/ch(24)              
195    conv2d_41_scratch0                1777/1777       activations/**default**   int8_t          s8                      
196    conv2d_1_bias                     24/96           weights/weights           const int32_t   ss32/ch(24)             
197    conv2d_42_scratch0                672/672         activations/**default**   int8_t          s8                      
198    conv2d_9_weights                  216/216         weights/weights           const int8_t    ss8/ch(24)              
199    conv2d_9_bias                     24/96           weights/weights           const int32_t   ss32/ch(24)             
200    conv2d_46_scratch0                672/672         activations/**default**   int8_t          s8                      
201    conv2d_10_weights                 576/576         weights/weights           const int8_t    ss8/ch(24)              
202    conv2d_47_scratch0                1777/1777       activations/**default**   int8_t          s8                      
203    conv2d_10_bias                    24/96           weights/weights           const int32_t   ss32/ch(24)             
204    conv2d_48_scratch0                672/672         activations/**default**   int8_t          s8                      
205    conv2d_4_weights                  576/576         weights/weights           const int8_t    ss8/ch(24)              
206    conv2d_52_scratch0                672/672         activations/**default**   int8_t          s8                      
207    conv2d_4_bias                     24/96           weights/weights           const int32_t   ss32/ch(24)             
208    conv2d_7_weights                  216/216         weights/weights           const int8_t    ss8/ch(24)              
209    conv2d_53_scratch0                1777/1777       activations/**default**   int8_t          s8                      
210    conv2d_7_bias                     24/96           weights/weights           const int32_t   ss32/ch(24)             
211    conv2d_54_scratch0                672/672         activations/**default**   int8_t          s8                      
212    conv2d_8_weights                  576/576         weights/weights           const int8_t    ss8/ch(24)              
213    conv2d_58_scratch0                672/672         activations/**default**   int8_t          s8                      
214    conv2d_8_bias                     24/96           weights/weights           const int32_t   ss32/ch(24)             
215    conv2d_59_scratch0                1777/1777       activations/**default**   int8_t          s8                      
216    gather_16_indices                 24/96           weights/weights           const int32_t   s32                     
------ --------------------------------- --------------- ------------------------- --------------- ------------- --------- 

C-Layers (89)
------ ---------------------- ---- ------------------- --------- ------ ------------------------------------ -------------------- 
c_id   name (*_layer)         id   layer_type          macc      rom    tensors                              shape (array id)     
------ ---------------------- ---- ------------------- --------- ------ ------------------------------------ -------------------- 
0      conv2d_1               0    optimized_conv2d    2654232   744    I: serving_default_input_10_output   (1,128,128,3) (50)   
                                                                        S: conv2d_1_scratch0                                      
                                                                        W: conv2d_1_weights                  (3,24,3,3) (194)     
                                                                        W: conv2d_1_bias                     (1,1,1,24) (196)     
                                                                        O: conv2d_1_output                   (1,64,64,24) (51)    
------ ---------------------- ---- ------------------- --------- ------ ------------------------------------ -------------------- 
1      pad_2                  2    pad                 0         0      I: conv2d_1_output                   (1,64,64,24) (51)    
                                                                        O: pad_2_output                      (1,66,66,24) (53)    
------ ---------------------- ---- ------------------- --------- ------ ------------------------------------ -------------------- 
2      pool_3                 3    pool                221184    0      I: pad_2_output                      (1,66,66,24) (53)    
                                                                        O: pool_3_output                     (1,32,32,24) (54)    
------ ---------------------- ---- ------------------- --------- ------ ------------------------------------ -------------------- 
3      conv2d_9_pad_before    6    pad                 0         0      I: pool_3_output                     (1,32,32,24) (54)    
                                                                        O: conv2d_9_pad_before_output        (1,34,34,24) (56)    
------ ---------------------- ---- ------------------- --------- ------ ------------------------------------ -------------------- 
4      conv2d_9               9    conv2d              55320     312    I: conv2d_9_pad_before_output        (1,34,34,24) (56)    
                                                                        S: conv2d_9_scratch0                                      
                                                                        W: conv2d_9_weights                  (24,1,3,3) (198)     
                                                                        W: conv2d_9_bias                     (1,1,1,24) (199)     
                                                                        O: conv2d_9_output                   (1,16,16,24) (57)    
------ ---------------------- ---- ------------------- --------- ------ ------------------------------------ -------------------- 
5      conv2d_10              10   conv2d              147480    672    I: conv2d_9_output                   (1,16,16,24) (57)    
                                                                        S: conv2d_10_scratch0                                     
                                                                        W: conv2d_10_weights                 (24,24,1,1) (201)    
                                                                        W: conv2d_10_bias                    (1,1,1,24) (203)     
                                                                        O: conv2d_10_output                  (1,16,16,24) (59)    
------ ---------------------- ---- ------------------- --------- ------ ------------------------------------ -------------------- 
6      conv2d_4               4    conv2d              589848    672    I: pool_3_output                     (1,32,32,24) (54)    
                                                                        S: conv2d_4_scratch0                                      
                                                                        W: conv2d_4_weights                  (24,24,1,1) (205)    
                                                                        W: conv2d_4_bias                     (1,1,1,24) (207)     
                                                                        O: conv2d_4_output                   (1,32,32,24) (60)    
------ ---------------------- ---- ------------------- --------- ------ ------------------------------------ -------------------- 
7      conv2d_7_pad_before    5    pad                 0         0      I: conv2d_4_output                   (1,32,32,24) (60)    
                                                                        O: conv2d_7_pad_before_output        (1,34,34,24) (61)    
------ ---------------------- ---- ------------------- --------- ------ ------------------------------------ -------------------- 
8      conv2d_7               7    conv2d              55320     312    I: conv2d_7_pad_before_output        (1,34,34,24) (61)    
                                                                        S: conv2d_7_scratch0                                      
                                                                        W: conv2d_7_weights                  (24,1,3,3) (208)     
                                                                        W: conv2d_7_bias                     (1,1,1,24) (210)     
                                                                        O: conv2d_7_output                   (1,16,16,24) (62)    
------ ---------------------- ---- ------------------- --------- ------ ------------------------------------ -------------------- 
9      conv2d_8               8    conv2d              147480    672    I: conv2d_7_output                   (1,16,16,24) (62)    
                                                                        S: conv2d_8_scratch0                                      
                                                                        W: conv2d_8_weights                  (24,24,1,1) (212)    
                                                                        W: conv2d_8_bias                     (1,1,1,24) (214)     
                                                                        O: conv2d_8_output                   (1,16,16,24) (63)    
------ ---------------------- ---- ------------------- --------- ------ ------------------------------------ -------------------- 
10     concat_11              11   concat              0         0      I: conv2d_10_output                  (1,16,16,24) (59)    
                                                                        I: conv2d_8_output                   (1,16,16,24) (63)    
                                                                        O: concat_11_output                  (1,16,16,48) (64)    
------ ---------------------- ---- ------------------- --------- ------ ------------------------------------ -------------------- 
11     gather_16              16   gather              0         96     I: concat_11_output                  (1,16,16,48) (64)    
                                                                        W: gather_16_indices                 (1,1,24,1) (216)     
                                                                        O: gather_16_output                  (1,16,16,24) (66)    
------ ---------------------- ---- ------------------- --------- ------ ------------------------------------ -------------------- 
12     gather_12              12   gather              0         96     I: concat_11_output                  (1,16,16,48) (64)    
                                                                        W: gather_12_indices                 (1,1,24,1) (0)       
                                                                        O: gather_12_output                  (1,16,16,24) (67)    
------ ---------------------- ---- ------------------- --------- ------ ------------------------------------ -------------------- 
13     conv2d_13              13   conv2d              147480    672    I: gather_12_output                  (1,16,16,24) (67)    
                                                                        S: conv2d_13_scratch0                                     
                                                                        W: conv2d_13_weights                 (24,24,1,1) (2)      
                                                                        W: conv2d_13_bias                    (1,1,1,24) (4)       
                                                                        O: conv2d_13_output                  (1,16,16,24) (69)    
------ ---------------------- ---- ------------------- --------- ------ ------------------------------------ -------------------- 
14     conv2d_14_pad_before   14   pad                 0         0      I: conv2d_13_output                  (1,16,16,24) (69)    
                                                                        O: conv2d_14_pad_before_output       (1,18,18,24) (70)    
------ ---------------------- ---- ------------------- --------- ------ ------------------------------------ -------------------- 
15     conv2d_14              14   conv2d              55320     312    I: conv2d_14_pad_before_output       (1,18,18,24) (70)    
                                                                        S: conv2d_14_scratch0                                     
                                                                        W: conv2d_14_weights                 (24,1,3,3) (6)       
                                                                        W: conv2d_14_bias                    (1,1,1,24) (8)       
                                                                        O: conv2d_14_output                  (1,16,16,24) (72)    
------ ---------------------- ---- ------------------- --------- ------ ------------------------------------ -------------------- 
16     conv2d_15              15   conv2d              147480    672    I: conv2d_14_output                  (1,16,16,24) (72)    
                                                                        S: conv2d_15_scratch0                                     
                                                                        W: conv2d_15_weights                 (24,24,1,1) (9)      
                                                                        W: conv2d_15_bias                    (1,1,1,24) (11)      
                                                                        O: conv2d_15_output                  (1,16,16,24) (73)    
------ ---------------------- ---- ------------------- --------- ------ ------------------------------------ -------------------- 
17     concat_17              17   concat              0         0      I: gather_16_output                  (1,16,16,24) (66)    
                                                                        I: conv2d_15_output                  (1,16,16,24) (73)    
                                                                        O: concat_17_output                  (1,16,16,48) (75)    
------ ---------------------- ---- ------------------- --------- ------ ------------------------------------ -------------------- 
18     gather_19              19   gather              0         96     I: concat_17_output                  (1,16,16,48) (75)    
                                                                        W: gather_12_indices                 (1,1,24,1) (0)       
                                                                        O: gather_19_output                  (1,16,16,24) (76)    
------ ---------------------- ---- ------------------- --------- ------ ------------------------------------ -------------------- 
19     conv2d_20              20   conv2d              147480    672    I: gather_19_output                  (1,16,16,24) (76)    
                                                                        S: conv2d_20_scratch0                                     
                                                                        W: conv2d_20_weights                 (24,24,1,1) (14)     
                                                                        W: conv2d_20_bias                    (1,1,1,24) (16)      
                                                                        O: conv2d_20_output                  (1,16,16,24) (78)    
------ ---------------------- ---- ------------------- --------- ------ ------------------------------------ -------------------- 
20     conv2d_21_pad_before   21   pad                 0         0      I: conv2d_20_output                  (1,16,16,24) (78)    
                                                                        O: conv2d_21_pad_before_output       (1,18,18,24) (79)    
------ ---------------------- ---- ------------------- --------- ------ ------------------------------------ -------------------- 
21     conv2d_21              21   conv2d              55320     312    I: conv2d_21_pad_before_output       (1,18,18,24) (79)    
                                                                        S: conv2d_21_scratch0                                     
                                                                        W: conv2d_21_weights                 (24,1,3,3) (17)      
                                                                        W: conv2d_21_bias                    (1,1,1,24) (19)      
                                                                        O: conv2d_21_output                  (1,16,16,24) (81)    
------ ---------------------- ---- ------------------- --------- ------ ------------------------------------ -------------------- 
22     conv2d_22              22   conv2d              147480    672    I: conv2d_21_output                  (1,16,16,24) (81)    
                                                                        S: conv2d_22_scratch0                                     
                                                                        W: conv2d_22_weights                 (24,24,1,1) (21)     
                                                                        W: conv2d_22_bias                    (1,1,1,24) (22)      
                                                                        O: conv2d_22_output                  (1,16,16,24) (82)    
------ ---------------------- ---- ------------------- --------- ------ ------------------------------------ -------------------- 
23     gather_18              18   gather              0         96     I: concat_17_output                  (1,16,16,48) (75)    
                                                                        W: gather_16_indices                 (1,1,24,1) (216)     
                                                                        O: gather_18_output                  (1,16,16,24) (83)    
------ ---------------------- ---- ------------------- --------- ------ ------------------------------------ -------------------- 
24     concat_23              23   concat              0         0      I: gather_18_output                  (1,16,16,24) (83)    
                                                                        I: conv2d_22_output                  (1,16,16,24) (82)    
                                                                        O: concat_23_output                  (1,16,16,48) (84)    
------ ---------------------- ---- ------------------- --------- ------ ------------------------------------ -------------------- 
25     gather_25              25   gather              0         96     I: concat_23_output                  (1,16,16,48) (84)    
                                                                        W: gather_12_indices                 (1,1,24,1) (0)       
                                                                        O: gather_25_output                  (1,16,16,24) (85)    
------ ---------------------- ---- ------------------- --------- ------ ------------------------------------ -------------------- 
26     conv2d_26              26   conv2d              147480    672    I: gather_25_output                  (1,16,16,24) (85)    
                                                                        S: conv2d_26_scratch0                                     
                                                                        W: conv2d_26_weights                 (24,24,1,1) (23)     
                                                                        W: conv2d_26_bias                    (1,1,1,24) (24)      
                                                                        O: conv2d_26_output                  (1,16,16,24) (86)    
------ ---------------------- ---- ------------------- --------- ------ ------------------------------------ -------------------- 
27     conv2d_27_pad_before   27   pad                 0         0      I: conv2d_26_output                  (1,16,16,24) (86)    
                                                                        O: conv2d_27_pad_before_output       (1,18,18,24) (88)    
------ ---------------------- ---- ------------------- --------- ------ ------------------------------------ -------------------- 
28     conv2d_27              27   conv2d              55320     312    I: conv2d_27_pad_before_output       (1,18,18,24) (88)    
                                                                        S: conv2d_27_scratch0                                     
                                                                        W: conv2d_27_weights                 (24,1,3,3) (25)      
                                                                        W: conv2d_27_bias                    (1,1,1,24) (26)      
                                                                        O: conv2d_27_output                  (1,16,16,24) (89)    
------ ---------------------- ---- ------------------- --------- ------ ------------------------------------ -------------------- 
29     conv2d_28              28   conv2d              147480    672    I: conv2d_27_output                  (1,16,16,24) (89)    
                                                                        S: conv2d_28_scratch0                                     
                                                                        W: conv2d_28_weights                 (24,24,1,1) (27)     
                                                                        W: conv2d_28_bias                    (1,1,1,24) (28)      
                                                                        O: conv2d_28_output                  (1,16,16,24) (91)    
------ ---------------------- ---- ------------------- --------- ------ ------------------------------------ -------------------- 
30     gather_24              24   gather              0         96     I: concat_23_output                  (1,16,16,48) (84)    
                                                                        W: gather_16_indices                 (1,1,24,1) (216)     
                                                                        O: gather_24_output                  (1,16,16,24) (92)    
------ ---------------------- ---- ------------------- --------- ------ ------------------------------------ -------------------- 
31     concat_29              29   concat              0         0      I: gather_24_output                  (1,16,16,24) (92)    
                                                                        I: conv2d_28_output                  (1,16,16,24) (91)    
                                                                        O: concat_29_output                  (1,16,16,48) (94)    
------ ---------------------- ---- ------------------- --------- ------ ------------------------------------ -------------------- 
32     conv2d_35_pad_before   34   pad                 0         0      I: concat_29_output                  (1,16,16,48) (94)    
                                                                        O: conv2d_35_pad_before_output       (1,18,18,48) (95)    
------ ---------------------- ---- ------------------- --------- ------ ------------------------------------ -------------------- 
33     conv2d_35              35   conv2d              27696     624    I: conv2d_35_pad_before_output       (1,18,18,48) (95)    
                                                                        S: conv2d_35_scratch0                                     
                                                                        W: conv2d_35_weights                 (48,1,3,3) (29)      
                                                                        W: conv2d_35_bias                    (1,1,1,48) (30)      
                                                                        O: conv2d_35_output                  (1,8,8,48) (97)      
------ ---------------------- ---- ------------------- --------- ------ ------------------------------------ -------------------- 
34     conv2d_36              36   conv2d              147504    2496   I: conv2d_35_output                  (1,8,8,48) (97)      
                                                                        S: conv2d_36_scratch0                                     
                                                                        W: conv2d_36_weights                 (48,48,1,1) (31)     
                                                                        W: conv2d_36_bias                    (1,1,1,48) (32)      
                                                                        O: conv2d_36_output                  (1,8,8,48) (98)      
------ ---------------------- ---- ------------------- --------- ------ ------------------------------------ -------------------- 
35     conv2d_30              30   conv2d              589872    2496   I: concat_29_output                  (1,16,16,48) (94)    
                                                                        S: conv2d_30_scratch0                                     
                                                                        W: conv2d_30_weights                 (48,48,1,1) (33)     
                                                                        W: conv2d_30_bias                    (1,1,1,48) (34)      
                                                                        O: conv2d_30_output                  (1,16,16,48) (100)   
------ ---------------------- ---- ------------------- --------- ------ ------------------------------------ -------------------- 
36     conv2d_32_pad_before   31   pad                 0         0      I: conv2d_30_output                  (1,16,16,48) (100)   
                                                                        O: conv2d_32_pad_before_output       (1,18,18,48) (101)   
------ ---------------------- ---- ------------------- --------- ------ ------------------------------------ -------------------- 
37     conv2d_32              32   conv2d              27696     624    I: conv2d_32_pad_before_output       (1,18,18,48) (101)   
                                                                        S: conv2d_32_scratch0                                     
                                                                        W: conv2d_32_weights                 (48,1,3,3) (35)      
                                                                        W: conv2d_32_bias                    (1,1,1,48) (36)      
                                                                        O: conv2d_32_output                  (1,8,8,48) (103)     
------ ---------------------- ---- ------------------- --------- ------ ------------------------------------ -------------------- 
38     conv2d_33              33   conv2d              147504    2496   I: conv2d_32_output                  (1,8,8,48) (103)     
                                                                        S: conv2d_33_scratch0                                     
                                                                        W: conv2d_33_weights                 (48,48,1,1) (37)     
                                                                        W: conv2d_33_bias                    (1,1,1,48) (38)      
                                                                        O: conv2d_33_output                  (1,8,8,48) (104)     
------ ---------------------- ---- ------------------- --------- ------ ------------------------------------ -------------------- 
39     concat_37              37   concat              0         0      I: conv2d_36_output                  (1,8,8,48) (98)      
                                                                        I: conv2d_33_output                  (1,8,8,48) (104)     
                                                                        O: concat_37_output                  (1,8,8,96) (105)     
------ ---------------------- ---- ------------------- --------- ------ ------------------------------------ -------------------- 
40     gather_39              39   gather              0         192    I: concat_37_output                  (1,8,8,96) (105)     
                                                                        W: gather_39_indices                 (1,1,48,1) (39)      
                                                                        O: gather_39_output                  (1,8,8,48) (106)     
------ ---------------------- ---- ------------------- --------- ------ ------------------------------------ -------------------- 
41     conv2d_40              40   conv2d              147504    2496   I: gather_39_output                  (1,8,8,48) (106)     
                                                                        S: conv2d_40_scratch0                                     
                                                                        W: conv2d_40_weights                 (48,48,1,1) (40)     
                                                                        W: conv2d_40_bias                    (1,1,1,48) (41)      
                                                                        O: conv2d_40_output                  (1,8,8,48) (107)     
------ ---------------------- ---- ------------------- --------- ------ ------------------------------------ -------------------- 
42     conv2d_41_pad_before   41   pad                 0         0      I: conv2d_40_output                  (1,8,8,48) (107)     
                                                                        O: conv2d_41_pad_before_output       (1,10,10,48) (108)   
------ ---------------------- ---- ------------------- --------- ------ ------------------------------------ -------------------- 
43     conv2d_41              41   conv2d              27696     624    I: conv2d_41_pad_before_output       (1,10,10,48) (108)   
                                                                        S: conv2d_41_scratch0                                     
                                                                        W: conv2d_41_weights                 (48,1,3,3) (42)      
                                                                        W: conv2d_41_bias                    (1,1,1,48) (43)      
                                                                        O: conv2d_41_output                  (1,8,8,48) (110)     
------ ---------------------- ---- ------------------- --------- ------ ------------------------------------ -------------------- 
44     conv2d_42              42   conv2d              147504    2496   I: conv2d_41_output                  (1,8,8,48) (110)     
                                                                        S: conv2d_42_scratch0                                     
                                                                        W: conv2d_42_weights                 (48,48,1,1) (44)     
                                                                        W: conv2d_42_bias                    (1,1,1,48) (45)      
                                                                        O: conv2d_42_output                  (1,8,8,48) (111)     
------ ---------------------- ---- ------------------- --------- ------ ------------------------------------ -------------------- 
45     gather_38              38   gather              0         192    I: concat_37_output                  (1,8,8,96) (105)     
                                                                        W: gather_38_indices                 (1,1,48,1) (46)      
                                                                        O: gather_38_output                  (1,8,8,48) (113)     
------ ---------------------- ---- ------------------- --------- ------ ------------------------------------ -------------------- 
46     concat_43              43   concat              0         0      I: gather_38_output                  (1,8,8,48) (113)     
                                                                        I: conv2d_42_output                  (1,8,8,48) (111)     
                                                                        O: concat_43_output                  (1,8,8,96) (114)     
------ ---------------------- ---- ------------------- --------- ------ ------------------------------------ -------------------- 
47     gather_45              45   gather              0         192    I: concat_43_output                  (1,8,8,96) (114)     
                                                                        W: gather_39_indices                 (1,1,48,1) (39)      
                                                                        O: gather_45_output                  (1,8,8,48) (116)     
------ ---------------------- ---- ------------------- --------- ------ ------------------------------------ -------------------- 
48     conv2d_46              46   conv2d              147504    2496   I: gather_45_output                  (1,8,8,48) (116)     
                                                                        S: conv2d_46_scratch0                                     
                                                                        W: conv2d_46_weights                 (48,48,1,1) (47)     
                                                                        W: conv2d_46_bias                    (1,1,1,48) (48)      
                                                                        O: conv2d_46_output                  (1,8,8,48) (117)     
------ ---------------------- ---- ------------------- --------- ------ ------------------------------------ -------------------- 
49     conv2d_47_pad_before   47   pad                 0         0      I: conv2d_46_output                  (1,8,8,48) (117)     
                                                                        O: conv2d_47_pad_before_output       (1,10,10,48) (119)   
------ ---------------------- ---- ------------------- --------- ------ ------------------------------------ -------------------- 
50     conv2d_47              47   conv2d              27696     624    I: conv2d_47_pad_before_output       (1,10,10,48) (119)   
                                                                        S: conv2d_47_scratch0                                     
                                                                        W: conv2d_47_weights                 (48,1,3,3) (49)      
                                                                        W: conv2d_47_bias                    (1,1,1,48) (52)      
                                                                        O: conv2d_47_output                  (1,8,8,48) (120)     
------ ---------------------- ---- ------------------- --------- ------ ------------------------------------ -------------------- 
51     conv2d_48              48   conv2d              147504    2496   I: conv2d_47_output                  (1,8,8,48) (120)     
                                                                        S: conv2d_48_scratch0                                     
                                                                        W: conv2d_48_weights                 (48,48,1,1) (55)     
                                                                        W: conv2d_48_bias                    (1,1,1,48) (58)      
                                                                        O: conv2d_48_output                  (1,8,8,48) (122)     
------ ---------------------- ---- ------------------- --------- ------ ------------------------------------ -------------------- 
52     gather_44              44   gather              0         192    I: concat_43_output                  (1,8,8,96) (114)     
                                                                        W: gather_38_indices                 (1,1,48,1) (46)      
                                                                        O: gather_44_output                  (1,8,8,48) (123)     
------ ---------------------- ---- ------------------- --------- ------ ------------------------------------ -------------------- 
53     concat_49              49   concat              0         0      I: gather_44_output                  (1,8,8,48) (123)     
                                                                        I: conv2d_48_output                  (1,8,8,48) (122)     
                                                                        O: concat_49_output                  (1,8,8,96) (125)     
------ ---------------------- ---- ------------------- --------- ------ ------------------------------------ -------------------- 
54     gather_51              51   gather              0         192    I: concat_49_output                  (1,8,8,96) (125)     
                                                                        W: gather_39_indices                 (1,1,48,1) (39)      
                                                                        O: gather_51_output                  (1,8,8,48) (126)     
------ ---------------------- ---- ------------------- --------- ------ ------------------------------------ -------------------- 
55     conv2d_52              52   conv2d              147504    2496   I: gather_51_output                  (1,8,8,48) (126)     
                                                                        S: conv2d_52_scratch0                                     
                                                                        W: conv2d_52_weights                 (48,48,1,1) (65)     
                                                                        W: conv2d_52_bias                    (1,1,1,48) (68)      
                                                                        O: conv2d_52_output                  (1,8,8,48) (127)     
------ ---------------------- ---- ------------------- --------- ------ ------------------------------------ -------------------- 
56     conv2d_53_pad_before   53   pad                 0         0      I: conv2d_52_output                  (1,8,8,48) (127)     
                                                                        O: conv2d_53_pad_before_output       (1,10,10,48) (128)   
------ ---------------------- ---- ------------------- --------- ------ ------------------------------------ -------------------- 
57     conv2d_53              53   conv2d              27696     624    I: conv2d_53_pad_before_output       (1,10,10,48) (128)   
                                                                        S: conv2d_53_scratch0                                     
                                                                        W: conv2d_53_weights                 (48,1,3,3) (71)      
                                                                        W: conv2d_53_bias                    (1,1,1,48) (74)      
                                                                        O: conv2d_53_output                  (1,8,8,48) (129)     
------ ---------------------- ---- ------------------- --------- ------ ------------------------------------ -------------------- 
58     conv2d_54              54   conv2d              147504    2496   I: conv2d_53_output                  (1,8,8,48) (129)     
                                                                        S: conv2d_54_scratch0                                     
                                                                        W: conv2d_54_weights                 (48,48,1,1) (77)     
                                                                        W: conv2d_54_bias                    (1,1,1,48) (80)      
                                                                        O: conv2d_54_output                  (1,8,8,48) (130)     
------ ---------------------- ---- ------------------- --------- ------ ------------------------------------ -------------------- 
59     gather_50              50   gather              0         192    I: concat_49_output                  (1,8,8,96) (125)     
                                                                        W: gather_38_indices                 (1,1,48,1) (46)      
                                                                        O: gather_50_output                  (1,8,8,48) (132)     
------ ---------------------- ---- ------------------- --------- ------ ------------------------------------ -------------------- 
60     concat_55              55   concat              0         0      I: gather_50_output                  (1,8,8,48) (132)     
                                                                        I: conv2d_54_output                  (1,8,8,48) (130)     
                                                                        O: concat_55_output                  (1,8,8,96) (133)     
------ ---------------------- ---- ------------------- --------- ------ ------------------------------------ -------------------- 
61     gather_57              57   gather              0         192    I: concat_55_output                  (1,8,8,96) (133)     
                                                                        W: gather_39_indices                 (1,1,48,1) (39)      
                                                                        O: gather_57_output                  (1,8,8,48) (135)     
------ ---------------------- ---- ------------------- --------- ------ ------------------------------------ -------------------- 
62     conv2d_58              58   conv2d              147504    2496   I: gather_57_output                  (1,8,8,48) (135)     
                                                                        S: conv2d_58_scratch0                                     
                                                                        W: conv2d_58_weights                 (48,48,1,1) (87)     
                                                                        W: conv2d_58_bias                    (1,1,1,48) (90)      
                                                                        O: conv2d_58_output                  (1,8,8,48) (136)     
------ ---------------------- ---- ------------------- --------- ------ ------------------------------------ -------------------- 
63     conv2d_59_pad_before   59   pad                 0         0      I: conv2d_58_output                  (1,8,8,48) (136)     
                                                                        O: conv2d_59_pad_before_output       (1,10,10,48) (138)   
------ ---------------------- ---- ------------------- --------- ------ ------------------------------------ -------------------- 
64     conv2d_59              59   conv2d              27696     624    I: conv2d_59_pad_before_output       (1,10,10,48) (138)   
                                                                        S: conv2d_59_scratch0                                     
                                                                        W: conv2d_59_weights                 (48,1,3,3) (93)      
                                                                        W: conv2d_59_bias                    (1,1,1,48) (96)      
                                                                        O: conv2d_59_output                  (1,8,8,48) (139)     
------ ---------------------- ---- ------------------- --------- ------ ------------------------------------ -------------------- 
65     conv2d_60              60   conv2d              147504    2496   I: conv2d_59_output                  (1,8,8,48) (139)     
                                                                        S: conv2d_60_scratch0                                     
                                                                        W: conv2d_60_weights                 (48,48,1,1) (99)     
                                                                        W: conv2d_60_bias                    (1,1,1,48) (102)     
                                                                        O: conv2d_60_output                  (1,8,8,48) (141)     
------ ---------------------- ---- ------------------- --------- ------ ------------------------------------ -------------------- 
66     gather_56              56   gather              0         192    I: concat_55_output                  (1,8,8,96) (133)     
                                                                        W: gather_38_indices                 (1,1,48,1) (46)      
                                                                        O: gather_56_output                  (1,8,8,48) (142)     
------ ---------------------- ---- ------------------- --------- ------ ------------------------------------ -------------------- 
67     concat_61              61   concat              0         0      I: gather_56_output                  (1,8,8,48) (142)     
                                                                        I: conv2d_60_output                  (1,8,8,48) (141)     
                                                                        O: concat_61_output                  (1,8,8,96) (144)     
------ ---------------------- ---- ------------------- --------- ------ ------------------------------------ -------------------- 
68     gather_63              63   gather              0         192    I: concat_61_output                  (1,8,8,96) (144)     
                                                                        W: gather_39_indices                 (1,1,48,1) (39)      
                                                                        O: gather_63_output                  (1,8,8,48) (145)     
------ ---------------------- ---- ------------------- --------- ------ ------------------------------------ -------------------- 
69     conv2d_64              64   conv2d              147504    2496   I: gather_63_output                  (1,8,8,48) (145)     
                                                                        S: conv2d_64_scratch0                                     
                                                                        W: conv2d_64_weights                 (48,48,1,1) (109)    
                                                                        W: conv2d_64_bias                    (1,1,1,48) (112)     
                                                                        O: conv2d_64_output                  (1,8,8,48) (147)     
------ ---------------------- ---- ------------------- --------- ------ ------------------------------------ -------------------- 
70     conv2d_65_pad_before   65   pad                 0         0      I: conv2d_64_output                  (1,8,8,48) (147)     
                                                                        O: conv2d_65_pad_before_output       (1,10,10,48) (148)   
------ ---------------------- ---- ------------------- --------- ------ ------------------------------------ -------------------- 
71     conv2d_65              65   conv2d              27696     624    I: conv2d_65_pad_before_output       (1,10,10,48) (148)   
                                                                        S: conv2d_65_scratch0                                     
                                                                        W: conv2d_65_weights                 (48,1,3,3) (115)     
                                                                        W: conv2d_65_bias                    (1,1,1,48) (118)     
                                                                        O: conv2d_65_output                  (1,8,8,48) (149)     
------ ---------------------- ---- ------------------- --------- ------ ------------------------------------ -------------------- 
72     conv2d_66              66   conv2d              147504    2496   I: conv2d_65_output                  (1,8,8,48) (149)     
                                                                        S: conv2d_66_scratch0                                     
                                                                        W: conv2d_66_weights                 (48,48,1,1) (121)    
                                                                        W: conv2d_66_bias                    (1,1,1,48) (124)     
                                                                        O: conv2d_66_output                  (1,8,8,48) (150)     
------ ---------------------- ---- ------------------- --------- ------ ------------------------------------ -------------------- 
73     gather_62              62   gather              0         192    I: concat_61_output                  (1,8,8,96) (144)     
                                                                        W: gather_38_indices                 (1,1,48,1) (46)      
                                                                        O: gather_62_output                  (1,8,8,48) (151)     
------ ---------------------- ---- ------------------- --------- ------ ------------------------------------ -------------------- 
74     concat_67              67   concat              0         0      I: gather_62_output                  (1,8,8,48) (151)     
                                                                        I: conv2d_66_output                  (1,8,8,48) (150)     
                                                                        O: concat_67_output                  (1,8,8,96) (152)     
------ ---------------------- ---- ------------------- --------- ------ ------------------------------------ -------------------- 
75     gather_69              69   gather              0         192    I: concat_67_output                  (1,8,8,96) (152)     
                                                                        W: gather_39_indices                 (1,1,48,1) (39)      
                                                                        O: gather_69_output                  (1,8,8,48) (154)     
------ ---------------------- ---- ------------------- --------- ------ ------------------------------------ -------------------- 
76     conv2d_70              70   conv2d              147504    2496   I: gather_69_output                  (1,8,8,48) (154)     
                                                                        S: conv2d_70_scratch0                                     
                                                                        W: conv2d_70_weights                 (48,48,1,1) (131)    
                                                                        W: conv2d_70_bias                    (1,1,1,48) (134)     
                                                                        O: conv2d_70_output                  (1,8,8,48) (155)     
------ ---------------------- ---- ------------------- --------- ------ ------------------------------------ -------------------- 
77     conv2d_71_pad_before   71   pad                 0         0      I: conv2d_70_output                  (1,8,8,48) (155)     
                                                                        O: conv2d_71_pad_before_output       (1,10,10,48) (157)   
------ ---------------------- ---- ------------------- --------- ------ ------------------------------------ -------------------- 
78     conv2d_71              71   conv2d              27696     624    I: conv2d_71_pad_before_output       (1,10,10,48) (157)   
                                                                        S: conv2d_71_scratch0                                     
                                                                        W: conv2d_71_weights                 (48,1,3,3) (137)     
                                                                        W: conv2d_71_bias                    (1,1,1,48) (140)     
                                                                        O: conv2d_71_output                  (1,8,8,48) (158)     
------ ---------------------- ---- ------------------- --------- ------ ------------------------------------ -------------------- 
79     conv2d_72              72   conv2d              147504    2496   I: conv2d_71_output                  (1,8,8,48) (158)     
                                                                        S: conv2d_72_scratch0                                     
                                                                        W: conv2d_72_weights                 (48,48,1,1) (143)    
                                                                        W: conv2d_72_bias                    (1,1,1,48) (146)     
                                                                        O: conv2d_72_output                  (1,8,8,48) (160)     
------ ---------------------- ---- ------------------- --------- ------ ------------------------------------ -------------------- 
80     gather_68              68   gather              0         192    I: concat_67_output                  (1,8,8,96) (152)     
                                                                        W: gather_38_indices                 (1,1,48,1) (46)      
                                                                        O: gather_68_output                  (1,8,8,48) (161)     
------ ---------------------- ---- ------------------- --------- ------ ------------------------------------ -------------------- 
81     concat_73              73   concat              0         0      I: gather_68_output                  (1,8,8,48) (161)     
                                                                        I: conv2d_72_output                  (1,8,8,48) (160)     
                                                                        O: concat_73_output                  (1,8,8,96) (163)     
------ ---------------------- ---- ------------------- --------- ------ ------------------------------------ -------------------- 
82     gather_75              75   gather              0         192    I: concat_73_output                  (1,8,8,96) (163)     
                                                                        W: gather_39_indices                 (1,1,48,1) (39)      
                                                                        O: gather_75_output                  (1,8,8,48) (164)     
------ ---------------------- ---- ------------------- --------- ------ ------------------------------------ -------------------- 
83     conv2d_76              76   conv2d              147504    2496   I: gather_75_output                  (1,8,8,48) (164)     
                                                                        S: conv2d_76_scratch0                                     
                                                                        W: conv2d_76_weights                 (48,48,1,1) (153)    
                                                                        W: conv2d_76_bias                    (1,1,1,48) (156)     
                                                                        O: conv2d_76_output                  (1,8,8,48) (166)     
------ ---------------------- ---- ------------------- --------- ------ ------------------------------------ -------------------- 
84     conv2d_77_pad_before   77   pad                 0         0      I: conv2d_76_output                  (1,8,8,48) (166)     
                                                                        O: conv2d_77_pad_before_output       (1,10,10,48) (167)   
------ ---------------------- ---- ------------------- --------- ------ ------------------------------------ -------------------- 
85     conv2d_77              77   conv2d              27696     624    I: conv2d_77_pad_before_output       (1,10,10,48) (167)   
                                                                        S: conv2d_77_scratch0                                     
                                                                        W: conv2d_77_weights                 (48,1,3,3) (159)     
                                                                        W: conv2d_77_bias                    (1,1,1,48) (162)     
                                                                        O: conv2d_77_output                  (1,8,8,48) (169)     
------ ---------------------- ---- ------------------- --------- ------ ------------------------------------ -------------------- 
86     conv2d_78              78   conv2d              147504    2496   I: conv2d_77_output                  (1,8,8,48) (169)     
                                                                        S: conv2d_78_scratch0                                     
                                                                        W: conv2d_78_weights                 (48,48,1,1) (165)    
                                                                        W: conv2d_78_bias                    (1,1,1,48) (168)     
                                                                        O: conv2d_78_output                  (1,8,8,48) (170)     
------ ---------------------- ---- ------------------- --------- ------ ------------------------------------ -------------------- 
87     gather_74              74   gather              0         192    I: concat_73_output                  (1,8,8,96) (163)     
                                                                        W: gather_38_indices                 (1,1,48,1) (46)      
                                                                        O: gather_74_output                  (1,8,8,48) (171)     
------ ---------------------- ---- ------------------- --------- ------ ------------------------------------ -------------------- 
88     concat_79              79   concat              0         0      I: gather_74_output                  (1,8,8,48) (171)     
                                                                        I: conv2d_78_output                  (1,8,8,48) (170)     
                                                                        O: concat_79_output                  (1,8,8,96) (172)     
------ ---------------------- ---- ------------------- --------- ------ ------------------------------------ -------------------- 



Number of operations per c-layer
------- ------ ----------------------------- ----------- ------------- -------- ---------- 
c_id    m_id   name (type)                           #op          type   #param   sparsity 
------- ------ ----------------------------- ----------- ------------- -------- ---------- 
0       0      conv2d_1 (optimized_conv2d)     2,654,232    smul_s8_s8      672     0.0893 
1       2      pad_2 (pad)                             0    smul_s8_s8          
2       3      pool_3 (pool)                     221,184      op_s8_s8          
3       6      conv2d_9_pad_before (pad)               0    smul_s8_s8          
4       9      conv2d_9 (conv2d)                  55,320    smul_s8_s8      240     0.0917 
5       10     conv2d_10 (conv2d)                147,480    smul_s8_s8      600     0.1117 
6       4      conv2d_4 (conv2d)                 589,848    smul_s8_s8      600     0.0900 
7       5      conv2d_7_pad_before (pad)               0    smul_s8_s8          
8       7      conv2d_7 (conv2d)                  55,320    smul_s8_s8      240     0.0125 
9       8      conv2d_8 (conv2d)                 147,480    smul_s8_s8      600     0.0150 
10      11     concat_11 (concat)                      0      op_s8_s8          
11      16     gather_16 (gather)                      0   smul_s8_s32       24     0.0417 
12      12     gather_12 (gather)                      0   smul_s8_s32       24     0.0000 
13      13     conv2d_13 (conv2d)                147,480    smul_s8_s8      600     0.0117 
14      14     conv2d_14_pad_before (pad)              0    smul_s8_s8          
15      14     conv2d_14 (conv2d)                 55,320    smul_s8_s8      240     0.0250 
16      15     conv2d_15 (conv2d)                147,480    smul_s8_s8      600     0.0217 
17      17     concat_17 (concat)                      0      op_s8_s8          
18      19     gather_19 (gather)                      0   smul_s8_s32       24     0.0000 
19      20     conv2d_20 (conv2d)                147,480    smul_s8_s8      600     0.0183 
20      21     conv2d_21_pad_before (pad)              0    smul_s8_s8          
21      21     conv2d_21 (conv2d)                 55,320    smul_s8_s8      240     0.0167 
22      22     conv2d_22 (conv2d)                147,480    smul_s8_s8      600     0.0083 
23      18     gather_18 (gather)                      0   smul_s8_s32       24     0.0417 
24      23     concat_23 (concat)                      0      op_s8_s8          
25      25     gather_25 (gather)                      0   smul_s8_s32       24     0.0000 
26      26     conv2d_26 (conv2d)                147,480    smul_s8_s8      600     0.0350 
27      27     conv2d_27_pad_before (pad)              0    smul_s8_s8          
28      27     conv2d_27 (conv2d)                 55,320    smul_s8_s8      240     0.0042 
29      28     conv2d_28 (conv2d)                147,480    smul_s8_s8      600     0.0117 
30      24     gather_24 (gather)                      0   smul_s8_s32       24     0.0417 
31      29     concat_29 (concat)                      0      op_s8_s8          
32      34     conv2d_35_pad_before (pad)              0    smul_s8_s8          
33      35     conv2d_35 (conv2d)                 27,696    smul_s8_s8      480     0.0042 
34      36     conv2d_36 (conv2d)                147,504    smul_s8_s8    2,352     0.0187 
35      30     conv2d_30 (conv2d)                589,872    smul_s8_s8    2,352     0.0119 
36      31     conv2d_32_pad_before (pad)              0    smul_s8_s8          
37      32     conv2d_32 (conv2d)                 27,696    smul_s8_s8      480     0.0000 
38      33     conv2d_33 (conv2d)                147,504    smul_s8_s8    2,352     0.0153 
39      37     concat_37 (concat)                      0      op_s8_s8          
40      39     gather_39 (gather)                      0   smul_s8_s32       48     0.0000 
41      40     conv2d_40 (conv2d)                147,504    smul_s8_s8    2,352     0.0098 
42      41     conv2d_41_pad_before (pad)              0    smul_s8_s8          
43      41     conv2d_41 (conv2d)                 27,696    smul_s8_s8      480     0.0083 
44      42     conv2d_42 (conv2d)                147,504    smul_s8_s8    2,352     0.0174 
45      38     gather_38 (gather)                      0   smul_s8_s32       48     0.0208 
46      43     concat_43 (concat)                      0      op_s8_s8          
47      45     gather_45 (gather)                      0   smul_s8_s32       48     0.0000 
48      46     conv2d_46 (conv2d)                147,504    smul_s8_s8    2,352     0.0140 
49      47     conv2d_47_pad_before (pad)              0    smul_s8_s8          
50      47     conv2d_47 (conv2d)                 27,696    smul_s8_s8      480     0.0083 
51      48     conv2d_48 (conv2d)                147,504    smul_s8_s8    2,352     0.0136 
52      44     gather_44 (gather)                      0   smul_s8_s32       48     0.0208 
53      49     concat_49 (concat)                      0      op_s8_s8          
54      51     gather_51 (gather)                      0   smul_s8_s32       48     0.0000 
55      52     conv2d_52 (conv2d)                147,504    smul_s8_s8    2,352     0.0119 
56      53     conv2d_53_pad_before (pad)              0    smul_s8_s8          
57      53     conv2d_53 (conv2d)                 27,696    smul_s8_s8      480     0.0167 
58      54     conv2d_54 (conv2d)                147,504    smul_s8_s8    2,352     0.0128 
59      50     gather_50 (gather)                      0   smul_s8_s32       48     0.0208 
60      55     concat_55 (concat)                      0      op_s8_s8          
61      57     gather_57 (gather)                      0   smul_s8_s32       48     0.0000 
62      58     conv2d_58 (conv2d)                147,504    smul_s8_s8    2,352     0.0106 
63      59     conv2d_59_pad_before (pad)              0    smul_s8_s8          
64      59     conv2d_59 (conv2d)                 27,696    smul_s8_s8      480     0.0125 
65      60     conv2d_60 (conv2d)                147,504    smul_s8_s8    2,352     0.0085 
66      56     gather_56 (gather)                      0   smul_s8_s32       48     0.0208 
67      61     concat_61 (concat)                      0      op_s8_s8          
68      63     gather_63 (gather)                      0   smul_s8_s32       48     0.0000 
69      64     conv2d_64 (conv2d)                147,504    smul_s8_s8    2,352     0.0123 
70      65     conv2d_65_pad_before (pad)              0    smul_s8_s8          
71      65     conv2d_65 (conv2d)                 27,696    smul_s8_s8      480     0.0167 
72      66     conv2d_66 (conv2d)                147,504    smul_s8_s8    2,352     0.0187 
73      62     gather_62 (gather)                      0   smul_s8_s32       48     0.0208 
74      67     concat_67 (concat)                      0      op_s8_s8          
75      69     gather_69 (gather)                      0   smul_s8_s32       48     0.0000 
76      70     conv2d_70 (conv2d)                147,504    smul_s8_s8    2,352     0.0089 
77      71     conv2d_71_pad_before (pad)              0    smul_s8_s8          
78      71     conv2d_71 (conv2d)                 27,696    smul_s8_s8      480     0.0062 
79      72     conv2d_72 (conv2d)                147,504    smul_s8_s8    2,352     0.0149 
80      68     gather_68 (gather)                      0   smul_s8_s32       48     0.0208 
81      73     concat_73 (concat)                      0      op_s8_s8          
82      75     gather_75 (gather)                      0   smul_s8_s32       48     0.0000 
83      76     conv2d_76 (conv2d)                147,504    smul_s8_s8    2,352     0.0081 
84      77     conv2d_77_pad_before (pad)              0    smul_s8_s8          
85      77     conv2d_77 (conv2d)                 27,696    smul_s8_s8      480     0.0062 
86      78     conv2d_78 (conv2d)                147,504    smul_s8_s8    2,352     0.0119 
87      74     gather_74 (gather)                      0   smul_s8_s32       48     0.0208 
88      79     concat_79 (concat)                      0      op_s8_s8          
------- ------ ----------------------------- ----------- ------------- -------- ---------- 
total                                          8,120,904                 52,392     0.0163 

Number of operation types
---------------- ----------- ----------- 
operation type             #           % 
---------------- ----------- ----------- 
smul_s8_s8         7,899,720       97.3% 
op_s8_s8             221,184        2.7% 
smul_s8_s32                0        0.0% 

Complexity report (model)
------ -------------------------- ------------------------- ------------------------- ---------- 
m_id   name                       c_macc                    c_rom                     c_id       
------ -------------------------- ------------------------- ------------------------- ---------- 
0      serving_default_input_10   ||||||||||||||||  32.7%   |||||              1.3%   [0]        
2      pad_2                      |                  0.0%   |                  0.0%   [1]        
3      pool_3                     ||                 2.7%   |                  0.0%   [2]        
4      conv2d_4                   ||||               7.3%   |||||              1.2%   [6]        
5      pad_5                      |                  0.0%   |                  0.0%   [7]        
6      pad_6                      |                  0.0%   |                  0.0%   [3]        
7      conv2d_7                   |                  0.7%   ||                 0.5%   [8]        
8      conv2d_8                   |                  1.8%   |||||              1.2%   [9]        
9      conv2d_9                   |                  0.7%   ||                 0.5%   [4]        
10     conv2d_10                  |                  1.8%   |||||              1.2%   [5]        
11     concat_11                  |                  0.0%   |                  0.0%   [10]       
12     gather_12                  |                  0.0%   |                  0.2%   [12]       
13     conv2d_13                  |                  1.8%   |||||              1.2%   [13]       
14     conv2d_14                  |                  0.7%   ||                 0.5%   [14, 15]   
15     conv2d_15                  |                  1.8%   |||||              1.2%   [16]       
16     gather_16                  |                  0.0%   |                  0.2%   [11]       
17     concat_17                  |                  0.0%   |                  0.0%   [17]       
18     gather_18                  |                  0.0%   |                  0.2%   [23]       
19     gather_19                  |                  0.0%   |                  0.2%   [18]       
20     conv2d_20                  |                  1.8%   |||||              1.2%   [19]       
21     conv2d_21                  |                  0.7%   ||                 0.5%   [20, 21]   
22     conv2d_22                  |                  1.8%   |||||              1.2%   [22]       
23     concat_23                  |                  0.0%   |                  0.0%   [24]       
24     gather_24                  |                  0.0%   |                  0.2%   [30]       
25     gather_25                  |                  0.0%   |                  0.2%   [25]       
26     conv2d_26                  |                  1.8%   |||||              1.2%   [26]       
27     conv2d_27                  |                  0.7%   ||                 0.5%   [27, 28]   
28     conv2d_28                  |                  1.8%   |||||              1.2%   [29]       
29     concat_29                  |                  0.0%   |                  0.0%   [31]       
30     conv2d_30                  ||||               7.3%   ||||||||||||||||   4.4%   [35]       
31     pad_31                     |                  0.0%   |                  0.0%   [36]       
32     conv2d_32                  |                  0.3%   ||||               1.1%   [37]       
33     conv2d_33                  |                  1.8%   ||||||||||||||||   4.4%   [38]       
34     pad_34                     |                  0.0%   |                  0.0%   [32]       
35     conv2d_35                  |                  0.3%   ||||               1.1%   [33]       
36     conv2d_36                  |                  1.8%   ||||||||||||||||   4.4%   [34]       
37     concat_37                  |                  0.0%   |                  0.0%   [39]       
38     gather_38                  |                  0.0%   ||                 0.3%   [45]       
39     gather_39                  |                  0.0%   ||                 0.3%   [40]       
40     conv2d_40                  |                  1.8%   ||||||||||||||||   4.4%   [41]       
41     conv2d_41                  |                  0.3%   ||||               1.1%   [42, 43]   
42     conv2d_42                  |                  1.8%   ||||||||||||||||   4.4%   [44]       
43     concat_43                  |                  0.0%   |                  0.0%   [46]       
44     gather_44                  |                  0.0%   ||                 0.3%   [52]       
45     gather_45                  |                  0.0%   ||                 0.3%   [47]       
46     conv2d_46                  |                  1.8%   ||||||||||||||||   4.4%   [48]       
47     conv2d_47                  |                  0.3%   ||||               1.1%   [49, 50]   
48     conv2d_48                  |                  1.8%   ||||||||||||||||   4.4%   [51]       
49     concat_49                  |                  0.0%   |                  0.0%   [53]       
50     gather_50                  |                  0.0%   ||                 0.3%   [59]       
51     gather_51                  |                  0.0%   ||                 0.3%   [54]       
52     conv2d_52                  |                  1.8%   ||||||||||||||||   4.4%   [55]       
53     conv2d_53                  |                  0.3%   ||||               1.1%   [56, 57]   
54     conv2d_54                  |                  1.8%   ||||||||||||||||   4.4%   [58]       
55     concat_55                  |                  0.0%   |                  0.0%   [60]       
56     gather_56                  |                  0.0%   ||                 0.3%   [66]       
57     gather_57                  |                  0.0%   ||                 0.3%   [61]       
58     conv2d_58                  |                  1.8%   ||||||||||||||||   4.4%   [62]       
59     conv2d_59                  |                  0.3%   ||||               1.1%   [63, 64]   
60     conv2d_60                  |                  1.8%   ||||||||||||||||   4.4%   [65]       
61     concat_61                  |                  0.0%   |                  0.0%   [67]       
62     gather_62                  |                  0.0%   ||                 0.3%   [73]       
63     gather_63                  |                  0.0%   ||                 0.3%   [68]       
64     conv2d_64                  |                  1.8%   ||||||||||||||||   4.4%   [69]       
65     conv2d_65                  |                  0.3%   ||||               1.1%   [70, 71]   
66     conv2d_66                  |                  1.8%   ||||||||||||||||   4.4%   [72]       
67     concat_67                  |                  0.0%   |                  0.0%   [74]       
68     gather_68                  |                  0.0%   ||                 0.3%   [80]       
69     gather_69                  |                  0.0%   ||                 0.3%   [75]       
70     conv2d_70                  |                  1.8%   ||||||||||||||||   4.4%   [76]       
71     conv2d_71                  |                  0.3%   ||||               1.1%   [77, 78]   
72     conv2d_72                  |                  1.8%   ||||||||||||||||   4.4%   [79]       
73     concat_73                  |                  0.0%   |                  0.0%   [81]       
74     gather_74                  |                  0.0%   ||                 0.3%   [87]       
75     gather_75                  |                  0.0%   ||                 0.3%   [82]       
76     conv2d_76                  |                  1.8%   ||||||||||||||||   4.4%   [83]       
77     conv2d_77                  |                  0.3%   ||||               1.1%   [84, 85]   
78     conv2d_78                  |                  1.8%   ||||||||||||||||   4.4%   [86]       
79     concat_79                  |                  0.0%   |                  0.0%   [88]       
------ -------------------------- ------------------------- ------------------------- ---------- 
macc=8,120,904 weights=56,976 act=108,636 ram_io=0

Generated files (7)
------------------------------------------------------------------------------------------------------------------------------------ 
F:\MyWork\PyWork\gd32ai-modelzoo\object_detection\yolo_fastestv2\results\deploy\coco_sp_0000\Edge_AI\model\network_1_config.h        
F:\MyWork\PyWork\gd32ai-modelzoo\object_detection\yolo_fastestv2\results\deploy\coco_sp_0000\Edge_AI\model\network_1.h               
F:\MyWork\PyWork\gd32ai-modelzoo\object_detection\yolo_fastestv2\results\deploy\coco_sp_0000\Edge_AI\model\network_1.c               
F:\MyWork\PyWork\gd32ai-modelzoo\object_detection\yolo_fastestv2\results\deploy\coco_sp_0000\Edge_AI\model\network_1_data_params.h   
F:\MyWork\PyWork\gd32ai-modelzoo\object_detection\yolo_fastestv2\results\deploy\coco_sp_0000\Edge_AI\model\network_1_data_params.c   
F:\MyWork\PyWork\gd32ai-modelzoo\object_detection\yolo_fastestv2\results\deploy\coco_sp_0000\Edge_AI\model\network_1_data.h          
F:\MyWork\PyWork\gd32ai-modelzoo\object_detection\yolo_fastestv2\results\deploy\coco_sp_0000\Edge_AI\model\network_1_data.c          
