Neural Network Tools for STM32AI v1.7.0 (STM.ai v8.0.1-19451)
Created date          : 2024-07-20 11:35:18
Parameters            : generate --name network_2 -m results/deploy\coco_person_0012\tflite\model_post.tflite --type tflite --compression none --verbosity 1 --workspace results/deploy\coco_person_0012\temp --output results/deploy\coco_person_0012\Edge_AI\model --allocate-inputs --series stm32h7 --allocate-outputs

Exec/report summary (generate)
--------------------------------------------------------------------------------------------------------------------------------------------
model file         :   F:\MyWork\PyWork\gd32ai-modelzoo\object_detection\yolov10\results\deploy\coco_person_0012\tflite\model_post.tflite   
type               :   tflite                                                                                                               
c_name             :   network_2                                                                                                            
compression        :   none                                                                                                                 
options            :   allocate-inputs, allocate-outputs                                                                                    
optimization       :   balanced                                                                                                             
target/series      :   stm32h7                                                                                                              
workspace dir      :   F:\MyWork\PyWork\gd32ai-modelzoo\object_detection\yolov10\results\deploy\coco_person_0012\temp                       
output dir         :   F:\MyWork\PyWork\gd32ai-modelzoo\object_detection\yolov10\results\deploy\coco_person_0012\Edge_AI\model              
model_fmt          :   ss/sa per-channel                                                                                                    
model_name         :   model_post                                                                                                           
model_hash         :   0bb8f868968a6b75508456304e0b4d44                                                                                     
params #           :   212,770 items (219.20 KiB)                                                                                           
--------------------------------------------------------------------------------------------------------------------------------------------
input 1/1          :   'serving_default_input_20' (domain:activations/**default**)                                                          
                   :   49152 items, 48.00 KiB, ai_i8, s=0.00775980, zp=-128, (1,32,32,48)                                                   
output 1/1         :   'conversion_94' (domain:activations/**default**)                                                                     
                   :   1536 items, 6.00 KiB, ai_float, float, (1,256,1,6)                                                                   
macc               :   29,630,694                                                                                                           
weights (ro)       :   222,544 B (217.33 KiB) (1 segment) / -628,536(-73.9%) vs float model                                                 
activations (rw)   :   123,312 B (120.42 KiB) (1 segment) *                                                                                 
ram (total)        :   123,312 B (120.42 KiB) = 123,312 + 0 + 0                                                                             
--------------------------------------------------------------------------------------------------------------------------------------------
(*) 'input'/'output' buffers can be used from the activations buffer

Model name - model_post ['serving_default_input_20'] ['conversion_94']
------ -------------------------------------------- ---------------------------- --------------- ----------- -------------------------- --- ----------------- ------------------- ---------------------------- 
m_id   layer (type,original)                        oshape                       param/size             macc               connected to   | c_size            c_macc              c_type                       
------ -------------------------------------------- ---------------------------- --------------- ----------- -------------------------- --- ----------------- ------------------- ---------------------------- 
0      serving_default_input_20 (Input, )           [b:1,h:32,w:32,c:48]                                                                  |                                       pad_oi8[0]                   
       pad_0 (Pad, PAD)                             [b:1,h:34,w:34,c:48]                                       serving_default_input_20   |                                       
------ -------------------------------------------- ---------------------------- --------------- ----------- -------------------------- --- ----------------- ------------------- ---------------------------- 
1      conv2d_1 (Conv2D, DEPTHWISE_CONV_2D)         [b:1,h:16,w:16,c:48]         480/624             110,640                      pad_0   |                                       conv2d_oi8[59]               
------ -------------------------------------------- ---------------------------- --------------- ----------- -------------------------- --- ----------------- ------------------- ---------------------------- 
2      conv2d_2 (Conv2D, CONV_2D)                   [b:1,h:16,w:16,c:96]         4,704/4,992       1,179,744                   conv2d_1   |                                       conv2d_oi8[60]               
------ -------------------------------------------- ---------------------------- --------------- ----------- -------------------------- --- ----------------- ------------------- ---------------------------- 
3      conv2d_3 (Conv2D, DEPTHWISE_CONV_2D)         [b:1,h:16,w:16,c:48]         480/624             110,640                      pad_0   |                                       conv2d_oi8[1]                
------ -------------------------------------------- ---------------------------- --------------- ----------- -------------------------- --- ----------------- ------------------- ---------------------------- 
4      conv2d_4 (Conv2D, CONV_2D)                   [b:1,h:16,w:16,c:96]         4,704/4,992       1,179,744                   conv2d_3   |                                       conv2d_oi8[2]                
------ -------------------------------------------- ---------------------------- --------------- ----------- -------------------------- --- ----------------- ------------------- ---------------------------- 
5      gather_5 (Gather, GATHER)                    [b:1,h:16,w:16,c:48]         48/192                                        conv2d_4   |                                       gather_oi8[14]               
------ -------------------------------------------- ---------------------------- --------------- ----------- -------------------------- --- ----------------- ------------------- ---------------------------- 
6      gather_6 (Gather, GATHER)                    [b:1,h:16,w:16,c:48]         48/192                                        conv2d_4   |                                       gather_oi8[3]                
------ -------------------------------------------- ---------------------------- --------------- ----------- -------------------------- --- ----------------- ------------------- ---------------------------- 
7      conv2d_7 (Conv2D, CONV_2D)                   [b:1,h:16,w:16,c:48]         2,352/2,496         589,872                   gather_6   |                                       conv2d_oi8[4]                
       nl_7_nl (Nonlinearity, CONV_2D)              [b:1,h:16,w:16,c:48]                              12,288                   conv2d_7   |                   -12,288(-100.0%)    
------ -------------------------------------------- ---------------------------- --------------- ----------- -------------------------- --- ----------------- ------------------- ---------------------------- 
8      conv2d_8 (Conv2D, DEPTHWISE_CONV_2D)         [b:1,h:16,w:16,c:48]         480/624             110,640                    nl_7_nl   |                                       pad_oi8/conv2d_oi8[5, 6]     
       nl_8_nl (Nonlinearity, DEPTHWISE_CONV_2D)    [b:1,h:16,w:16,c:48]                              12,288                   conv2d_8   |                   -12,288(-100.0%)    
------ -------------------------------------------- ---------------------------- --------------- ----------- -------------------------- --- ----------------- ------------------- ---------------------------- 
9      eltwise_9 (Eltwise, ADD)                     [b:1,h:16,w:16,c:48]                              12,288                   gather_6   |                                       eltwise_integer_oi8[7]       
                                                                                                                                nl_8_nl   | 
------ -------------------------------------------- ---------------------------- --------------- ----------- -------------------------- --- ----------------- ------------------- ---------------------------- 
10     gather_10 (Gather, GATHER)                   [b:1,h:16,w:16,c:24]         24/96                                        eltwise_9   |                                       gather_oi8[13]               
------ -------------------------------------------- ---------------------------- --------------- ----------- -------------------------- --- ----------------- ------------------- ---------------------------- 
11     gather_11 (Gather, GATHER)                   [b:1,h:16,w:16,c:24]         24/96                                        eltwise_9   |                                       gather_oi8[8]                
------ -------------------------------------------- ---------------------------- --------------- ----------- -------------------------- --- ----------------- ------------------- ---------------------------- 
12     conv2d_12 (Conv2D, CONV_2D)                  [b:1,h:16,w:16,c:24]         600/672             147,480                  gather_11   |                                       conv2d_oi8[9]                
       nl_12_nl (Nonlinearity, CONV_2D)             [b:1,h:16,w:16,c:24]                               6,144                  conv2d_12   |                   -6,144(-100.0%)     
------ -------------------------------------------- ---------------------------- --------------- ----------- -------------------------- --- ----------------- ------------------- ---------------------------- 
13     conv2d_13 (Conv2D, DEPTHWISE_CONV_2D)        [b:1,h:16,w:16,c:24]         240/312              55,320                   nl_12_nl   |                                       pad_oi8/conv2d_oi8[10, 11]   
       nl_13_nl (Nonlinearity, DEPTHWISE_CONV_2D)   [b:1,h:16,w:16,c:24]                               6,144                  conv2d_13   |                   -6,144(-100.0%)     
------ -------------------------------------------- ---------------------------- --------------- ----------- -------------------------- --- ----------------- ------------------- ---------------------------- 
14     eltwise_14 (Eltwise, ADD)                    [b:1,h:16,w:16,c:24]                               6,144                  gather_11   |                                       eltwise_integer_oi8[12]      
                                                                                                                               nl_13_nl   | 
------ -------------------------------------------- ---------------------------- --------------- ----------- -------------------------- --- ----------------- ------------------- ---------------------------- 
15     concat_15 (Concat, CONCATENATION)            [b:1,h:16,w:16,c:96]                                                       gather_5   |                                       concat_oi8[15]               
                                                                                                                              gather_10   | 
                                                                                                                             eltwise_14   | 
------ -------------------------------------------- ---------------------------- --------------- ----------- -------------------------- --- ----------------- ------------------- ---------------------------- 
16     conv2d_16 (Conv2D, CONV_2D)                  [b:1,h:16,w:16,c:96]         9,312/9,600       2,359,392                  concat_15   |                                       conv2d_oi8[16]               
       nl_16_nl (Nonlinearity, CONV_2D)             [b:1,h:16,w:16,c:96]                              24,576                  conv2d_16   |                   -24,576(-100.0%)    
------ -------------------------------------------- ---------------------------- --------------- ----------- -------------------------- --- ----------------- ------------------- ---------------------------- 
17     pad_17 (Pad, PAD)                            [b:1,h:18,w:18,c:96]                                                       nl_16_nl   |                                       pad_oi8[17]                  
------ -------------------------------------------- ---------------------------- --------------- ----------- -------------------------- --- ----------------- ------------------- ---------------------------- 
18     conv2d_18 (Conv2D, DEPTHWISE_CONV_2D)        [b:1,h:8,w:8,c:96]           960/1,248            55,392                     pad_17   |                                       conv2d_oi8[18]               
------ -------------------------------------------- ---------------------------- --------------- ----------- -------------------------- --- ----------------- ------------------- ---------------------------- 
19     conv2d_19 (Conv2D, CONV_2D)                  [b:1,h:8,w:8,c:192]          18,624/19,200     1,179,840                  conv2d_18   |                                       conv2d_oi8[19]               
------ -------------------------------------------- ---------------------------- --------------- ----------- -------------------------- --- ----------------- ------------------- ---------------------------- 
20     gather_20 (Gather, GATHER)                   [b:1,h:8,w:8,c:96]           96/384                                       conv2d_19   |                                       gather_oi8[25]               
------ -------------------------------------------- ---------------------------- --------------- ----------- -------------------------- --- ----------------- ------------------- ---------------------------- 
21     gather_21 (Gather, GATHER)                   [b:1,h:8,w:8,c:96]           96/384                                       conv2d_19   |                                       gather_oi8[20]               
------ -------------------------------------------- ---------------------------- --------------- ----------- -------------------------- --- ----------------- ------------------- ---------------------------- 
22     conv2d_22 (Conv2D, CONV_2D)                  [b:1,h:8,w:8,c:96]           9,312/9,600         589,920                  gather_21   |                                       conv2d_oi8[21]               
       nl_22_nl (Nonlinearity, CONV_2D)             [b:1,h:8,w:8,c:96]                                 6,144                  conv2d_22   |                   -6,144(-100.0%)     
------ -------------------------------------------- ---------------------------- --------------- ----------- -------------------------- --- ----------------- ------------------- ---------------------------- 
23     conv2d_23 (Conv2D, DEPTHWISE_CONV_2D)        [b:1,h:8,w:8,c:96]           960/1,248            55,392                   nl_22_nl   |                                       pad_oi8/conv2d_oi8[22, 23]   
       nl_23_nl (Nonlinearity, DEPTHWISE_CONV_2D)   [b:1,h:8,w:8,c:96]                                 6,144                  conv2d_23   |                   -6,144(-100.0%)     
------ -------------------------------------------- ---------------------------- --------------- ----------- -------------------------- --- ----------------- ------------------- ---------------------------- 
24     eltwise_24 (Eltwise, ADD)                    [b:1,h:8,w:8,c:96]                                 6,144                  gather_21   |                                       eltwise_integer_oi8[24]      
                                                                                                                               nl_23_nl   | 
------ -------------------------------------------- ---------------------------- --------------- ----------- -------------------------- --- ----------------- ------------------- ---------------------------- 
25     concat_25 (Concat, CONCATENATION)            [b:1,h:8,w:8,c:192]                                                       gather_20   |                                       concat_oi8[26]               
                                                                                                                             eltwise_24   | 
------ -------------------------------------------- ---------------------------- --------------- ----------- -------------------------- --- ----------------- ------------------- ---------------------------- 
26     conv2d_26 (Conv2D, CONV_2D)                  [b:1,h:8,w:8,c:192]          37,056/37,632     2,359,488                  concat_25   |                   +24,576(+1.0%)      conv2d_oi8[27]               
       nl_26_nl (Nonlinearity, CONV_2D)             [b:1,h:8,w:8,c:192]                               12,288                  conv2d_26   |                   -12,288(-100.0%)    
------ -------------------------------------------- ---------------------------- --------------- ----------- -------------------------- --- ----------------- ------------------- ---------------------------- 
27     gather_27 (Gather, GATHER)                   [b:1,h:8,w:8,c:48]           48/192                                        nl_26_nl   |                                       gather_oi8[34]               
------ -------------------------------------------- ---------------------------- --------------- ----------- -------------------------- --- ----------------- ------------------- ---------------------------- 
28     gather_28 (Gather, GATHER)                   [b:1,h:8,w:8,c:48]           48/192                                        nl_26_nl   |                                       gather_oi8[32]               
------ -------------------------------------------- ---------------------------- --------------- ----------- -------------------------- --- ----------------- ------------------- ---------------------------- 
29     pool_29 (Pool, MAX_POOL_2D)                  [b:1,h:8,w:8,c:48]                                27,648                  gather_28   |                                       pool_oi8[33]                 
------ -------------------------------------------- ---------------------------- --------------- ----------- -------------------------- --- ----------------- ------------------- ---------------------------- 
30     gather_30 (Gather, GATHER)                   [b:1,h:8,w:8,c:48]           48/192                                        nl_26_nl   |                                       gather_oi8[30]               
------ -------------------------------------------- ---------------------------- --------------- ----------- -------------------------- --- ----------------- ------------------- ---------------------------- 
31     pool_31 (Pool, MAX_POOL_2D)                  [b:1,h:8,w:8,c:48]                                76,800                  gather_30   |                                       pool_oi8[31]                 
------ -------------------------------------------- ---------------------------- --------------- ----------- -------------------------- --- ----------------- ------------------- ---------------------------- 
32     gather_32 (Gather, GATHER)                   [b:1,h:8,w:8,c:48]           48/192                                        nl_26_nl   |                                       gather_oi8[28]               
------ -------------------------------------------- ---------------------------- --------------- ----------- -------------------------- --- ----------------- ------------------- ---------------------------- 
33     pool_33 (Pool, MAX_POOL_2D)                  [b:1,h:8,w:8,c:48]                               150,528                  gather_32   |                                       pool_oi8[29]                 
------ -------------------------------------------- ---------------------------- --------------- ----------- -------------------------- --- ----------------- ------------------- ---------------------------- 
34     concat_34 (Concat, CONCATENATION)            [b:1,h:8,w:8,c:192]                                                       gather_27   |                                       concat_oi8[35]               
                                                                                                                                pool_29   | 
                                                                                                                                pool_31   | 
                                                                                                                                pool_33   | 
------ -------------------------------------------- ---------------------------- --------------- ----------- -------------------------- --- ----------------- ------------------- ---------------------------- 
35     gather_35 (Gather, GATHER)                   [b:1,h:8,w:8,c:96]           96/384                                       concat_34   |                                       gather_oi8[37]               
------ -------------------------------------------- ---------------------------- --------------- ----------- -------------------------- --- ----------------- ------------------- ---------------------------- 
36     gather_36 (Gather, GATHER)                   [b:1,h:8,w:8,c:96]           96/384                                       concat_34   |                                       gather_oi8[36]               
------ -------------------------------------------- ---------------------------- --------------- ----------- -------------------------- --- ----------------- ------------------- ---------------------------- 
37     concat_37 (Concat, CONCATENATION)            [b:1,h:8,w:8,c:192]                                                       gather_35   |                                       concat_oi8[38]               
                                                                                                                              gather_36   | 
------ -------------------------------------------- ---------------------------- --------------- ----------- -------------------------- --- ----------------- ------------------- ---------------------------- 
38     gather_38 (Gather, GATHER)                   [b:1,h:8,w:8,c:96]           96/384                                       concat_37   |                                       gather_oi8[45]               
------ -------------------------------------------- ---------------------------- --------------- ----------- -------------------------- --- ----------------- ------------------- ---------------------------- 
39     gather_39 (Gather, GATHER)                   [b:1,h:8,w:8,c:96]           96/384                                       concat_37   |                                       gather_oi8[39]               
------ -------------------------------------------- ---------------------------- --------------- ----------- -------------------------- --- ----------------- ------------------- ---------------------------- 
40     pad_40 (Pad, PAD)                            [b:1,h:14,w:14,c:96]                                                      gather_39   | +5,088(+100.0%)   +301,152(+100.0%)   conv2d_oi8[40]               
------ -------------------------------------------- ---------------------------- --------------- ----------- -------------------------- --- ----------------- ------------------- ---------------------------- 
41     conv2d_41 (Conv2D, DEPTHWISE_CONV_2D)        [b:1,h:8,w:8,c:96]           4,800/5,088         301,152                     pad_40   | -5,088(-100.0%)   -301,152(-100.0%)   
       nl_41_nl (Nonlinearity, DEPTHWISE_CONV_2D)   [b:1,h:8,w:8,c:96]                                 6,144                  conv2d_41   |                   -6,144(-100.0%)     
------ -------------------------------------------- ---------------------------- --------------- ----------- -------------------------- --- ----------------- ------------------- ---------------------------- 
42     eltwise_42 (Eltwise, ADD)                    [b:1,h:8,w:8,c:96]                                 6,144                  gather_39   |                                       eltwise_integer_oi8[41]      
                                                                                                                               nl_41_nl   | 
------ -------------------------------------------- ---------------------------- --------------- ----------- -------------------------- --- ----------------- ------------------- ---------------------------- 
43     conv2d_43 (Conv2D, CONV_2D)                  [b:1,h:8,w:8,c:192]          18,624/19,200     1,179,840                 eltwise_42   |                                       conv2d_oi8[42]               
       nl_43_nl (Nonlinearity, CONV_2D)             [b:1,h:8,w:8,c:192]                               12,288                  conv2d_43   |                   -12,288(-100.0%)    
------ -------------------------------------------- ---------------------------- --------------- ----------- -------------------------- --- ----------------- ------------------- ---------------------------- 
44     conv2d_44 (Conv2D, CONV_2D)                  [b:1,h:8,w:8,c:96]           18,528/18,816     1,179,744                   nl_43_nl   |                                       conv2d_oi8[43]               
------ -------------------------------------------- ---------------------------- --------------- ----------- -------------------------- --- ----------------- ------------------- ---------------------------- 
45     eltwise_45 (Eltwise, ADD)                    [b:1,h:8,w:8,c:96]                                 6,144                 eltwise_42   |                                       eltwise_integer_oi8[44]      
                                                                                                                              conv2d_44   | 
------ -------------------------------------------- ---------------------------- --------------- ----------- -------------------------- --- ----------------- ------------------- ---------------------------- 
46     concat_46 (Concat, CONCATENATION)            [b:1,h:8,w:8,c:192]                                                       gather_38   |                                       concat_oi8[46]               
                                                                                                                             eltwise_45   | 
------ -------------------------------------------- ---------------------------- --------------- ----------- -------------------------- --- ----------------- ------------------- ---------------------------- 
47     conv2d_47 (Conv2D, CONV_2D)                  [b:1,h:8,w:8,c:96]           18,528/18,816     1,179,744                  concat_46   |                                       conv2d_oi8[47]               
------ -------------------------------------------- ---------------------------- --------------- ----------- -------------------------- --- ----------------- ------------------- ---------------------------- 
48     pack_48 (Pack, PACK)                         [b:1,h:8,w:8,d:2,c:96]                                                    conv2d_47   |                                       pack_oi8[48]                 
                                                                                                                              conv2d_47   | 
------ -------------------------------------------- ---------------------------- --------------- ----------- -------------------------- --- ----------------- ------------------- ---------------------------- 
49     pack_49 (Pack, PACK)                         [b:1,h:8,w:2,d:8,e:2,c:96]                                                  pack_48   |                                       pack_oi8[49]                 
                                                                                                                                pack_48   | 
------ -------------------------------------------- ---------------------------- --------------- ----------- -------------------------- --- ----------------- ------------------- ---------------------------- 
50     reshape_50 (Reshape, RESHAPE)                [b:1,h:16,w:16,c:96]                                                        pack_49   |                                       
------ -------------------------------------------- ---------------------------- --------------- ----------- -------------------------- --- ----------------- ------------------- ---------------------------- 
51     eltwise_51 (Eltwise, ADD)                    [b:1,h:16,w:16,c:96]                              24,576                   nl_16_nl   |                                       eltwise_integer_oi8[50]      
                                                                                                                             reshape_50   | 
------ -------------------------------------------- ---------------------------- --------------- ----------- -------------------------- --- ----------------- ------------------- ---------------------------- 
52     gather_52 (Gather, GATHER)                   [b:1,h:16,w:16,c:48]         48/192                                      eltwise_51   |                                       gather_oi8[56]               
------ -------------------------------------------- ---------------------------- --------------- ----------- -------------------------- --- ----------------- ------------------- ---------------------------- 
53     gather_53 (Gather, GATHER)                   [b:1,h:16,w:16,c:48]         48/192                                      eltwise_51   |                                       gather_oi8[51]               
------ -------------------------------------------- ---------------------------- --------------- ----------- -------------------------- --- ----------------- ------------------- ---------------------------- 
54     conv2d_54 (Conv2D, CONV_2D)                  [b:1,h:16,w:16,c:48]         2,352/2,496         589,872                  gather_53   |                                       conv2d_oi8[52]               
       nl_54_nl (Nonlinearity, CONV_2D)             [b:1,h:16,w:16,c:48]                              12,288                  conv2d_54   |                   -12,288(-100.0%)    
------ -------------------------------------------- ---------------------------- --------------- ----------- -------------------------- --- ----------------- ------------------- ---------------------------- 
55     conv2d_55 (Conv2D, DEPTHWISE_CONV_2D)        [b:1,h:16,w:16,c:48]         480/624             110,640                   nl_54_nl   |                                       pad_oi8/conv2d_oi8[53, 54]   
       nl_55_nl (Nonlinearity, DEPTHWISE_CONV_2D)   [b:1,h:16,w:16,c:48]                              12,288                  conv2d_55   |                   -12,288(-100.0%)    
------ -------------------------------------------- ---------------------------- --------------- ----------- -------------------------- --- ----------------- ------------------- ---------------------------- 
56     eltwise_56 (Eltwise, ADD)                    [b:1,h:16,w:16,c:48]                              12,288                  gather_53   |                                       eltwise_integer_oi8[55]      
                                                                                                                               nl_55_nl   | 
------ -------------------------------------------- ---------------------------- --------------- ----------- -------------------------- --- ----------------- ------------------- ---------------------------- 
57     concat_57 (Concat, CONCATENATION)            [b:1,h:16,w:16,c:96]                                                      gather_52   |                                       concat_oi8[57]               
                                                                                                                             eltwise_56   | 
------ -------------------------------------------- ---------------------------- --------------- ----------- -------------------------- --- ----------------- ------------------- ---------------------------- 
58     conv2d_58 (Conv2D, CONV_2D)                  [b:1,h:16,w:16,c:96]         9,312/9,600       2,359,392                  concat_57   |                                       conv2d_oi8[58]               
       nl_58_nl (Nonlinearity, CONV_2D)             [b:1,h:16,w:16,c:96]                              24,576                  conv2d_58   |                   -24,576(-100.0%)    
------ -------------------------------------------- ---------------------------- --------------- ----------- -------------------------- --- ----------------- ------------------- ---------------------------- 
59     eltwise_59 (Eltwise, ADD)                    [b:1,h:16,w:16,c:96]                              24,576                   nl_58_nl   |                                       eltwise_integer_oi8[61]      
                                                                                                                               conv2d_2   | 
------ -------------------------------------------- ---------------------------- --------------- ----------- -------------------------- --- ----------------- ------------------- ---------------------------- 
60     gather_60 (Gather, GATHER)                   [b:1,h:16,w:16,c:48]         48/192                                      eltwise_59   |                                       gather_oi8[71]               
------ -------------------------------------------- ---------------------------- --------------- ----------- -------------------------- --- ----------------- ------------------- ---------------------------- 
61     gather_61 (Gather, GATHER)                   [b:1,h:16,w:16,c:48]         48/192                                      eltwise_59   |                                       gather_oi8[62]               
------ -------------------------------------------- ---------------------------- --------------- ----------- -------------------------- --- ----------------- ------------------- ---------------------------- 
62     conv2d_62 (Conv2D, DEPTHWISE_CONV_2D)        [b:1,h:16,w:16,c:48]         480/624             110,640                  gather_61   |                                       pad_oi8/conv2d_oi8[63, 64]   
       nl_62_nl (Nonlinearity, DEPTHWISE_CONV_2D)   [b:1,h:16,w:16,c:48]                              12,288                  conv2d_62   |                   -12,288(-100.0%)    
------ -------------------------------------------- ---------------------------- --------------- ----------- -------------------------- --- ----------------- ------------------- ---------------------------- 
63     conv2d_63 (Conv2D, CONV_2D)                  [b:1,h:16,w:16,c:48]         2,352/2,496         589,872                   nl_62_nl   |                                       conv2d_oi8[65]               
       nl_63_nl (Nonlinearity, CONV_2D)             [b:1,h:16,w:16,c:48]                              12,288                  conv2d_63   |                   -12,288(-100.0%)    
------ -------------------------------------------- ---------------------------- --------------- ----------- -------------------------- --- ----------------- ------------------- ---------------------------- 
64     pad_64 (Pad, PAD)                            [b:1,h:22,w:22,c:48]                                                       nl_63_nl   | +2,544(+100.0%)   +602,160(+100.0%)   conv2d_oi8[66]               
------ -------------------------------------------- ---------------------------- --------------- ----------- -------------------------- --- ----------------- ------------------- ---------------------------- 
65     conv2d_65 (Conv2D, DEPTHWISE_CONV_2D)        [b:1,h:16,w:16,c:48]         2,400/2,544         602,160                     pad_64   | -2,544(-100.0%)   -602,160(-100.0%)   
       nl_65_nl (Nonlinearity, DEPTHWISE_CONV_2D)   [b:1,h:16,w:16,c:48]                              12,288                  conv2d_65   |                   -12,288(-100.0%)    
------ -------------------------------------------- ---------------------------- --------------- ----------- -------------------------- --- ----------------- ------------------- ---------------------------- 
66     conv2d_66 (Conv2D, CONV_2D)                  [b:1,h:16,w:16,c:48]         2,352/2,496         589,872                   nl_65_nl   |                                       conv2d_oi8[67]               
       nl_66_nl (Nonlinearity, CONV_2D)             [b:1,h:16,w:16,c:48]                              12,288                  conv2d_66   |                   -12,288(-100.0%)    
------ -------------------------------------------- ---------------------------- --------------- ----------- -------------------------- --- ----------------- ------------------- ---------------------------- 
67     conv2d_67 (Conv2D, DEPTHWISE_CONV_2D)        [b:1,h:16,w:16,c:48]         480/624             110,640                   nl_66_nl   |                                       pad_oi8/conv2d_oi8[68, 69]   
       nl_67_nl (Nonlinearity, DEPTHWISE_CONV_2D)   [b:1,h:16,w:16,c:48]                              12,288                  conv2d_67   |                   -12,288(-100.0%)    
------ -------------------------------------------- ---------------------------- --------------- ----------- -------------------------- --- ----------------- ------------------- ---------------------------- 
68     eltwise_68 (Eltwise, ADD)                    [b:1,h:16,w:16,c:48]                              12,288                  gather_61   |                                       eltwise_integer_oi8[70]      
                                                                                                                               nl_67_nl   | 
------ -------------------------------------------- ---------------------------- --------------- ----------- -------------------------- --- ----------------- ------------------- ---------------------------- 
69     concat_69 (Concat, CONCATENATION)            [b:1,h:16,w:16,c:96]                                                      gather_60   |                                       concat_oi8[72]               
                                                                                                                             eltwise_68   | 
------ -------------------------------------------- ---------------------------- --------------- ----------- -------------------------- --- ----------------- ------------------- ---------------------------- 
70     conv2d_70 (Conv2D, CONV_2D)                  [b:1,h:16,w:16,c:96]         9,312/9,600       2,359,392                  concat_69   |                                       conv2d_oi8[73]               
       nl_70_nl (Nonlinearity, CONV_2D)             [b:1,h:16,w:16,c:96]                              24,576                  conv2d_70   |                   -24,576(-100.0%)    
------ -------------------------------------------- ---------------------------- --------------- ----------- -------------------------- --- ----------------- ------------------- ---------------------------- 
71     conv2d_71 (Conv2D, CONV_2D)                  [b:1,h:16,w:16,c:1]          97/100               24,577                   nl_70_nl   | -100(-100.0%)     -24,577(-100.0%)    
------ -------------------------------------------- ---------------------------- --------------- ----------- -------------------------- --- ----------------- ------------------- ---------------------------- 
72     nl_72 (Nonlinearity, LOGISTIC)               [b:1,h:16,w:16,c:1]                                2,560                  conv2d_71   | +100(+100.0%)     +22,273(+870.0%)    conv2d_oi8[89]               
------ -------------------------------------------- ---------------------------- --------------- ----------- -------------------------- --- ----------------- ------------------- ---------------------------- 
73     conversion_73 (Conversion, QUANTIZE)         [b:1,h:16,w:16,c:1]                                  512                      nl_72   |                   -512(-100.0%)       
------ -------------------------------------------- ---------------------------- --------------- ----------- -------------------------- --- ----------------- ------------------- ---------------------------- 
74     conv2d_74 (Conv2D, DEPTHWISE_CONV_2D)        [b:1,h:16,w:16,c:96]         960/1,248           221,280                   nl_70_nl   |                                       pad_oi8/conv2d_oi8[74, 75]   
       nl_74_nl (Nonlinearity, DEPTHWISE_CONV_2D)   [b:1,h:16,w:16,c:96]                              24,576                  conv2d_74   |                   -24,576(-100.0%)    
------ -------------------------------------------- ---------------------------- --------------- ----------- -------------------------- --- ----------------- ------------------- ---------------------------- 
75     conv2d_75 (Conv2D, CONV_2D)                  [b:1,h:16,w:16,c:96]         9,312/9,600       2,359,392                   nl_74_nl   |                                       conv2d_oi8[76]               
       nl_75_nl (Nonlinearity, CONV_2D)             [b:1,h:16,w:16,c:96]                              24,576                  conv2d_75   |                   -24,576(-100.0%)    
------ -------------------------------------------- ---------------------------- --------------- ----------- -------------------------- --- ----------------- ------------------- ---------------------------- 
76     conv2d_76 (Conv2D, CONV_2D)                  [b:1,h:16,w:16,c:1]          97/100               24,577                   nl_75_nl   | -100(-100.0%)     -24,577(-100.0%)    
------ -------------------------------------------- ---------------------------- --------------- ----------- -------------------------- --- ----------------- ------------------- ---------------------------- 
77     nl_77 (Nonlinearity, LOGISTIC)               [b:1,h:16,w:16,c:1]                                2,560                  conv2d_76   | +100(+100.0%)     +22,273(+870.0%)    conv2d_oi8[77]               
------ -------------------------------------------- ---------------------------- --------------- ----------- -------------------------- --- ----------------- ------------------- ---------------------------- 
78     conversion_78 (Conversion, QUANTIZE)         [b:1,h:16,w:16,c:1]                                  512                      nl_77   |                   -512(-100.0%)       
------ -------------------------------------------- ---------------------------- --------------- ----------- -------------------------- --- ----------------- ------------------- ---------------------------- 
79     conv2d_79 (Conv2D, DEPTHWISE_CONV_2D)        [b:1,h:16,w:16,c:96]         960/1,248           221,280                   nl_70_nl   |                                       pad_oi8/conv2d_oi8[78, 79]   
       nl_79_nl (Nonlinearity, DEPTHWISE_CONV_2D)   [b:1,h:16,w:16,c:96]                              24,576                  conv2d_79   |                   -24,576(-100.0%)    
------ -------------------------------------------- ---------------------------- --------------- ----------- -------------------------- --- ----------------- ------------------- ---------------------------- 
80     conv2d_80 (Conv2D, CONV_2D)                  [b:1,h:16,w:16,c:96]         9,312/9,600       2,359,392                   nl_79_nl   |                                       conv2d_oi8[80]               
       nl_80_nl (Nonlinearity, CONV_2D)             [b:1,h:16,w:16,c:96]                              24,576                  conv2d_80   |                   -24,576(-100.0%)    
------ -------------------------------------------- ---------------------------- --------------- ----------- -------------------------- --- ----------------- ------------------- ---------------------------- 
81     conv2d_81 (Conv2D, DEPTHWISE_CONV_2D)        [b:1,h:16,w:16,c:96]         960/1,248           221,280                   nl_80_nl   |                                       pad_oi8/conv2d_oi8[81, 82]   
       nl_81_nl (Nonlinearity, DEPTHWISE_CONV_2D)   [b:1,h:16,w:16,c:96]                              24,576                  conv2d_81   |                   -24,576(-100.0%)    
------ -------------------------------------------- ---------------------------- --------------- ----------- -------------------------- --- ----------------- ------------------- ---------------------------- 
82     conv2d_82 (Conv2D, CONV_2D)                  [b:1,h:16,w:16,c:96]         9,312/9,600       2,359,392                   nl_81_nl   |                                       conv2d_oi8[83]               
       nl_82_nl (Nonlinearity, CONV_2D)             [b:1,h:16,w:16,c:96]                              24,576                  conv2d_82   |                   -24,576(-100.0%)    
------ -------------------------------------------- ---------------------------- --------------- ----------- -------------------------- --- ----------------- ------------------- ---------------------------- 
83     conv2d_83 (Conv2D, CONV_2D)                  [b:1,h:16,w:16,c:4]          388/400              98,308                   nl_82_nl   |                                       conv2d_oi8[84]               
------ -------------------------------------------- ---------------------------- --------------- ----------- -------------------------- --- ----------------- ------------------- ---------------------------- 
84     gather_84 (Gather, GATHER)                   [b:1,h:16,w:16,c:2]          2/8                                          conv2d_83   |                                       gather_oi8[87]               
------ -------------------------------------------- ---------------------------- --------------- ----------- -------------------------- --- ----------------- ------------------- ---------------------------- 
85     nl_85 (Nonlinearity, TANH)                   [b:1,h:16,w:16,c:2]                                5,120                  gather_84   |                   -4,608(-90.0%)      nl_oi8[88]                   
------ -------------------------------------------- ---------------------------- --------------- ----------- -------------------------- --- ----------------- ------------------- ---------------------------- 
86     conversion_86 (Conversion, QUANTIZE)         [b:1,h:16,w:16,c:2]                                1,024                      nl_85   |                   -1,024(-100.0%)     
------ -------------------------------------------- ---------------------------- --------------- ----------- -------------------------- --- ----------------- ------------------- ---------------------------- 
87     gather_87 (Gather, GATHER)                   [b:1,h:16,w:16,c:2]          2/8                                          conv2d_83   |                                       gather_oi8[85]               
------ -------------------------------------------- ---------------------------- --------------- ----------- -------------------------- --- ----------------- ------------------- ---------------------------- 
88     nl_88 (Nonlinearity, LOGISTIC)               [b:1,h:16,w:16,c:2]                                5,120                  gather_87   |                   -4,608(-90.0%)      nl_oi8[86]                   
------ -------------------------------------------- ---------------------------- --------------- ----------- -------------------------- --- ----------------- ------------------- ---------------------------- 
89     conversion_89 (Conversion, QUANTIZE)         [b:1,h:16,w:16,c:2]                                1,024                      nl_88   |                   -1,024(-100.0%)     
------ -------------------------------------------- ---------------------------- --------------- ----------- -------------------------- --- ----------------- ------------------- ---------------------------- 
90     concat_90 (Concat, CONCATENATION)            [b:1,h:16,w:16,c:6]                                                   conversion_73   |                                       concat_oi8[90]               
                                                                                                                          conversion_86   | 
                                                                                                                          conversion_89   | 
                                                                                                                          conversion_78   | 
------ -------------------------------------------- ---------------------------- --------------- ----------- -------------------------- --- ----------------- ------------------- ---------------------------- 
91     transpose_91 (Transpose, TRANSPOSE)          [b:1,h:6,w:16,c:16]                                                       concat_90   |                                       transpose_oi8[91]            
------ -------------------------------------------- ---------------------------- --------------- ----------- -------------------------- --- ----------------- ------------------- ---------------------------- 
92     reshape_92 (Reshape, RESHAPE)                [b:1,h:6,c:256]                                                        transpose_91   |                                       
------ -------------------------------------------- ---------------------------- --------------- ----------- -------------------------- --- ----------------- ------------------- ---------------------------- 
93     transpose_93 (Transpose, TRANSPOSE)          [b:1,h:256,c:6]                                                          reshape_92   |                                       transpose_oi8[92]            
------ -------------------------------------------- ---------------------------- --------------- ----------- -------------------------- --- ----------------- ------------------- ---------------------------- 
94     conversion_94 (Conversion, DEQUANTIZE)       [b:1,h:256,c:6]                                    3,072               transpose_93   |                                       converter_of32[o][93]        
------ -------------------------------------------- ---------------------------- --------------- ----------- -------------------------- --- ----------------- ------------------- ---------------------------- 
model/c-model: macc=30,010,086/29,630,694 -379,392(-1.3%) weights=224,464/222,544 -1,920(-0.9%) activations=--/123,312 io=--/0



Generated C-graph summary
------------------------------------------------------------------------------------------------------------------------
model name            : model_post
c-name                : network_2
c-node #              : 94
c-array #             : 221
activations size      : 123312 (1 segment)
weights size          : 222544 (1 segment)
macc                  : 29630694
inputs                : ['serving_default_input_20_output']
outputs               : ['conversion_94_output']

C-Arrays (221)
------ --------------------------------- ------------- ------------------------- --------------- -------------- --------- 
c_id   name (*_array)                    item/size     domain/mem-pool           c-type          fmt            comment   
------ --------------------------------- ------------- ------------------------- --------------- -------------- --------- 
0      conv2d_79_scratch1                24576/24576   activations/**default**   int8_t          sa8                      
1      conv2d_7_weights                  2304/2304     weights/weights           const int8_t    ss8/ch(48)               
2      conv2d_76_scratch0                384/384       activations/**default**   int8_t          s8                       
3      conv2d_7_bias                     48/192        weights/weights           const int32_t   ss32/ch(48)              
4      conv2d_80_scratch0                1344/1344     activations/**default**   int8_t          s8                       
5      conv2d_8_weights                  432/432       weights/weights           const int8_t    ss8/ch(48)               
6      conv2d_81_scratch0                3553/3553     activations/**default**   int8_t          s8                       
7      conv2d_8_bias                     48/192        weights/weights           const int32_t   ss32/ch(48)              
8      conv2d_82_scratch0                1344/1344     activations/**default**   int8_t          s8                       
9      gather_11_indices                 24/96         weights/weights           const int32_t   s32                      
10     conv2d_82_scratch1                24576/24576   activations/**default**   int8_t          sa8                      
11     conv2d_12_weights                 576/576       weights/weights           const int8_t    ss8/ch(24)               
12     conv2d_83_scratch0                424/424       activations/**default**   int8_t          s8                       
13     conv2d_12_bias                    24/96         weights/weights           const int32_t   ss32/ch(24)              
14     conv2d_71_scratch0                384/384       activations/**default**   int8_t          s8                       
15     conv2d_13_weights                 216/216       weights/weights           const int8_t    ss8/ch(24)               
16     conv2d_71_scratch1                256/256       activations/**default**   int8_t          sa8                      
17     conv2d_13_bias                    24/96         weights/weights           const int32_t   ss32/ch(24)              
18     gather_10_indices                 24/96         weights/weights           const int32_t   s32                      
19     gather_5_indices                  48/192        weights/weights           const int32_t   s32                      
20     conv2d_79_scratch0                3553/3553     activations/**default**   int8_t          s8                       
21     conv2d_16_weights                 9216/9216     weights/weights           const int8_t    ss8/ch(96)               
22     conv2d_16_bias                    96/384        weights/weights           const int32_t   ss32/ch(96)              
23     conv2d_18_weights                 864/864       weights/weights           const int8_t    ss8/ch(96)               
24     conv2d_18_bias                    96/384        weights/weights           const int32_t   ss32/ch(96)              
25     conv2d_19_weights                 18432/18432   weights/weights           const int8_t    ss8/ch(192)              
26     conv2d_19_bias                    192/768       weights/weights           const int32_t   ss32/ch(192)             
27     gather_21_indices                 96/384        weights/weights           const int32_t   s32                      
28     conv2d_22_weights                 9216/9216     weights/weights           const int8_t    ss8/ch(96)               
29     conv2d_22_bias                    96/384        weights/weights           const int32_t   ss32/ch(96)              
30     conv2d_23_weights                 864/864       weights/weights           const int8_t    ss8/ch(96)               
31     conv2d_23_bias                    96/384        weights/weights           const int32_t   ss32/ch(96)              
32     gather_20_indices                 96/384        weights/weights           const int32_t   s32                      
33     conv2d_26_weights                 36864/36864   weights/weights           const int8_t    ss8/ch(192)              
34     conv2d_26_bias                    192/768       weights/weights           const int32_t   ss32/ch(192)             
35     gather_32_indices                 48/192        weights/weights           const int32_t   s32                      
36     gather_30_indices                 48/192        weights/weights           const int32_t   s32                      
37     gather_36_indices                 96/384        weights/weights           const int32_t   s32                      
38     gather_35_indices                 96/384        weights/weights           const int32_t   s32                      
39     conv2d_41_weights                 4704/4704     weights/weights           const int8_t    ss8/ch(96)               
40     conv2d_41_bias                    96/384        weights/weights           const int32_t   ss32/ch(96)              
41     conv2d_43_weights                 18432/18432   weights/weights           const int8_t    ss8/ch(192)              
42     conv2d_43_bias                    192/768       weights/weights           const int32_t   ss32/ch(192)             
43     conv2d_44_weights                 18432/18432   weights/weights           const int8_t    ss8/ch(96)               
44     conv2d_44_bias                    96/384        weights/weights           const int32_t   ss32/ch(96)              
45     conv2d_47_weights                 18432/18432   weights/weights           const int8_t    ss8/ch(96)               
46     conv2d_47_bias                    96/384        weights/weights           const int32_t   ss32/ch(96)              
47     conv2d_54_weights                 2304/2304     weights/weights           const int8_t    ss8/ch(48)               
48     conv2d_54_bias                    48/192        weights/weights           const int32_t   ss32/ch(48)              
49     conv2d_55_weights                 432/432       weights/weights           const int8_t    ss8/ch(48)               
50     conv2d_55_bias                    48/192        weights/weights           const int32_t   ss32/ch(48)              
51     conv2d_58_weights                 9216/9216     weights/weights           const int8_t    ss8/ch(96)               
52     conv2d_58_bias                    96/384        weights/weights           const int32_t   ss32/ch(96)              
53     conv2d_1_weights                  432/432       weights/weights           const int8_t    ss8/ch(48)               
54     conv2d_1_bias                     48/192        weights/weights           const int32_t   ss32/ch(48)              
55     conv2d_2_weights                  4608/4608     weights/weights           const int8_t    ss8/ch(96)               
56     conv2d_2_bias                     96/384        weights/weights           const int32_t   ss32/ch(96)              
57     serving_default_input_20_output   49152/49152   activations/**default**   int8_t          sa8            /input    
58     conv2d_62_weights                 432/432       weights/weights           const int8_t    ss8/ch(48)               
59     pad_0_output                      55488/55488   activations/**default**   int8_t          sa8                      
60     conv2d_3_output                   12288/12288   activations/**default**   int8_t          sa8                      
61     conv2d_62_bias                    48/192        weights/weights           const int32_t   ss32/ch(48)              
62     conv2d_4_output                   24576/24576   activations/**default**   int8_t          sa8                      
63     gather_6_output                   12288/12288   activations/**default**   int8_t          sa8                      
64     conv2d_63_weights                 2304/2304     weights/weights           const int8_t    ss8/ch(48)               
65     conv2d_7_output                   12288/12288   activations/**default**   int8_t          sa8                      
66     conv2d_8_pad_before_output        15552/15552   activations/**default**   int8_t          sa8                      
67     conv2d_63_bias                    48/192        weights/weights           const int32_t   ss32/ch(48)              
68     conv2d_8_output                   12288/12288   activations/**default**   int8_t          sa8                      
69     eltwise_9_output                  12288/12288   activations/**default**   int8_t          sa8                      
70     conv2d_65_weights                 2352/2352     weights/weights           const int8_t    ss8/ch(48)               
71     gather_11_output                  6144/6144     activations/**default**   int8_t          sa8                      
72     conv2d_12_output                  6144/6144     activations/**default**   int8_t          sa8                      
73     conv2d_65_bias                    48/192        weights/weights           const int32_t   ss32/ch(48)              
74     conv2d_13_pad_before_output       7776/7776     activations/**default**   int8_t          sa8                      
75     conv2d_13_output                  6144/6144     activations/**default**   int8_t          sa8                      
76     conv2d_66_weights                 2304/2304     weights/weights           const int8_t    ss8/ch(48)               
77     eltwise_14_output                 6144/6144     activations/**default**   int8_t          sa8                      
78     gather_10_output                  6144/6144     activations/**default**   int8_t          sa8                      
79     conv2d_66_bias                    48/192        weights/weights           const int32_t   ss32/ch(48)              
80     gather_5_output                   12288/12288   activations/**default**   int8_t          sa8                      
81     concat_15_output                  24576/24576   activations/**default**   int8_t          sa8                      
82     conv2d_67_weights                 432/432       weights/weights           const int8_t    ss8/ch(48)               
83     conv2d_16_output                  24576/24576   activations/**default**   int8_t          sa8                      
84     conv2d_18_pad_before_output       31104/31104   activations/**default**   int8_t          sa8                      
85     conv2d_67_bias                    48/192        weights/weights           const int32_t   ss32/ch(48)              
86     conv2d_18_output                  6144/6144     activations/**default**   int8_t          sa8                      
87     conv2d_19_output                  12288/12288   activations/**default**   int8_t          sa8                      
88     gather_21_output                  6144/6144     activations/**default**   int8_t          sa8                      
89     conv2d_22_output                  6144/6144     activations/**default**   int8_t          sa8                      
90     conv2d_70_weights                 9216/9216     weights/weights           const int8_t    ss8/ch(96)               
91     conv2d_23_pad_before_output       9600/9600     activations/**default**   int8_t          sa8                      
92     conv2d_23_output                  6144/6144     activations/**default**   int8_t          sa8                      
93     conv2d_70_bias                    96/384        weights/weights           const int32_t   ss32/ch(96)              
94     eltwise_24_output                 6144/6144     activations/**default**   int8_t          sa8                      
95     gather_20_output                  6144/6144     activations/**default**   int8_t          sa8                      
96     conv2d_74_weights                 864/864       weights/weights           const int8_t    ss8/ch(96)               
97     concat_25_output                  12288/12288   activations/**default**   int8_t          sa8                      
98     conv2d_26_output                  12288/12288   activations/**default**   int8_t          sa8                      
99     conv2d_74_bias                    96/384        weights/weights           const int32_t   ss32/ch(96)              
100    gather_32_output                  3072/3072     activations/**default**   int8_t          sa8                      
101    pool_33_output                    3072/3072     activations/**default**   int8_t          sa8                      
102    conv2d_75_weights                 9216/9216     weights/weights           const int8_t    ss8/ch(96)               
103    gather_30_output                  3072/3072     activations/**default**   int8_t          sa8                      
104    pool_31_output                    3072/3072     activations/**default**   int8_t          sa8                      
105    conv2d_75_bias                    96/384        weights/weights           const int32_t   ss32/ch(96)              
106    gather_28_output                  3072/3072     activations/**default**   int8_t          sa8                      
107    pool_29_output                    3072/3072     activations/**default**   int8_t          sa8                      
108    conv2d_76_weights                 96/96         weights/weights           const int8_t    ss8                      
109    gather_27_output                  3072/3072     activations/**default**   int8_t          sa8                      
110    concat_34_output                  12288/12288   activations/**default**   int8_t          sa8                      
111    conv2d_76_bias                    1/4           weights/weights           const int32_t   ss32                     
112    gather_36_output                  6144/6144     activations/**default**   int8_t          sa8                      
113    gather_35_output                  6144/6144     activations/**default**   int8_t          sa8                      
114    conv2d_79_weights                 864/864       weights/weights           const int8_t    ss8/ch(96)               
115    concat_37_output                  12288/12288   activations/**default**   int8_t          sa8                      
116    gather_39_output                  6144/6144     activations/**default**   int8_t          sa8                      
117    conv2d_79_bias                    96/384        weights/weights           const int32_t   ss32/ch(96)              
118    conv2d_41_output                  6144/6144     activations/**default**   int8_t          sa8                      
119    eltwise_42_output                 6144/6144     activations/**default**   int8_t          sa8                      
120    conv2d_80_weights                 9216/9216     weights/weights           const int8_t    ss8/ch(96)               
121    conv2d_43_output                  12288/12288   activations/**default**   int8_t          sa8                      
122    conv2d_44_output                  6144/6144     activations/**default**   int8_t          sa8                      
123    conv2d_80_bias                    96/384        weights/weights           const int32_t   ss32/ch(96)              
124    eltwise_45_output                 6144/6144     activations/**default**   int8_t          sa8                      
125    gather_38_output                  6144/6144     activations/**default**   int8_t          sa8                      
126    conv2d_81_weights                 864/864       weights/weights           const int8_t    ss8/ch(96)               
127    concat_46_output                  12288/12288   activations/**default**   int8_t          sa8                      
128    conv2d_47_output                  6144/6144     activations/**default**   int8_t          sa8                      
129    conv2d_81_bias                    96/384        weights/weights           const int32_t   ss32/ch(96)              
130    pack_48_output                    12288/12288   activations/**default**   int8_t          sa8                      
131    pack_49_output                    24576/24576   activations/**default**   int8_t          sa8                      
132    conv2d_82_weights                 9216/9216     weights/weights           const int8_t    ss8/ch(96)               
133    eltwise_51_output                 24576/24576   activations/**default**   int8_t          sa8                      
134    gather_53_output                  12288/12288   activations/**default**   int8_t          sa8                      
135    conv2d_82_bias                    96/384        weights/weights           const int32_t   ss32/ch(96)              
136    conv2d_54_output                  12288/12288   activations/**default**   int8_t          sa8                      
137    conv2d_55_pad_before_output       15552/15552   activations/**default**   int8_t          sa8                      
138    conv2d_83_weights                 384/384       weights/weights           const int8_t    ss8/ch(4)                
139    conv2d_55_output                  12288/12288   activations/**default**   int8_t          sa8                      
140    eltwise_56_output                 12288/12288   activations/**default**   int8_t          sa8                      
141    conv2d_83_bias                    4/16          weights/weights           const int32_t   ss32/ch(4)               
142    gather_52_output                  12288/12288   activations/**default**   int8_t          sa8                      
143    concat_57_output                  24576/24576   activations/**default**   int8_t          sa8                      
144    gather_87_indices                 2/8           weights/weights           const int32_t   s32                      
145    conv2d_58_output                  24576/24576   activations/**default**   int8_t          sa8                      
146    conv2d_1_output                   12288/12288   activations/**default**   int8_t          sa8                      
147    gather_84_indices                 2/8           weights/weights           const int32_t   s32                      
148    conv2d_2_output                   24576/24576   activations/**default**   int8_t          sa8                      
149    eltwise_59_output                 24576/24576   activations/**default**   int8_t          sa8                      
150    conv2d_71_weights                 96/96         weights/weights           const int8_t    ss8                      
151    gather_61_output                  12288/12288   activations/**default**   int8_t          sa8                      
152    conv2d_62_pad_before_output       15552/15552   activations/**default**   int8_t          sa8                      
153    conv2d_71_bias                    1/4           weights/weights           const int32_t   ss32                     
154    conv2d_62_output                  12288/12288   activations/**default**   int8_t          sa8                      
155    conv2d_63_output                  12288/12288   activations/**default**   int8_t          sa8                      
156    conv2d_65_output                  12288/12288   activations/**default**   int8_t          sa8                      
157    conv2d_3_scratch0                 1777/1777     activations/**default**   int8_t          s8                       
158    conv2d_66_output                  12288/12288   activations/**default**   int8_t          sa8                      
159    conv2d_67_pad_before_output       15552/15552   activations/**default**   int8_t          sa8                      
160    conv2d_4_scratch0                 1152/1152     activations/**default**   int8_t          s8                       
161    conv2d_67_output                  12288/12288   activations/**default**   int8_t          sa8                      
162    eltwise_68_output                 12288/12288   activations/**default**   int8_t          sa8                      
163    gather_60_output                  12288/12288   activations/**default**   int8_t          sa8                      
164    conv2d_7_scratch0                 672/672       activations/**default**   int8_t          s8                       
165    concat_69_output                  24576/24576   activations/**default**   int8_t          sa8                      
166    conv2d_70_output                  24576/24576   activations/**default**   int8_t          sa8                      
167    conv2d_8_scratch0                 1777/1777     activations/**default**   int8_t          s8                       
168    conv2d_74_pad_before_output       31104/31104   activations/**default**   int8_t          sa8                      
169    conv2d_74_output                  24576/24576   activations/**default**   int8_t          sa8                      
170    conv2d_75_output                  24576/24576   activations/**default**   int8_t          sa8                      
171    conv2d_12_scratch0                336/336       activations/**default**   int8_t          s8                       
172    conv2d_76_output                  256/256       activations/**default**   int8_t          sa8                      
173    conv2d_79_pad_before_output       31104/31104   activations/**default**   int8_t          sa8                      
174    conv2d_13_scratch0                889/889       activations/**default**   int8_t          s8                       
175    conv2d_79_output                  24576/24576   activations/**default**   int8_t          sa8                      
176    conv2d_80_output                  24576/24576   activations/**default**   int8_t          sa8                      
177    conv2d_81_pad_before_output       31104/31104   activations/**default**   int8_t          sa8                      
178    conv2d_16_scratch0                1344/1344     activations/**default**   int8_t          s8                       
179    conv2d_81_output                  24576/24576   activations/**default**   int8_t          sa8                      
180    conv2d_82_output                  24576/24576   activations/**default**   int8_t          sa8                      
181    conv2d_18_scratch0                3553/3553     activations/**default**   int8_t          s8                       
182    conv2d_83_output                  1024/1024     activations/**default**   int8_t          sa8                      
183    gather_87_output                  512/512       activations/**default**   int8_t          sa8                      
184    nl_88_output                      512/512       activations/**default**   int8_t          sa8                      
185    conv2d_19_scratch0                2304/2304     activations/**default**   int8_t          s8                       
186    gather_84_output                  512/512       activations/**default**   int8_t          sa8                      
187    nl_85_output                      512/512       activations/**default**   int8_t          ss8                      
188    conv2d_22_scratch0                1344/1344     activations/**default**   int8_t          s8                       
189    conv2d_71_output                  256/256       activations/**default**   int8_t          sa8                      
190    concat_90_output                  1536/1536     activations/**default**   int8_t          sa8                      
191    transpose_91_output               1536/1536     activations/**default**   int8_t          sa8                      
192    conv2d_23_scratch0                3553/3553     activations/**default**   int8_t          s8                       
193    transpose_93_output               1536/1536     activations/**default**   int8_t          sa8                      
194    conversion_94_output              1536/6144     activations/**default**   float           float32        /output   
195    conv2d_26_scratch0                2688/2688     activations/**default**   int8_t          s8                       
196    conv2d_26_scratch1                12288/12288   activations/**default**   int8_t          sa8                      
197    conv2d_41_scratch0                15073/15073   activations/**default**   int8_t          s8                       
198    conv2d_43_scratch0                2304/2304     activations/**default**   int8_t          s8                       
199    conv2d_44_scratch0                1728/1728     activations/**default**   int8_t          s8                       
200    conv2d_47_scratch0                1728/1728     activations/**default**   int8_t          s8                       
201    conv2d_54_scratch0                672/672       activations/**default**   int8_t          s8                       
202    conv2d_55_scratch0                1777/1777     activations/**default**   int8_t          s8                       
203    conv2d_58_scratch0                1344/1344     activations/**default**   int8_t          s8                       
204    conv2d_1_scratch0                 1777/1777     activations/**default**   int8_t          s8                       
205    conv2d_2_scratch0                 1152/1152     activations/**default**   int8_t          s8                       
206    conv2d_62_scratch0                1777/1777     activations/**default**   int8_t          s8                       
207    conv2d_63_scratch0                672/672       activations/**default**   int8_t          s8                       
208    conv2d_65_scratch0                7537/7537     activations/**default**   int8_t          s8                       
209    conv2d_66_scratch0                672/672       activations/**default**   int8_t          s8                       
210    conv2d_67_scratch0                1777/1777     activations/**default**   int8_t          s8                       
211    conv2d_70_scratch0                1344/1344     activations/**default**   int8_t          s8                       
212    conv2d_74_scratch0                3553/3553     activations/**default**   int8_t          s8                       
213    conv2d_3_weights                  432/432       weights/weights           const int8_t    ss8/ch(48)               
214    conv2d_75_scratch0                1344/1344     activations/**default**   int8_t          s8                       
215    conv2d_75_scratch1                24576/24576   activations/**default**   int8_t          sa8                      
216    conv2d_3_bias                     48/192        weights/weights           const int32_t   ss32/ch(48)              
217    conv2d_4_weights                  4608/4608     weights/weights           const int8_t    ss8/ch(96)               
218    conv2d_76_scratch1                256/256       activations/**default**   int8_t          sa8                      
219    conv2d_4_bias                     96/384        weights/weights           const int32_t   ss32/ch(96)              
220    gather_6_indices                  48/192        weights/weights           const int32_t   s32                      
------ --------------------------------- ------------- ------------------------- --------------- -------------- --------- 

C-Layers (94)
------ ---------------------- ---- ------------------ --------- ------- ------------------------------------ ---------------------- 
c_id   name (*_layer)         id   layer_type         macc      rom     tensors                              shape (array id)       
------ ---------------------- ---- ------------------ --------- ------- ------------------------------------ ---------------------- 
0      pad_0                  0    pad                0         0       I: serving_default_input_20_output   (1,32,32,48) (57)      
                                                                        O: pad_0_output                      (1,34,34,48) (59)      
------ ---------------------- ---- ------------------ --------- ------- ------------------------------------ ---------------------- 
1      conv2d_3               3    conv2d             110640    624     I: pad_0_output                      (1,34,34,48) (59)      
                                                                        S: conv2d_3_scratch0                                        
                                                                        W: conv2d_3_weights                  (48,1,3,3) (213)       
                                                                        W: conv2d_3_bias                     (1,1,1,48) (216)       
                                                                        O: conv2d_3_output                   (1,16,16,48) (60)      
------ ---------------------- ---- ------------------ --------- ------- ------------------------------------ ---------------------- 
2      conv2d_4               4    conv2d             1179744   4992    I: conv2d_3_output                   (1,16,16,48) (60)      
                                                                        S: conv2d_4_scratch0                                        
                                                                        W: conv2d_4_weights                  (48,96,1,1) (217)      
                                                                        W: conv2d_4_bias                     (1,1,1,96) (219)       
                                                                        O: conv2d_4_output                   (1,16,16,96) (62)      
------ ---------------------- ---- ------------------ --------- ------- ------------------------------------ ---------------------- 
3      gather_6               6    gather             0         192     I: conv2d_4_output                   (1,16,16,96) (62)      
                                                                        W: gather_6_indices                  (1,1,48,1) (220)       
                                                                        O: gather_6_output                   (1,16,16,48) (63)      
------ ---------------------- ---- ------------------ --------- ------- ------------------------------------ ---------------------- 
4      conv2d_7               7    conv2d             589872    2496    I: gather_6_output                   (1,16,16,48) (63)      
                                                                        S: conv2d_7_scratch0                                        
                                                                        W: conv2d_7_weights                  (48,48,1,1) (1)        
                                                                        W: conv2d_7_bias                     (1,1,1,48) (3)         
                                                                        O: conv2d_7_output                   (1,16,16,48) (65)      
------ ---------------------- ---- ------------------ --------- ------- ------------------------------------ ---------------------- 
5      conv2d_8_pad_before    8    pad                0         0       I: conv2d_7_output                   (1,16,16,48) (65)      
                                                                        O: conv2d_8_pad_before_output        (1,18,18,48) (66)      
------ ---------------------- ---- ------------------ --------- ------- ------------------------------------ ---------------------- 
6      conv2d_8               8    conv2d             110640    624     I: conv2d_8_pad_before_output        (1,18,18,48) (66)      
                                                                        S: conv2d_8_scratch0                                        
                                                                        W: conv2d_8_weights                  (48,1,3,3) (5)         
                                                                        W: conv2d_8_bias                     (1,1,1,48) (7)         
                                                                        O: conv2d_8_output                   (1,16,16,48) (68)      
------ ---------------------- ---- ------------------ --------- ------- ------------------------------------ ---------------------- 
7      eltwise_9              9    eltwise_integer    12288     0       I: gather_6_output                   (1,16,16,48) (63)      
                                                                        I: conv2d_8_output                   (1,16,16,48) (68)      
                                                                        O: eltwise_9_output                  (1,16,16,48) (69)      
------ ---------------------- ---- ------------------ --------- ------- ------------------------------------ ---------------------- 
8      gather_11              11   gather             0         96      I: eltwise_9_output                  (1,16,16,48) (69)      
                                                                        W: gather_11_indices                 (1,1,24,1) (9)         
                                                                        O: gather_11_output                  (1,16,16,24) (71)      
------ ---------------------- ---- ------------------ --------- ------- ------------------------------------ ---------------------- 
9      conv2d_12              12   conv2d             147480    672     I: gather_11_output                  (1,16,16,24) (71)      
                                                                        S: conv2d_12_scratch0                                       
                                                                        W: conv2d_12_weights                 (24,24,1,1) (11)       
                                                                        W: conv2d_12_bias                    (1,1,1,24) (13)        
                                                                        O: conv2d_12_output                  (1,16,16,24) (72)      
------ ---------------------- ---- ------------------ --------- ------- ------------------------------------ ---------------------- 
10     conv2d_13_pad_before   13   pad                0         0       I: conv2d_12_output                  (1,16,16,24) (72)      
                                                                        O: conv2d_13_pad_before_output       (1,18,18,24) (74)      
------ ---------------------- ---- ------------------ --------- ------- ------------------------------------ ---------------------- 
11     conv2d_13              13   conv2d             55320     312     I: conv2d_13_pad_before_output       (1,18,18,24) (74)      
                                                                        S: conv2d_13_scratch0                                       
                                                                        W: conv2d_13_weights                 (24,1,3,3) (15)        
                                                                        W: conv2d_13_bias                    (1,1,1,24) (17)        
                                                                        O: conv2d_13_output                  (1,16,16,24) (75)      
------ ---------------------- ---- ------------------ --------- ------- ------------------------------------ ---------------------- 
12     eltwise_14             14   eltwise_integer    6144      0       I: gather_11_output                  (1,16,16,24) (71)      
                                                                        I: conv2d_13_output                  (1,16,16,24) (75)      
                                                                        O: eltwise_14_output                 (1,16,16,24) (77)      
------ ---------------------- ---- ------------------ --------- ------- ------------------------------------ ---------------------- 
13     gather_10              10   gather             0         96      I: eltwise_9_output                  (1,16,16,48) (69)      
                                                                        W: gather_10_indices                 (1,1,24,1) (18)        
                                                                        O: gather_10_output                  (1,16,16,24) (78)      
------ ---------------------- ---- ------------------ --------- ------- ------------------------------------ ---------------------- 
14     gather_5               5    gather             0         192     I: conv2d_4_output                   (1,16,16,96) (62)      
                                                                        W: gather_5_indices                  (1,1,48,1) (19)        
                                                                        O: gather_5_output                   (1,16,16,48) (80)      
------ ---------------------- ---- ------------------ --------- ------- ------------------------------------ ---------------------- 
15     concat_15              15   concat             0         0       I: gather_5_output                   (1,16,16,48) (80)      
                                                                        I: gather_10_output                  (1,16,16,24) (78)      
                                                                        I: eltwise_14_output                 (1,16,16,24) (77)      
                                                                        O: concat_15_output                  (1,16,16,96) (81)      
------ ---------------------- ---- ------------------ --------- ------- ------------------------------------ ---------------------- 
16     conv2d_16              16   conv2d             2359392   9600    I: concat_15_output                  (1,16,16,96) (81)      
                                                                        S: conv2d_16_scratch0                                       
                                                                        W: conv2d_16_weights                 (96,96,1,1) (21)       
                                                                        W: conv2d_16_bias                    (1,1,1,96) (22)        
                                                                        O: conv2d_16_output                  (1,16,16,96) (83)      
------ ---------------------- ---- ------------------ --------- ------- ------------------------------------ ---------------------- 
17     conv2d_18_pad_before   17   pad                0         0       I: conv2d_16_output                  (1,16,16,96) (83)      
                                                                        O: conv2d_18_pad_before_output       (1,18,18,96) (84)      
------ ---------------------- ---- ------------------ --------- ------- ------------------------------------ ---------------------- 
18     conv2d_18              18   conv2d             55392     1248    I: conv2d_18_pad_before_output       (1,18,18,96) (84)      
                                                                        S: conv2d_18_scratch0                                       
                                                                        W: conv2d_18_weights                 (96,1,3,3) (23)        
                                                                        W: conv2d_18_bias                    (1,1,1,96) (24)        
                                                                        O: conv2d_18_output                  (1,8,8,96) (86)        
------ ---------------------- ---- ------------------ --------- ------- ------------------------------------ ---------------------- 
19     conv2d_19              19   conv2d             1179840   19200   I: conv2d_18_output                  (1,8,8,96) (86)        
                                                                        S: conv2d_19_scratch0                                       
                                                                        W: conv2d_19_weights                 (96,192,1,1) (25)      
                                                                        W: conv2d_19_bias                    (1,1,1,192) (26)       
                                                                        O: conv2d_19_output                  (1,8,8,192) (87)       
------ ---------------------- ---- ------------------ --------- ------- ------------------------------------ ---------------------- 
20     gather_21              21   gather             0         384     I: conv2d_19_output                  (1,8,8,192) (87)       
                                                                        W: gather_21_indices                 (1,1,96,1) (27)        
                                                                        O: gather_21_output                  (1,8,8,96) (88)        
------ ---------------------- ---- ------------------ --------- ------- ------------------------------------ ---------------------- 
21     conv2d_22              22   conv2d             589920    9600    I: gather_21_output                  (1,8,8,96) (88)        
                                                                        S: conv2d_22_scratch0                                       
                                                                        W: conv2d_22_weights                 (96,96,1,1) (28)       
                                                                        W: conv2d_22_bias                    (1,1,1,96) (29)        
                                                                        O: conv2d_22_output                  (1,8,8,96) (89)        
------ ---------------------- ---- ------------------ --------- ------- ------------------------------------ ---------------------- 
22     conv2d_23_pad_before   23   pad                0         0       I: conv2d_22_output                  (1,8,8,96) (89)        
                                                                        O: conv2d_23_pad_before_output       (1,10,10,96) (91)      
------ ---------------------- ---- ------------------ --------- ------- ------------------------------------ ---------------------- 
23     conv2d_23              23   conv2d             55392     1248    I: conv2d_23_pad_before_output       (1,10,10,96) (91)      
                                                                        S: conv2d_23_scratch0                                       
                                                                        W: conv2d_23_weights                 (96,1,3,3) (30)        
                                                                        W: conv2d_23_bias                    (1,1,1,96) (31)        
                                                                        O: conv2d_23_output                  (1,8,8,96) (92)        
------ ---------------------- ---- ------------------ --------- ------- ------------------------------------ ---------------------- 
24     eltwise_24             24   eltwise_integer    6144      0       I: gather_21_output                  (1,8,8,96) (88)        
                                                                        I: conv2d_23_output                  (1,8,8,96) (92)        
                                                                        O: eltwise_24_output                 (1,8,8,96) (94)        
------ ---------------------- ---- ------------------ --------- ------- ------------------------------------ ---------------------- 
25     gather_20              20   gather             0         384     I: conv2d_19_output                  (1,8,8,192) (87)       
                                                                        W: gather_20_indices                 (1,1,96,1) (32)        
                                                                        O: gather_20_output                  (1,8,8,96) (95)        
------ ---------------------- ---- ------------------ --------- ------- ------------------------------------ ---------------------- 
26     concat_25              25   concat             0         0       I: gather_20_output                  (1,8,8,96) (95)        
                                                                        I: eltwise_24_output                 (1,8,8,96) (94)        
                                                                        O: concat_25_output                  (1,8,8,192) (97)       
------ ---------------------- ---- ------------------ --------- ------- ------------------------------------ ---------------------- 
27     conv2d_26              26   conv2d             2384064   37632   I: concat_25_output                  (1,8,8,192) (97)       
                                                                        S: conv2d_26_scratch0                                       
                                                                        S: conv2d_26_scratch1                                       
                                                                        W: conv2d_26_weights                 (192,192,1,1) (33)     
                                                                        W: conv2d_26_bias                    (1,1,1,192) (34)       
                                                                        O: conv2d_26_output                  (1,8,8,192) (98)       
------ ---------------------- ---- ------------------ --------- ------- ------------------------------------ ---------------------- 
28     gather_32              32   gather             0         192     I: conv2d_26_output                  (1,8,8,192) (98)       
                                                                        W: gather_32_indices                 (1,1,48,1) (35)        
                                                                        O: gather_32_output                  (1,8,8,48) (100)       
------ ---------------------- ---- ------------------ --------- ------- ------------------------------------ ---------------------- 
29     pool_33                33   pool               150528    0       I: gather_32_output                  (1,8,8,48) (100)       
                                                                        O: pool_33_output                    (1,8,8,48) (101)       
------ ---------------------- ---- ------------------ --------- ------- ------------------------------------ ---------------------- 
30     gather_30              30   gather             0         192     I: conv2d_26_output                  (1,8,8,192) (98)       
                                                                        W: gather_30_indices                 (1,1,48,1) (36)        
                                                                        O: gather_30_output                  (1,8,8,48) (103)       
------ ---------------------- ---- ------------------ --------- ------- ------------------------------------ ---------------------- 
31     pool_31                31   pool               76800     0       I: gather_30_output                  (1,8,8,48) (103)       
                                                                        O: pool_31_output                    (1,8,8,48) (104)       
------ ---------------------- ---- ------------------ --------- ------- ------------------------------------ ---------------------- 
32     gather_28              28   gather             0         192     I: conv2d_26_output                  (1,8,8,192) (98)       
                                                                        W: gather_6_indices                  (1,1,48,1) (220)       
                                                                        O: gather_28_output                  (1,8,8,48) (106)       
------ ---------------------- ---- ------------------ --------- ------- ------------------------------------ ---------------------- 
33     pool_29                29   pool               27648     0       I: gather_28_output                  (1,8,8,48) (106)       
                                                                        O: pool_29_output                    (1,8,8,48) (107)       
------ ---------------------- ---- ------------------ --------- ------- ------------------------------------ ---------------------- 
34     gather_27              27   gather             0         192     I: conv2d_26_output                  (1,8,8,192) (98)       
                                                                        W: gather_5_indices                  (1,1,48,1) (19)        
                                                                        O: gather_27_output                  (1,8,8,48) (109)       
------ ---------------------- ---- ------------------ --------- ------- ------------------------------------ ---------------------- 
35     concat_34              34   concat             0         0       I: gather_27_output                  (1,8,8,48) (109)       
                                                                        I: pool_29_output                    (1,8,8,48) (107)       
                                                                        I: pool_31_output                    (1,8,8,48) (104)       
                                                                        I: pool_33_output                    (1,8,8,48) (101)       
                                                                        O: concat_34_output                  (1,8,8,192) (110)      
------ ---------------------- ---- ------------------ --------- ------- ------------------------------------ ---------------------- 
36     gather_36              36   gather             0         384     I: concat_34_output                  (1,8,8,192) (110)      
                                                                        W: gather_36_indices                 (1,1,96,1) (37)        
                                                                        O: gather_36_output                  (1,8,8,96) (112)       
------ ---------------------- ---- ------------------ --------- ------- ------------------------------------ ---------------------- 
37     gather_35              35   gather             0         384     I: concat_34_output                  (1,8,8,192) (110)      
                                                                        W: gather_35_indices                 (1,1,96,1) (38)        
                                                                        O: gather_35_output                  (1,8,8,96) (113)       
------ ---------------------- ---- ------------------ --------- ------- ------------------------------------ ---------------------- 
38     concat_37              37   concat             0         0       I: gather_35_output                  (1,8,8,96) (113)       
                                                                        I: gather_36_output                  (1,8,8,96) (112)       
                                                                        O: concat_37_output                  (1,8,8,192) (115)      
------ ---------------------- ---- ------------------ --------- ------- ------------------------------------ ---------------------- 
39     gather_39              39   gather             0         384     I: concat_37_output                  (1,8,8,192) (115)      
                                                                        W: gather_21_indices                 (1,1,96,1) (27)        
                                                                        O: gather_39_output                  (1,8,8,96) (116)       
------ ---------------------- ---- ------------------ --------- ------- ------------------------------------ ---------------------- 
40     conv2d_41              40   conv2d             301152    5088    I: gather_39_output                  (1,8,8,96) (116)       
                                                                        S: conv2d_41_scratch0                                       
                                                                        W: conv2d_41_weights                 (96,1,7,7) (39)        
                                                                        W: conv2d_41_bias                    (1,1,1,96) (40)        
                                                                        O: conv2d_41_output                  (1,8,8,96) (118)       
------ ---------------------- ---- ------------------ --------- ------- ------------------------------------ ---------------------- 
41     eltwise_42             42   eltwise_integer    6144      0       I: gather_39_output                  (1,8,8,96) (116)       
                                                                        I: conv2d_41_output                  (1,8,8,96) (118)       
                                                                        O: eltwise_42_output                 (1,8,8,96) (119)       
------ ---------------------- ---- ------------------ --------- ------- ------------------------------------ ---------------------- 
42     conv2d_43              43   conv2d             1179840   19200   I: eltwise_42_output                 (1,8,8,96) (119)       
                                                                        S: conv2d_43_scratch0                                       
                                                                        W: conv2d_43_weights                 (96,192,1,1) (41)      
                                                                        W: conv2d_43_bias                    (1,1,1,192) (42)       
                                                                        O: conv2d_43_output                  (1,8,8,192) (121)      
------ ---------------------- ---- ------------------ --------- ------- ------------------------------------ ---------------------- 
43     conv2d_44              44   conv2d             1179744   18816   I: conv2d_43_output                  (1,8,8,192) (121)      
                                                                        S: conv2d_44_scratch0                                       
                                                                        W: conv2d_44_weights                 (192,96,1,1) (43)      
                                                                        W: conv2d_44_bias                    (1,1,1,96) (44)        
                                                                        O: conv2d_44_output                  (1,8,8,96) (122)       
------ ---------------------- ---- ------------------ --------- ------- ------------------------------------ ---------------------- 
44     eltwise_45             45   eltwise_integer    6144      0       I: eltwise_42_output                 (1,8,8,96) (119)       
                                                                        I: conv2d_44_output                  (1,8,8,96) (122)       
                                                                        O: eltwise_45_output                 (1,8,8,96) (124)       
------ ---------------------- ---- ------------------ --------- ------- ------------------------------------ ---------------------- 
45     gather_38              38   gather             0         384     I: concat_37_output                  (1,8,8,192) (115)      
                                                                        W: gather_20_indices                 (1,1,96,1) (32)        
                                                                        O: gather_38_output                  (1,8,8,96) (125)       
------ ---------------------- ---- ------------------ --------- ------- ------------------------------------ ---------------------- 
46     concat_46              46   concat             0         0       I: gather_38_output                  (1,8,8,96) (125)       
                                                                        I: eltwise_45_output                 (1,8,8,96) (124)       
                                                                        O: concat_46_output                  (1,8,8,192) (127)      
------ ---------------------- ---- ------------------ --------- ------- ------------------------------------ ---------------------- 
47     conv2d_47              47   conv2d             1179744   18816   I: concat_46_output                  (1,8,8,192) (127)      
                                                                        S: conv2d_47_scratch0                                       
                                                                        W: conv2d_47_weights                 (192,96,1,1) (45)      
                                                                        W: conv2d_47_bias                    (1,1,1,96) (46)        
                                                                        O: conv2d_47_output                  (1,8,8,96) (128)       
------ ---------------------- ---- ------------------ --------- ------- ------------------------------------ ---------------------- 
48     pack_48                48   pack               0         0       I: conv2d_47_output                  (1,8,8,96) (128)       
                                                                        I: conv2d_47_output                  (1,8,8,96) (128)       
                                                                        O: pack_48_output                    (1,8,8,2,96) (130)     
------ ---------------------- ---- ------------------ --------- ------- ------------------------------------ ---------------------- 
49     pack_49                49   pack               0         0       I: pack_48_output                    (1,8,8,2,96) (130)     
                                                                        I: pack_48_output                    (1,8,8,2,96) (130)     
                                                                        O: pack_49_output                    (1,8,2,8,2,96) (131)   
------ ---------------------- ---- ------------------ --------- ------- ------------------------------------ ---------------------- 
50     eltwise_51             51   eltwise_integer    24576     0       I: conv2d_16_output                  (1,16,16,96) (83)      
                                                                        I: pack_49_output0                   (1,16,16,96) (131)     
                                                                        O: eltwise_51_output                 (1,16,16,96) (133)     
------ ---------------------- ---- ------------------ --------- ------- ------------------------------------ ---------------------- 
51     gather_53              53   gather             0         192     I: eltwise_51_output                 (1,16,16,96) (133)     
                                                                        W: gather_6_indices                  (1,1,48,1) (220)       
                                                                        O: gather_53_output                  (1,16,16,48) (134)     
------ ---------------------- ---- ------------------ --------- ------- ------------------------------------ ---------------------- 
52     conv2d_54              54   conv2d             589872    2496    I: gather_53_output                  (1,16,16,48) (134)     
                                                                        S: conv2d_54_scratch0                                       
                                                                        W: conv2d_54_weights                 (48,48,1,1) (47)       
                                                                        W: conv2d_54_bias                    (1,1,1,48) (48)        
                                                                        O: conv2d_54_output                  (1,16,16,48) (136)     
------ ---------------------- ---- ------------------ --------- ------- ------------------------------------ ---------------------- 
53     conv2d_55_pad_before   55   pad                0         0       I: conv2d_54_output                  (1,16,16,48) (136)     
                                                                        O: conv2d_55_pad_before_output       (1,18,18,48) (137)     
------ ---------------------- ---- ------------------ --------- ------- ------------------------------------ ---------------------- 
54     conv2d_55              55   conv2d             110640    624     I: conv2d_55_pad_before_output       (1,18,18,48) (137)     
                                                                        S: conv2d_55_scratch0                                       
                                                                        W: conv2d_55_weights                 (48,1,3,3) (49)        
                                                                        W: conv2d_55_bias                    (1,1,1,48) (50)        
                                                                        O: conv2d_55_output                  (1,16,16,48) (139)     
------ ---------------------- ---- ------------------ --------- ------- ------------------------------------ ---------------------- 
55     eltwise_56             56   eltwise_integer    12288     0       I: gather_53_output                  (1,16,16,48) (134)     
                                                                        I: conv2d_55_output                  (1,16,16,48) (139)     
                                                                        O: eltwise_56_output                 (1,16,16,48) (140)     
------ ---------------------- ---- ------------------ --------- ------- ------------------------------------ ---------------------- 
56     gather_52              52   gather             0         192     I: eltwise_51_output                 (1,16,16,96) (133)     
                                                                        W: gather_5_indices                  (1,1,48,1) (19)        
                                                                        O: gather_52_output                  (1,16,16,48) (142)     
------ ---------------------- ---- ------------------ --------- ------- ------------------------------------ ---------------------- 
57     concat_57              57   concat             0         0       I: gather_52_output                  (1,16,16,48) (142)     
                                                                        I: eltwise_56_output                 (1,16,16,48) (140)     
                                                                        O: concat_57_output                  (1,16,16,96) (143)     
------ ---------------------- ---- ------------------ --------- ------- ------------------------------------ ---------------------- 
58     conv2d_58              58   conv2d             2359392   9600    I: concat_57_output                  (1,16,16,96) (143)     
                                                                        S: conv2d_58_scratch0                                       
                                                                        W: conv2d_58_weights                 (96,96,1,1) (51)       
                                                                        W: conv2d_58_bias                    (1,1,1,96) (52)        
                                                                        O: conv2d_58_output                  (1,16,16,96) (145)     
------ ---------------------- ---- ------------------ --------- ------- ------------------------------------ ---------------------- 
59     conv2d_1               1    conv2d             110640    624     I: pad_0_output                      (1,34,34,48) (59)      
                                                                        S: conv2d_1_scratch0                                        
                                                                        W: conv2d_1_weights                  (48,1,3,3) (53)        
                                                                        W: conv2d_1_bias                     (1,1,1,48) (54)        
                                                                        O: conv2d_1_output                   (1,16,16,48) (146)     
------ ---------------------- ---- ------------------ --------- ------- ------------------------------------ ---------------------- 
60     conv2d_2               2    conv2d             1179744   4992    I: conv2d_1_output                   (1,16,16,48) (146)     
                                                                        S: conv2d_2_scratch0                                        
                                                                        W: conv2d_2_weights                  (48,96,1,1) (55)       
                                                                        W: conv2d_2_bias                     (1,1,1,96) (56)        
                                                                        O: conv2d_2_output                   (1,16,16,96) (148)     
------ ---------------------- ---- ------------------ --------- ------- ------------------------------------ ---------------------- 
61     eltwise_59             59   eltwise_integer    24576     0       I: conv2d_58_output                  (1,16,16,96) (145)     
                                                                        I: conv2d_2_output                   (1,16,16,96) (148)     
                                                                        O: eltwise_59_output                 (1,16,16,96) (149)     
------ ---------------------- ---- ------------------ --------- ------- ------------------------------------ ---------------------- 
62     gather_61              61   gather             0         192     I: eltwise_59_output                 (1,16,16,96) (149)     
                                                                        W: gather_6_indices                  (1,1,48,1) (220)       
                                                                        O: gather_61_output                  (1,16,16,48) (151)     
------ ---------------------- ---- ------------------ --------- ------- ------------------------------------ ---------------------- 
63     conv2d_62_pad_before   62   pad                0         0       I: gather_61_output                  (1,16,16,48) (151)     
                                                                        O: conv2d_62_pad_before_output       (1,18,18,48) (152)     
------ ---------------------- ---- ------------------ --------- ------- ------------------------------------ ---------------------- 
64     conv2d_62              62   conv2d             110640    624     I: conv2d_62_pad_before_output       (1,18,18,48) (152)     
                                                                        S: conv2d_62_scratch0                                       
                                                                        W: conv2d_62_weights                 (48,1,3,3) (58)        
                                                                        W: conv2d_62_bias                    (1,1,1,48) (61)        
                                                                        O: conv2d_62_output                  (1,16,16,48) (154)     
------ ---------------------- ---- ------------------ --------- ------- ------------------------------------ ---------------------- 
65     conv2d_63              63   conv2d             589872    2496    I: conv2d_62_output                  (1,16,16,48) (154)     
                                                                        S: conv2d_63_scratch0                                       
                                                                        W: conv2d_63_weights                 (48,48,1,1) (64)       
                                                                        W: conv2d_63_bias                    (1,1,1,48) (67)        
                                                                        O: conv2d_63_output                  (1,16,16,48) (155)     
------ ---------------------- ---- ------------------ --------- ------- ------------------------------------ ---------------------- 
66     conv2d_65              64   conv2d             602160    2544    I: conv2d_63_output                  (1,16,16,48) (155)     
                                                                        S: conv2d_65_scratch0                                       
                                                                        W: conv2d_65_weights                 (48,1,7,7) (70)        
                                                                        W: conv2d_65_bias                    (1,1,1,48) (73)        
                                                                        O: conv2d_65_output                  (1,16,16,48) (156)     
------ ---------------------- ---- ------------------ --------- ------- ------------------------------------ ---------------------- 
67     conv2d_66              66   conv2d             589872    2496    I: conv2d_65_output                  (1,16,16,48) (156)     
                                                                        S: conv2d_66_scratch0                                       
                                                                        W: conv2d_66_weights                 (48,48,1,1) (76)       
                                                                        W: conv2d_66_bias                    (1,1,1,48) (79)        
                                                                        O: conv2d_66_output                  (1,16,16,48) (158)     
------ ---------------------- ---- ------------------ --------- ------- ------------------------------------ ---------------------- 
68     conv2d_67_pad_before   67   pad                0         0       I: conv2d_66_output                  (1,16,16,48) (158)     
                                                                        O: conv2d_67_pad_before_output       (1,18,18,48) (159)     
------ ---------------------- ---- ------------------ --------- ------- ------------------------------------ ---------------------- 
69     conv2d_67              67   conv2d             110640    624     I: conv2d_67_pad_before_output       (1,18,18,48) (159)     
                                                                        S: conv2d_67_scratch0                                       
                                                                        W: conv2d_67_weights                 (48,1,3,3) (82)        
                                                                        W: conv2d_67_bias                    (1,1,1,48) (85)        
                                                                        O: conv2d_67_output                  (1,16,16,48) (161)     
------ ---------------------- ---- ------------------ --------- ------- ------------------------------------ ---------------------- 
70     eltwise_68             68   eltwise_integer    12288     0       I: gather_61_output                  (1,16,16,48) (151)     
                                                                        I: conv2d_67_output                  (1,16,16,48) (161)     
                                                                        O: eltwise_68_output                 (1,16,16,48) (162)     
------ ---------------------- ---- ------------------ --------- ------- ------------------------------------ ---------------------- 
71     gather_60              60   gather             0         192     I: eltwise_59_output                 (1,16,16,96) (149)     
                                                                        W: gather_5_indices                  (1,1,48,1) (19)        
                                                                        O: gather_60_output                  (1,16,16,48) (163)     
------ ---------------------- ---- ------------------ --------- ------- ------------------------------------ ---------------------- 
72     concat_69              69   concat             0         0       I: gather_60_output                  (1,16,16,48) (163)     
                                                                        I: eltwise_68_output                 (1,16,16,48) (162)     
                                                                        O: concat_69_output                  (1,16,16,96) (165)     
------ ---------------------- ---- ------------------ --------- ------- ------------------------------------ ---------------------- 
73     conv2d_70              70   conv2d             2359392   9600    I: concat_69_output                  (1,16,16,96) (165)     
                                                                        S: conv2d_70_scratch0                                       
                                                                        W: conv2d_70_weights                 (96,96,1,1) (90)       
                                                                        W: conv2d_70_bias                    (1,1,1,96) (93)        
                                                                        O: conv2d_70_output                  (1,16,16,96) (166)     
------ ---------------------- ---- ------------------ --------- ------- ------------------------------------ ---------------------- 
74     conv2d_74_pad_before   74   pad                0         0       I: conv2d_70_output                  (1,16,16,96) (166)     
                                                                        O: conv2d_74_pad_before_output       (1,18,18,96) (168)     
------ ---------------------- ---- ------------------ --------- ------- ------------------------------------ ---------------------- 
75     conv2d_74              74   conv2d             221280    1248    I: conv2d_74_pad_before_output       (1,18,18,96) (168)     
                                                                        S: conv2d_74_scratch0                                       
                                                                        W: conv2d_74_weights                 (96,1,3,3) (96)        
                                                                        W: conv2d_74_bias                    (1,1,1,96) (99)        
                                                                        O: conv2d_74_output                  (1,16,16,96) (169)     
------ ---------------------- ---- ------------------ --------- ------- ------------------------------------ ---------------------- 
76     conv2d_75              75   conv2d             2359392   9600    I: conv2d_74_output                  (1,16,16,96) (169)     
                                                                        S: conv2d_75_scratch0                                       
                                                                        S: conv2d_75_scratch1                                       
                                                                        W: conv2d_75_weights                 (96,96,1,1) (102)      
                                                                        W: conv2d_75_bias                    (1,1,1,96) (105)       
                                                                        O: conv2d_75_output                  (1,16,16,96) (170)     
------ ---------------------- ---- ------------------ --------- ------- ------------------------------------ ---------------------- 
77     conv2d_76              77   conv2d             24833     100     I: conv2d_75_output                  (1,16,16,96) (170)     
                                                                        S: conv2d_76_scratch0                                       
                                                                        S: conv2d_76_scratch1                                       
                                                                        W: conv2d_76_weights                 (96,1,1,1) (108)       
                                                                        W: conv2d_76_bias                    (1,1,1,1) (111)        
                                                                        O: conv2d_76_output                  (1,16,16,1) (172)      
------ ---------------------- ---- ------------------ --------- ------- ------------------------------------ ---------------------- 
78     conv2d_79_pad_before   79   pad                0         0       I: conv2d_70_output                  (1,16,16,96) (166)     
                                                                        O: conv2d_79_pad_before_output       (1,18,18,96) (173)     
------ ---------------------- ---- ------------------ --------- ------- ------------------------------------ ---------------------- 
79     conv2d_79              79   conv2d             221280    1248    I: conv2d_79_pad_before_output       (1,18,18,96) (173)     
                                                                        S: conv2d_79_scratch0                                       
                                                                        S: conv2d_79_scratch1                                       
                                                                        W: conv2d_79_weights                 (96,1,3,3) (114)       
                                                                        W: conv2d_79_bias                    (1,1,1,96) (117)       
                                                                        O: conv2d_79_output                  (1,16,16,96) (175)     
------ ---------------------- ---- ------------------ --------- ------- ------------------------------------ ---------------------- 
80     conv2d_80              80   conv2d             2359392   9600    I: conv2d_79_output                  (1,16,16,96) (175)     
                                                                        S: conv2d_80_scratch0                                       
                                                                        W: conv2d_80_weights                 (96,96,1,1) (120)      
                                                                        W: conv2d_80_bias                    (1,1,1,96) (123)       
                                                                        O: conv2d_80_output                  (1,16,16,96) (176)     
------ ---------------------- ---- ------------------ --------- ------- ------------------------------------ ---------------------- 
81     conv2d_81_pad_before   81   pad                0         0       I: conv2d_80_output                  (1,16,16,96) (176)     
                                                                        O: conv2d_81_pad_before_output       (1,18,18,96) (177)     
------ ---------------------- ---- ------------------ --------- ------- ------------------------------------ ---------------------- 
82     conv2d_81              81   conv2d             221280    1248    I: conv2d_81_pad_before_output       (1,18,18,96) (177)     
                                                                        S: conv2d_81_scratch0                                       
                                                                        W: conv2d_81_weights                 (96,1,3,3) (126)       
                                                                        W: conv2d_81_bias                    (1,1,1,96) (129)       
                                                                        O: conv2d_81_output                  (1,16,16,96) (179)     
------ ---------------------- ---- ------------------ --------- ------- ------------------------------------ ---------------------- 
83     conv2d_82              82   conv2d             2359392   9600    I: conv2d_81_output                  (1,16,16,96) (179)     
                                                                        S: conv2d_82_scratch0                                       
                                                                        S: conv2d_82_scratch1                                       
                                                                        W: conv2d_82_weights                 (96,96,1,1) (132)      
                                                                        W: conv2d_82_bias                    (1,1,1,96) (135)       
                                                                        O: conv2d_82_output                  (1,16,16,96) (180)     
------ ---------------------- ---- ------------------ --------- ------- ------------------------------------ ---------------------- 
84     conv2d_83              83   conv2d             98308     400     I: conv2d_82_output                  (1,16,16,96) (180)     
                                                                        S: conv2d_83_scratch0                                       
                                                                        W: conv2d_83_weights                 (96,4,1,1) (138)       
                                                                        W: conv2d_83_bias                    (1,1,1,4) (141)        
                                                                        O: conv2d_83_output                  (1,16,16,4) (182)      
------ ---------------------- ---- ------------------ --------- ------- ------------------------------------ ---------------------- 
85     gather_87              87   gather             0         8       I: conv2d_83_output                  (1,16,16,4) (182)      
                                                                        W: gather_87_indices                 (1,1,2,1) (144)        
                                                                        O: gather_87_output                  (1,16,16,2) (183)      
------ ---------------------- ---- ------------------ --------- ------- ------------------------------------ ---------------------- 
86     nl_88                  88   nl                 512       0       I: gather_87_output                  (1,16,16,2) (183)      
                                                                        O: nl_88_output                      (1,16,16,2) (184)      
------ ---------------------- ---- ------------------ --------- ------- ------------------------------------ ---------------------- 
87     gather_84              84   gather             0         8       I: conv2d_83_output                  (1,16,16,4) (182)      
                                                                        W: gather_84_indices                 (1,1,2,1) (147)        
                                                                        O: gather_84_output                  (1,16,16,2) (186)      
------ ---------------------- ---- ------------------ --------- ------- ------------------------------------ ---------------------- 
88     nl_85                  85   nl                 512       0       I: gather_84_output                  (1,16,16,2) (186)      
                                                                        O: nl_85_output                      (1,16,16,2) (187)      
------ ---------------------- ---- ------------------ --------- ------- ------------------------------------ ---------------------- 
89     conv2d_71              72   conv2d             24833     100     I: conv2d_70_output                  (1,16,16,96) (166)     
                                                                        S: conv2d_71_scratch0                                       
                                                                        S: conv2d_71_scratch1                                       
                                                                        W: conv2d_71_weights                 (96,1,1,1) (150)       
                                                                        W: conv2d_71_bias                    (1,1,1,1) (153)        
                                                                        O: conv2d_71_output                  (1,16,16,1) (189)      
------ ---------------------- ---- ------------------ --------- ------- ------------------------------------ ---------------------- 
90     concat_90              90   concat             0         0       I: conv2d_71_output                  (1,16,16,1) (189)      
                                                                        I: nl_85_output                      (1,16,16,2) (187)      
                                                                        I: nl_88_output                      (1,16,16,2) (184)      
                                                                        I: conv2d_76_output                  (1,16,16,1) (172)      
                                                                        O: concat_90_output                  (1,16,16,6) (190)      
------ ---------------------- ---- ------------------ --------- ------- ------------------------------------ ---------------------- 
91     transpose_91           91   transpose          0         0       I: concat_90_output                  (1,16,16,6) (190)      
                                                                        O: transpose_91_output               (1,6,16,16) (191)      
------ ---------------------- ---- ------------------ --------- ------- ------------------------------------ ---------------------- 
92     transpose_93           93   transpose          0         0       I: transpose_91_output0              (1,6,1,256) (191)      
                                                                        O: transpose_93_output               (1,256,1,6) (193)      
------ ---------------------- ---- ------------------ --------- ------- ------------------------------------ ---------------------- 
93     conversion_94          94   converter          3072      0       I: transpose_93_output               (1,256,1,6) (193)      
                                                                        O: conversion_94_output              (1,256,1,6) (194)      
------ ---------------------- ---- ------------------ --------- ------- ------------------------------------ ---------------------- 



Number of operations per c-layer
------- ------ ------------------------------ ------------ ------------- --------- ---------- 
c_id    m_id   name (type)                             #op          type    #param   sparsity 
------- ------ ------------------------------ ------------ ------------- --------- ---------- 
0       0      pad_0 (pad)                               0    smul_s8_s8           
1       3      conv2d_3 (conv2d)                   110,640    smul_s8_s8       480     0.0042 
2       4      conv2d_4 (conv2d)                 1,179,744    smul_s8_s8     4,704     0.0217 
3       6      gather_6 (gather)                         0   smul_s8_s32        48     0.0000 
4       7      conv2d_7 (conv2d)                   589,872    smul_s8_s8     2,352     0.0094 
5       8      conv2d_8_pad_before (pad)                 0    smul_s8_s8           
6       8      conv2d_8 (conv2d)                   110,640    smul_s8_s8       480     0.0167 
7       9      eltwise_9 (eltwise_integer)          12,288    smul_s8_s8           
8       11     gather_11 (gather)                        0   smul_s8_s32        24     0.0000 
9       12     conv2d_12 (conv2d)                  147,480    smul_s8_s8       600     0.0050 
10      13     conv2d_13_pad_before (pad)                0    smul_s8_s8           
11      13     conv2d_13 (conv2d)                   55,320    smul_s8_s8       240     0.0125 
12      14     eltwise_14 (eltwise_integer)          6,144    smul_s8_s8           
13      10     gather_10 (gather)                        0   smul_s8_s32        24     0.0417 
14      5      gather_5 (gather)                         0   smul_s8_s32        48     0.0208 
15      15     concat_15 (concat)                        0      op_s8_s8           
16      16     conv2d_16 (conv2d)                2,359,392    smul_s8_s8     9,312     0.0103 
17      17     conv2d_18_pad_before (pad)                0    smul_s8_s8           
18      18     conv2d_18 (conv2d)                   55,392    smul_s8_s8       960     0.0000 
19      19     conv2d_19 (conv2d)                1,179,840    smul_s8_s8    18,624     0.0139 
20      21     gather_21 (gather)                        0   smul_s8_s32        96     0.0000 
21      22     conv2d_22 (conv2d)                  589,920    smul_s8_s8     9,312     0.0088 
22      23     conv2d_23_pad_before (pad)                0    smul_s8_s8           
23      23     conv2d_23 (conv2d)                   55,392    smul_s8_s8       960     0.0052 
24      24     eltwise_24 (eltwise_integer)          6,144    smul_s8_s8           
25      20     gather_20 (gather)                        0   smul_s8_s32        96     0.0104 
26      25     concat_25 (concat)                        0      op_s8_s8           
27      26     conv2d_26 (conv2d)                2,384,064    smul_s8_s8    37,056     0.0103 
28      32     gather_32 (gather)                        0   smul_s8_s32        48     0.0000 
29      33     pool_33 (pool)                      150,528      op_s8_s8           
30      30     gather_30 (gather)                        0   smul_s8_s32        48     0.0000 
31      31     pool_31 (pool)                       76,800      op_s8_s8           
32      28     gather_28 (gather)                        0   smul_s8_s32        48     0.0000 
33      29     pool_29 (pool)                       27,648      op_s8_s8           
34      27     gather_27 (gather)                        0   smul_s8_s32        48     0.0208 
35      34     concat_34 (concat)                        0      op_s8_s8           
36      36     gather_36 (gather)                        0   smul_s8_s32        96     0.0000 
37      35     gather_35 (gather)                        0   smul_s8_s32        96     0.0104 
38      37     concat_37 (concat)                        0      op_s8_s8           
39      39     gather_39 (gather)                        0   smul_s8_s32        96     0.0000 
40      40     conv2d_41 (conv2d)                  301,152    smul_s8_s8     4,800     0.0167 
41      42     eltwise_42 (eltwise_integer)          6,144    smul_s8_s8           
42      43     conv2d_43 (conv2d)                1,179,840    smul_s8_s8    18,624     0.0098 
43      44     conv2d_44 (conv2d)                1,179,744    smul_s8_s8    18,528     0.0087 
44      45     eltwise_45 (eltwise_integer)          6,144    smul_s8_s8           
45      38     gather_38 (gather)                        0   smul_s8_s32        96     0.0104 
46      46     concat_46 (concat)                        0      op_s8_s8           
47      47     conv2d_47 (conv2d)                1,179,744    smul_s8_s8    18,528     0.0117 
48      48     pack_48 (pack)                            0      op_s8_s8           
49      49     pack_49 (pack)                            0      op_s8_s8           
50      51     eltwise_51 (eltwise_integer)         24,576    smul_s8_s8           
51      53     gather_53 (gather)                        0   smul_s8_s32        48     0.0000 
52      54     conv2d_54 (conv2d)                  589,872    smul_s8_s8     2,352     0.0064 
53      55     conv2d_55_pad_before (pad)                0    smul_s8_s8           
54      55     conv2d_55 (conv2d)                  110,640    smul_s8_s8       480     0.0146 
55      56     eltwise_56 (eltwise_integer)         12,288    smul_s8_s8           
56      52     gather_52 (gather)                        0   smul_s8_s32        48     0.0208 
57      57     concat_57 (concat)                        0      op_s8_s8           
58      58     conv2d_58 (conv2d)                2,359,392    smul_s8_s8     9,312     0.0088 
59      1      conv2d_1 (conv2d)                   110,640    smul_s8_s8       480     0.0042 
60      2      conv2d_2 (conv2d)                 1,179,744    smul_s8_s8     4,704     0.0162 
61      59     eltwise_59 (eltwise_integer)         24,576    smul_s8_s8           
62      61     gather_61 (gather)                        0   smul_s8_s32        48     0.0000 
63      62     conv2d_62_pad_before (pad)                0    smul_s8_s8           
64      62     conv2d_62 (conv2d)                  110,640    smul_s8_s8       480     0.0125 
65      63     conv2d_63 (conv2d)                  589,872    smul_s8_s8     2,352     0.0128 
66      64     conv2d_65 (conv2d)                  602,160    smul_s8_s8     2,400     0.0325 
67      66     conv2d_66 (conv2d)                  589,872    smul_s8_s8     2,352     0.0077 
68      67     conv2d_67_pad_before (pad)                0    smul_s8_s8           
69      67     conv2d_67 (conv2d)                  110,640    smul_s8_s8       480     0.0125 
70      68     eltwise_68 (eltwise_integer)         12,288    smul_s8_s8           
71      60     gather_60 (gather)                        0   smul_s8_s32        48     0.0208 
72      69     concat_69 (concat)                        0      op_s8_s8           
73      70     conv2d_70 (conv2d)                2,359,392    smul_s8_s8     9,312     0.0105 
74      74     conv2d_74_pad_before (pad)                0    smul_s8_s8           
75      74     conv2d_74 (conv2d)                  221,280    smul_s8_s8       960     0.0083 
76      75     conv2d_75 (conv2d)                2,359,392    smul_s8_s8     9,312     0.0114 
77      77     conv2d_76 (conv2d)                   24,833    smul_s8_s8        97     0.0000 
78      79     conv2d_79_pad_before (pad)                0    smul_s8_s8           
79      79     conv2d_79 (conv2d)                  221,280    smul_s8_s8       960     0.0135 
80      80     conv2d_80 (conv2d)                2,359,392    smul_s8_s8     9,312     0.0301 
81      81     conv2d_81_pad_before (pad)                0    smul_s8_s8           
82      81     conv2d_81 (conv2d)                  221,280    smul_s8_s8       960     0.0437 
83      82     conv2d_82 (conv2d)                2,359,392    smul_s8_s8     9,312     0.0470 
84      83     conv2d_83 (conv2d)                   98,308    smul_s8_s8       388     0.1418 
85      87     gather_87 (gather)                        0   smul_s8_s32         2     0.0000 
86      88     nl_88 (nl)                              512      op_s8_s8           
87      84     gather_84 (gather)                        0   smul_s8_s32         2     0.5000 
88      85     nl_85 (nl)                              512      op_s8_s8           
89      72     conv2d_71 (conv2d)                   24,833    smul_s8_s8        97     0.0103 
90      90     concat_90 (concat)                        0      op_s8_s8           
91      91     transpose_91 (transpose)                  0    smul_s8_s8           
92      93     transpose_93 (transpose)                  0    smul_s8_s8           
93      94     conversion_94 (converter)             3,072   smul_s8_f32           
------- ------ ------------------------------ ------------ ------------- --------- ---------- 
total                                           29,630,694                 212,770     0.0140 

Number of operation types
---------------- ------------ ----------- 
operation type              #           % 
---------------- ------------ ----------- 
smul_s8_s8         29,371,622       99.1% 
smul_s8_s32                 0        0.0% 
op_s8_s8              256,000        0.9% 
smul_s8_f32             3,072        0.0% 

Complexity report (model)
------ -------------------------- ------------------------- ------------------------- ---------- 
m_id   name                       c_macc                    c_rom                     c_id       
------ -------------------------- ------------------------- ------------------------- ---------- 
0      serving_default_input_20   |                  0.0%   |                  0.0%   [0]        
1      conv2d_1                   |                  0.4%   |                  0.3%   [59]       
2      conv2d_2                   ||||||||           4.0%   ||                 2.2%   [60]       
3      conv2d_3                   |                  0.4%   |                  0.3%   [1]        
4      conv2d_4                   ||||||||           4.0%   ||                 2.2%   [2]        
5      gather_5                   |                  0.0%   |                  0.1%   [14]       
6      gather_6                   |                  0.0%   |                  0.1%   [3]        
7      conv2d_7                   ||||               2.0%   |                  1.1%   [4]        
8      conv2d_8                   |                  0.4%   |                  0.3%   [5, 6]     
9      eltwise_9                  |                  0.0%   |                  0.0%   [7]        
10     gather_10                  |                  0.0%   |                  0.0%   [13]       
11     gather_11                  |                  0.0%   |                  0.0%   [8]        
12     conv2d_12                  |                  0.5%   |                  0.3%   [9]        
13     conv2d_13                  |                  0.2%   |                  0.1%   [10, 11]   
14     eltwise_14                 |                  0.0%   |                  0.0%   [12]       
15     concat_15                  |                  0.0%   |                  0.0%   [15]       
16     conv2d_16                  |||||||||||||||    8.0%   ||||               4.3%   [16]       
17     pad_17                     |                  0.0%   |                  0.0%   [17]       
18     conv2d_18                  |                  0.2%   |                  0.6%   [18]       
19     conv2d_19                  ||||||||           4.0%   ||||||||           8.6%   [19]       
20     gather_20                  |                  0.0%   |                  0.2%   [25]       
21     gather_21                  |                  0.0%   |                  0.2%   [20]       
22     conv2d_22                  ||||               2.0%   ||||               4.3%   [21]       
23     conv2d_23                  |                  0.2%   |                  0.6%   [22, 23]   
24     eltwise_24                 |                  0.0%   |                  0.0%   [24]       
25     concat_25                  |                  0.0%   |                  0.0%   [26]       
26     conv2d_26                  ||||||||||||||||   8.0%   ||||||||||||||||  16.9%   [27]       
27     gather_27                  |                  0.0%   |                  0.1%   [34]       
28     gather_28                  |                  0.0%   |                  0.1%   [32]       
29     pool_29                    |                  0.1%   |                  0.0%   [33]       
30     gather_30                  |                  0.0%   |                  0.1%   [30]       
31     pool_31                    |                  0.3%   |                  0.0%   [31]       
32     gather_32                  |                  0.0%   |                  0.1%   [28]       
33     pool_33                    |                  0.5%   |                  0.0%   [29]       
34     concat_34                  |                  0.0%   |                  0.0%   [35]       
35     gather_35                  |                  0.0%   |                  0.2%   [37]       
36     gather_36                  |                  0.0%   |                  0.2%   [36]       
37     concat_37                  |                  0.0%   |                  0.0%   [38]       
38     gather_38                  |                  0.0%   |                  0.2%   [45]       
39     gather_39                  |                  0.0%   |                  0.2%   [39]       
40     pad_40                     ||                 1.0%   |||                2.3%   [40]       
42     eltwise_42                 |                  0.0%   |                  0.0%   [41]       
43     conv2d_43                  ||||||||           4.0%   ||||||||           8.6%   [42]       
44     conv2d_44                  ||||||||           4.0%   ||||||||           8.5%   [43]       
45     eltwise_45                 |                  0.0%   |                  0.0%   [44]       
46     concat_46                  |                  0.0%   |                  0.0%   [46]       
47     conv2d_47                  ||||||||           4.0%   ||||||||           8.5%   [47]       
48     pack_48                    |                  0.0%   |                  0.0%   [48]       
49     pack_49                    |                  0.0%   |                  0.0%   [49]       
51     eltwise_51                 |                  0.1%   |                  0.0%   [50]       
52     gather_52                  |                  0.0%   |                  0.1%   [56]       
53     gather_53                  |                  0.0%   |                  0.1%   [51]       
54     conv2d_54                  ||||               2.0%   |                  1.1%   [52]       
55     conv2d_55                  |                  0.4%   |                  0.3%   [53, 54]   
56     eltwise_56                 |                  0.0%   |                  0.0%   [55]       
57     concat_57                  |                  0.0%   |                  0.0%   [57]       
58     conv2d_58                  |||||||||||||||    8.0%   ||||               4.3%   [58]       
59     eltwise_59                 |                  0.1%   |                  0.0%   [61]       
60     gather_60                  |                  0.0%   |                  0.1%   [71]       
61     gather_61                  |                  0.0%   |                  0.1%   [62]       
62     conv2d_62                  |                  0.4%   |                  0.3%   [63, 64]   
63     conv2d_63                  ||||               2.0%   |                  1.1%   [65]       
64     pad_64                     ||||               2.0%   ||                 1.1%   [66]       
66     conv2d_66                  ||||               2.0%   |                  1.1%   [67]       
67     conv2d_67                  |                  0.4%   |                  0.3%   [68, 69]   
68     eltwise_68                 |                  0.0%   |                  0.0%   [70]       
69     concat_69                  |                  0.0%   |                  0.0%   [72]       
70     conv2d_70                  |||||||||||||||    8.0%   ||||               4.3%   [73]       
72     nl_72                      |                  0.1%   |                  0.0%   [89]       
74     conv2d_74                  ||                 0.7%   |                  0.6%   [74, 75]   
75     conv2d_75                  |||||||||||||||    8.0%   ||||               4.3%   [76]       
77     nl_77                      |                  0.1%   |                  0.0%   [77]       
79     conv2d_79                  ||                 0.7%   |                  0.6%   [78, 79]   
80     conv2d_80                  |||||||||||||||    8.0%   ||||               4.3%   [80]       
81     conv2d_81                  ||                 0.7%   |                  0.6%   [81, 82]   
82     conv2d_82                  |||||||||||||||    8.0%   ||||               4.3%   [83]       
83     conv2d_83                  |                  0.3%   |                  0.2%   [84]       
84     gather_84                  |                  0.0%   |                  0.0%   [87]       
85     nl_85                      |                  0.0%   |                  0.0%   [88]       
87     gather_87                  |                  0.0%   |                  0.0%   [85]       
88     nl_88                      |                  0.0%   |                  0.0%   [86]       
90     concat_90                  |                  0.0%   |                  0.0%   [90]       
91     transpose_91               |                  0.0%   |                  0.0%   [91]       
93     transpose_93               |                  0.0%   |                  0.0%   [92]       
94     conversion_94              |                  0.0%   |                  0.0%   [93]       
------ -------------------------- ------------------------- ------------------------- ---------- 
macc=29,630,694 weights=222,544 act=123,312 ram_io=0

Generated files (7)
--------------------------------------------------------------------------------------------------------------------------------- 
F:\MyWork\PyWork\gd32ai-modelzoo\object_detection\yolov10\results\deploy\coco_person_0012\Edge_AI\model\network_2_config.h        
F:\MyWork\PyWork\gd32ai-modelzoo\object_detection\yolov10\results\deploy\coco_person_0012\Edge_AI\model\network_2.h               
F:\MyWork\PyWork\gd32ai-modelzoo\object_detection\yolov10\results\deploy\coco_person_0012\Edge_AI\model\network_2.c               
F:\MyWork\PyWork\gd32ai-modelzoo\object_detection\yolov10\results\deploy\coco_person_0012\Edge_AI\model\network_2_data_params.h   
F:\MyWork\PyWork\gd32ai-modelzoo\object_detection\yolov10\results\deploy\coco_person_0012\Edge_AI\model\network_2_data_params.c   
F:\MyWork\PyWork\gd32ai-modelzoo\object_detection\yolov10\results\deploy\coco_person_0012\Edge_AI\model\network_2_data.h          
F:\MyWork\PyWork\gd32ai-modelzoo\object_detection\yolov10\results\deploy\coco_person_0012\Edge_AI\model\network_2_data.c          
