Neural Network Tools for STM32AI v1.7.0 (STM.ai v8.0.1-19451)
Created date          : 2024-03-07 16:40:00
Parameters            : generate --name network_2 -m results/deploy\coco_sp_0000\tflite\model_post.tflite --type tflite --compression none --verbosity 1 --workspace results/deploy\coco_sp_0000\temp --output results/deploy\coco_sp_0000\Edge_AI\model --allocate-inputs --series stm32h7 --allocate-outputs

Exec/report summary (generate)
-----------------------------------------------------------------------------------------------------------------------------------------------
model file         :   F:\MyWork\PyWork\gd32ai-modelzoo\object_detection\yolo_fastestv2\results\deploy\coco_sp_0000\tflite\model_post.tflite   
type               :   tflite                                                                                                                  
c_name             :   network_2                                                                                                               
compression        :   none                                                                                                                    
options            :   allocate-inputs, allocate-outputs                                                                                       
optimization       :   balanced                                                                                                                
target/series      :   stm32h7                                                                                                                 
workspace dir      :   F:\MyWork\PyWork\gd32ai-modelzoo\object_detection\yolo_fastestv2\results\deploy\coco_sp_0000\temp                       
output dir         :   F:\MyWork\PyWork\gd32ai-modelzoo\object_detection\yolo_fastestv2\results\deploy\coco_sp_0000\Edge_AI\model              
model_fmt          :   ss/sa per-channel                                                                                                       
model_name         :   model_post                                                                                                              
model_hash         :   7ab622a15b5ca38cd7fad6e445117cf2                                                                                        
params #           :   194,782 items (200.20 KiB)                                                                                              
-----------------------------------------------------------------------------------------------------------------------------------------------
input 1/1          :   'serving_default_input_20' (domain:activations/**default**)                                                             
                   :   13824 items, 13.50 KiB, ai_i8, s=0.02115684, zp=-128, (1,12,12,96)                                                      
output 1/1         :   'conversion_97' (domain:activations/**default**)                                                                        
                   :   17100 items, 66.80 KiB, ai_float, float, (1,180,1,95)                                                                   
macc               :   14,193,490                                                                                                              
weights (ro)       :   196,624 B (192.02 KiB) (1 segment) / -582,504(-74.8%) vs float model                                                    
activations (rw)   :   94,464 B (92.25 KiB) (1 segment) *                                                                                      
ram (total)        :   94,464 B (92.25 KiB) = 94,464 + 0 + 0                                                                                   
-----------------------------------------------------------------------------------------------------------------------------------------------
(*) 'input'/'output' buffers can be used from the activations buffer

Model name - model_post ['serving_default_input_20'] ['conversion_97']
------ -------------------------------------------- ----------------------------- --------------- ----------- -------------------------- --- ----------------- ------------------- ----------------------------------- 
m_id   layer (type,original)                        oshape                        param/size             macc               connected to   | c_size            c_macc              c_type                              
------ -------------------------------------------- ----------------------------- --------------- ----------- -------------------------- --- ----------------- ------------------- ----------------------------------- 
0      serving_default_input_20 (Input, )           [b:1,h:12,w:12,c:96]                                                                   |                                       pad_oi8[0]                          
       pad_0 (Pad, PAD)                             [b:1,h:14,w:14,c:96]                                        serving_default_input_20   |                                       
------ -------------------------------------------- ----------------------------- --------------- ----------- -------------------------- --- ----------------- ------------------- ----------------------------------- 
1      conv2d_1 (Conv2D, CONV_2D)                   [b:1,h:12,w:12,c:96]          9,312/9,600       1,327,200   serving_default_input_20   |                                       conv2d_oi8[3]                       
       nl_1_nl (Nonlinearity, CONV_2D)              [b:1,h:12,w:12,c:96]                               13,824                   conv2d_1   |                   -13,824(-100.0%)    
------ -------------------------------------------- ----------------------------- --------------- ----------- -------------------------- --- ----------------- ------------------- ----------------------------------- 
2      pad_2 (Pad, PAD)                             [b:1,h:14,w:14,c:96]                                                         nl_1_nl   |                                       pad_oi8[4]                          
------ -------------------------------------------- ----------------------------- --------------- ----------- -------------------------- --- ----------------- ------------------- ----------------------------------- 
3      conv2d_3 (Conv2D, DEPTHWISE_CONV_2D)         [b:1,h:6,w:6,c:96]            960/1,248            31,200                      pad_0   |                                       conv2d_oi8[1]                       
------ -------------------------------------------- ----------------------------- --------------- ----------- -------------------------- --- ----------------- ------------------- ----------------------------------- 
4      conv2d_4 (Conv2D, CONV_2D)                   [b:1,h:6,w:6,c:96]            9,312/9,600         331,872                   conv2d_3   |                                       conv2d_oi8[2]                       
       nl_4_nl (Nonlinearity, CONV_2D)              [b:1,h:6,w:6,c:96]                                  3,456                   conv2d_4   |                   -3,456(-100.0%)     
------ -------------------------------------------- ----------------------------- --------------- ----------- -------------------------- --- ----------------- ------------------- ----------------------------------- 
5      conv2d_5 (Conv2D, DEPTHWISE_CONV_2D)         [b:1,h:6,w:6,c:96]            960/1,248            31,200                      pad_2   |                                       conv2d_oi8[5]                       
------ -------------------------------------------- ----------------------------- --------------- ----------- -------------------------- --- ----------------- ------------------- ----------------------------------- 
6      conv2d_6 (Conv2D, CONV_2D)                   [b:1,h:6,w:6,c:96]            9,312/9,600         331,872                   conv2d_5   |                                       conv2d_oi8[6]                       
       nl_6_nl (Nonlinearity, CONV_2D)              [b:1,h:6,w:6,c:96]                                  3,456                   conv2d_6   |                   -3,456(-100.0%)     
------ -------------------------------------------- ----------------------------- --------------- ----------- -------------------------- --- ----------------- ------------------- ----------------------------------- 
7      concat_7 (Concat, CONCATENATION)             [b:1,h:6,w:6,c:192]                                                          nl_4_nl   |                                       concat_oi8[7]                       
                                                                                                                                 nl_6_nl   | 
------ -------------------------------------------- ----------------------------- --------------- ----------- -------------------------- --- ----------------- ------------------- ----------------------------------- 
8      gather_8 (Gather, GATHER)                    [b:1,h:6,w:6,c:96]            96/384                                        concat_7   |                                       gather_oi8[13]                      
------ -------------------------------------------- ----------------------------- --------------- ----------- -------------------------- --- ----------------- ------------------- ----------------------------------- 
9      gather_9 (Gather, GATHER)                    [b:1,h:6,w:6,c:96]            96/384                                        concat_7   |                                       gather_oi8[8]                       
------ -------------------------------------------- ----------------------------- --------------- ----------- -------------------------- --- ----------------- ------------------- ----------------------------------- 
10     conv2d_10 (Conv2D, CONV_2D)                  [b:1,h:6,w:6,c:96]            9,312/9,600         331,872                   gather_9   |                                       conv2d_oi8[9]                       
       nl_10_nl (Nonlinearity, CONV_2D)             [b:1,h:6,w:6,c:96]                                  3,456                  conv2d_10   |                   -3,456(-100.0%)     
------ -------------------------------------------- ----------------------------- --------------- ----------- -------------------------- --- ----------------- ------------------- ----------------------------------- 
11     conv2d_11 (Conv2D, DEPTHWISE_CONV_2D)        [b:1,h:6,w:6,c:96]            960/1,248            31,200                   nl_10_nl   |                                       pad_oi8/conv2d_oi8[10, 11]          
------ -------------------------------------------- ----------------------------- --------------- ----------- -------------------------- --- ----------------- ------------------- ----------------------------------- 
12     conv2d_12 (Conv2D, CONV_2D)                  [b:1,h:6,w:6,c:96]            9,312/9,600         331,872                  conv2d_11   |                                       conv2d_oi8[12]                      
       nl_12_nl (Nonlinearity, CONV_2D)             [b:1,h:6,w:6,c:96]                                  3,456                  conv2d_12   |                   -3,456(-100.0%)     
------ -------------------------------------------- ----------------------------- --------------- ----------- -------------------------- --- ----------------- ------------------- ----------------------------------- 
13     concat_13 (Concat, CONCATENATION)            [b:1,h:6,w:6,c:192]                                                         gather_8   |                                       concat_oi8[14]                      
                                                                                                                                nl_12_nl   | 
------ -------------------------------------------- ----------------------------- --------------- ----------- -------------------------- --- ----------------- ------------------- ----------------------------------- 
14     gather_14 (Gather, GATHER)                   [b:1,h:6,w:6,c:96]            96/384                                       concat_13   |                                       gather_oi8[20]                      
------ -------------------------------------------- ----------------------------- --------------- ----------- -------------------------- --- ----------------- ------------------- ----------------------------------- 
15     gather_15 (Gather, GATHER)                   [b:1,h:6,w:6,c:96]            96/384                                       concat_13   |                                       gather_oi8[15]                      
------ -------------------------------------------- ----------------------------- --------------- ----------- -------------------------- --- ----------------- ------------------- ----------------------------------- 
16     conv2d_16 (Conv2D, CONV_2D)                  [b:1,h:6,w:6,c:96]            9,312/9,600         331,872                  gather_15   |                                       conv2d_oi8[16]                      
       nl_16_nl (Nonlinearity, CONV_2D)             [b:1,h:6,w:6,c:96]                                  3,456                  conv2d_16   |                   -3,456(-100.0%)     
------ -------------------------------------------- ----------------------------- --------------- ----------- -------------------------- --- ----------------- ------------------- ----------------------------------- 
17     conv2d_17 (Conv2D, DEPTHWISE_CONV_2D)        [b:1,h:6,w:6,c:96]            960/1,248            31,200                   nl_16_nl   |                                       pad_oi8/conv2d_oi8[17, 18]          
------ -------------------------------------------- ----------------------------- --------------- ----------- -------------------------- --- ----------------- ------------------- ----------------------------------- 
18     conv2d_18 (Conv2D, CONV_2D)                  [b:1,h:6,w:6,c:96]            9,312/9,600         331,872                  conv2d_17   |                                       conv2d_oi8[19]                      
       nl_18_nl (Nonlinearity, CONV_2D)             [b:1,h:6,w:6,c:96]                                  3,456                  conv2d_18   |                   -3,456(-100.0%)     
------ -------------------------------------------- ----------------------------- --------------- ----------- -------------------------- --- ----------------- ------------------- ----------------------------------- 
19     concat_19 (Concat, CONCATENATION)            [b:1,h:6,w:6,c:192]                                                        gather_14   |                                       concat_oi8[21]                      
                                                                                                                                nl_18_nl   | 
------ -------------------------------------------- ----------------------------- --------------- ----------- -------------------------- --- ----------------- ------------------- ----------------------------------- 
20     gather_20 (Gather, GATHER)                   [b:1,h:6,w:6,c:96]            96/384                                       concat_19   |                                       gather_oi8[27]                      
------ -------------------------------------------- ----------------------------- --------------- ----------- -------------------------- --- ----------------- ------------------- ----------------------------------- 
21     gather_21 (Gather, GATHER)                   [b:1,h:6,w:6,c:96]            96/384                                       concat_19   |                                       gather_oi8[22]                      
------ -------------------------------------------- ----------------------------- --------------- ----------- -------------------------- --- ----------------- ------------------- ----------------------------------- 
22     conv2d_22 (Conv2D, CONV_2D)                  [b:1,h:6,w:6,c:96]            9,312/9,600         331,872                  gather_21   |                                       conv2d_oi8[23]                      
       nl_22_nl (Nonlinearity, CONV_2D)             [b:1,h:6,w:6,c:96]                                  3,456                  conv2d_22   |                   -3,456(-100.0%)     
------ -------------------------------------------- ----------------------------- --------------- ----------- -------------------------- --- ----------------- ------------------- ----------------------------------- 
23     conv2d_23 (Conv2D, DEPTHWISE_CONV_2D)        [b:1,h:6,w:6,c:96]            960/1,248            31,200                   nl_22_nl   |                                       pad_oi8/conv2d_oi8[24, 25]          
------ -------------------------------------------- ----------------------------- --------------- ----------- -------------------------- --- ----------------- ------------------- ----------------------------------- 
24     conv2d_24 (Conv2D, CONV_2D)                  [b:1,h:6,w:6,c:96]            9,312/9,600         331,872                  conv2d_23   |                                       conv2d_oi8[26]                      
       nl_24_nl (Nonlinearity, CONV_2D)             [b:1,h:6,w:6,c:96]                                  3,456                  conv2d_24   |                   -3,456(-100.0%)     
------ -------------------------------------------- ----------------------------- --------------- ----------- -------------------------- --- ----------------- ------------------- ----------------------------------- 
25     concat_25 (Concat, CONCATENATION)            [b:1,h:6,w:6,c:192]                                                        gather_20   |                                       concat_oi8[28]                      
                                                                                                                                nl_24_nl   | 
------ -------------------------------------------- ----------------------------- --------------- ----------- -------------------------- --- ----------------- ------------------- ----------------------------------- 
26     conv2d_26 (Conv2D, CONV_2D)                  [b:1,h:6,w:6,c:72]            13,896/14,112       497,736                  concat_25   |                                       conv2d_oi8[51]                      
       nl_26_nl (Nonlinearity, CONV_2D)             [b:1,h:6,w:6,c:72]                                  2,592                  conv2d_26   |                   -2,592(-100.0%)     
------ -------------------------------------------- ----------------------------- --------------- ----------- -------------------------- --- ----------------- ------------------- ----------------------------------- 
27     pad_27 (Pad, PAD)                            [b:1,h:10,w:10,c:72]                                                        nl_26_nl   |                                       pad_oi8[52]                         
------ -------------------------------------------- ----------------------------- --------------- ----------- -------------------------- --- ----------------- ------------------- ----------------------------------- 
28     conv2d_28 (Conv2D, DEPTHWISE_CONV_2D)        [b:1,h:6,w:6,c:72]            1,872/2,088          64,872                     pad_27   |                                       conv2d_oi8[62]                      
       nl_28_nl (Nonlinearity, DEPTHWISE_CONV_2D)   [b:1,h:6,w:6,c:72]                                  2,592                  conv2d_28   |                   -2,592(-100.0%)     
------ -------------------------------------------- ----------------------------- --------------- ----------- -------------------------- --- ----------------- ------------------- ----------------------------------- 
29     conv2d_29 (Conv2D, CONV_2D)                  [b:1,h:6,w:6,c:72]            5,256/5,472         186,696                   nl_28_nl   |                                       conv2d_oi8[63]                      
------ -------------------------------------------- ----------------------------- --------------- ----------- -------------------------- --- ----------------- ------------------- ----------------------------------- 
30     pad_30 (Pad, PAD)                            [b:1,h:10,w:10,c:72]                                                       conv2d_29   | +2,088(+100.0%)   +64,872(+100.0%)    conv2d_oi8[64]                      
------ -------------------------------------------- ----------------------------- --------------- ----------- -------------------------- --- ----------------- ------------------- ----------------------------------- 
31     conv2d_31 (Conv2D, DEPTHWISE_CONV_2D)        [b:1,h:6,w:6,c:72]            1,872/2,088          64,872                     pad_30   | -2,088(-100.0%)   -64,872(-100.0%)    
       nl_31_nl (Nonlinearity, DEPTHWISE_CONV_2D)   [b:1,h:6,w:6,c:72]                                  2,592                  conv2d_31   |                   -2,592(-100.0%)     
------ -------------------------------------------- ----------------------------- --------------- ----------- -------------------------- --- ----------------- ------------------- ----------------------------------- 
32     conv2d_32 (Conv2D, CONV_2D)                  [b:1,h:6,w:6,c:72]            5,256/5,472         186,696                   nl_31_nl   |                                       conv2d_oi8[65]                      
------ -------------------------------------------- ----------------------------- --------------- ----------- -------------------------- --- ----------------- ------------------- ----------------------------------- 
33     conv2d_33 (Conv2D, CONV_2D)                  [b:1,h:6,w:6,c:12]            876/912              31,116                  conv2d_32   | -912(-100.0%)     -31,116(-100.0%)    
------ -------------------------------------------- ----------------------------- --------------- ----------- -------------------------- --- ----------------- ------------------- ----------------------------------- 
34     nl_34 (Nonlinearity, LOGISTIC)               [b:1,h:6,w:6,c:12]                                  4,320                  conv2d_33   | +912(+100.0%)     +27,228(+630.3%)    conv2d_oi8[66]                      
------ -------------------------------------------- ----------------------------- --------------- ----------- -------------------------- --- ----------------- ------------------- ----------------------------------- 
35     conversion_35 (Conversion, QUANTIZE)         [b:1,h:6,w:6,c:12]                                    864                      nl_34   |                   -864(-100.0%)       
------ -------------------------------------------- ----------------------------- --------------- ----------- -------------------------- --- ----------------- ------------------- ----------------------------------- 
36     conv2d_36 (Conv2D, DEPTHWISE_CONV_2D)        [b:1,h:6,w:6,c:72]            1,872/2,088          64,872                     pad_27   |                                       conv2d_oi8[53]                      
       nl_36_nl (Nonlinearity, DEPTHWISE_CONV_2D)   [b:1,h:6,w:6,c:72]                                  2,592                  conv2d_36   |                   -2,592(-100.0%)     
------ -------------------------------------------- ----------------------------- --------------- ----------- -------------------------- --- ----------------- ------------------- ----------------------------------- 
37     conv2d_37 (Conv2D, CONV_2D)                  [b:1,h:6,w:6,c:72]            5,256/5,472         186,696                   nl_36_nl   |                                       conv2d_oi8[54]                      
------ -------------------------------------------- ----------------------------- --------------- ----------- -------------------------- --- ----------------- ------------------- ----------------------------------- 
38     pad_38 (Pad, PAD)                            [b:1,h:10,w:10,c:72]                                                       conv2d_37   | +2,088(+100.0%)   +64,872(+100.0%)    conv2d_oi8[55]                      
------ -------------------------------------------- ----------------------------- --------------- ----------- -------------------------- --- ----------------- ------------------- ----------------------------------- 
39     conv2d_39 (Conv2D, DEPTHWISE_CONV_2D)        [b:1,h:6,w:6,c:72]            1,872/2,088          64,872                     pad_38   | -2,088(-100.0%)   -64,872(-100.0%)    
       nl_39_nl (Nonlinearity, DEPTHWISE_CONV_2D)   [b:1,h:6,w:6,c:72]                                  2,592                  conv2d_39   |                   -2,592(-100.0%)     
------ -------------------------------------------- ----------------------------- --------------- ----------- -------------------------- --- ----------------- ------------------- ----------------------------------- 
40     conv2d_40 (Conv2D, CONV_2D)                  [b:1,h:6,w:6,c:72]            5,256/5,472         186,696                   nl_39_nl   |                                       conv2d_oi8[56]                      
------ -------------------------------------------- ----------------------------- --------------- ----------- -------------------------- --- ----------------- ------------------- ----------------------------------- 
41     conv2d_41 (Conv2D, CONV_2D)                  [b:1,h:6,w:6,c:3]             219/228               7,779                  conv2d_40   | -228(-100.0%)     -7,779(-100.0%)     
------ -------------------------------------------- ----------------------------- --------------- ----------- -------------------------- --- ----------------- ------------------- ----------------------------------- 
42     nl_42 (Nonlinearity, LOGISTIC)               [b:1,h:6,w:6,c:3]                                   1,080                  conv2d_41   | +228(+100.0%)     +6,807(+630.3%)     conv2d_oi8[61]                      
------ -------------------------------------------- ----------------------------- --------------- ----------- -------------------------- --- ----------------- ------------------- ----------------------------------- 
43     conversion_43 (Conversion, QUANTIZE)         [b:1,h:6,w:6,c:3]                                     216                      nl_42   |                   -216(-100.0%)       
------ -------------------------------------------- ----------------------------- --------------- ----------- -------------------------- --- ----------------- ------------------- ----------------------------------- 
44     conv2d_44 (Conv2D, CONV_2D)                  [b:1,h:6,w:6,c:80]            5,840/6,080         207,440                  conv2d_40   |                   +5,760(+2.8%)       conv2d_oi8/converter_of32[57, 58]   
------ -------------------------------------------- ----------------------------- --------------- ----------- -------------------------- --- ----------------- ------------------- ----------------------------------- 
45     transpose_45 (Transpose, TRANSPOSE)          [b:1,h:80,w:6,c:6]                                                         conv2d_44   |                                       
------ -------------------------------------------- ----------------------------- --------------- ----------- -------------------------- --- ----------------- ------------------- ----------------------------------- 
46     transpose_46 (Transpose, TRANSPOSE)          [b:1,h:6,w:6,c:80]                                                      transpose_45   |                                       
------ -------------------------------------------- ----------------------------- --------------- ----------- -------------------------- --- ----------------- ------------------- ----------------------------------- 
47     transpose_47 (Transpose, TRANSPOSE)          [b:1,h:6,w:80,c:6]                                                      transpose_46   |                                       
------ -------------------------------------------- ----------------------------- --------------- ----------- -------------------------- --- ----------------- ------------------- ----------------------------------- 
48     transpose_48 (Transpose, TRANSPOSE)          [b:1,h:6,w:6,c:80]                                                      transpose_47   |                                       
------ -------------------------------------------- ----------------------------- --------------- ----------- -------------------------- --- ----------------- ------------------- ----------------------------------- 
49     nl_49 (Nonlinearity, SOFTMAX)                [b:1,h:6,w:6,c:80]                                 43,200               transpose_48   |                   +5,760(+13.3%)      nl_of32/converter_oi8[59, 60]       
------ -------------------------------------------- ----------------------------- --------------- ----------- -------------------------- --- ----------------- ------------------- ----------------------------------- 
50     conversion_50 (Conversion, QUANTIZE)         [b:1,h:6,w:6,c:80]                                  5,760                      nl_49   |                   -5,760(-100.0%)     
------ -------------------------------------------- ----------------------------- --------------- ----------- -------------------------- --- ----------------- ------------------- ----------------------------------- 
51     transpose_51 (Transpose, TRANSPOSE)          [b:1,h:6,w:80,c:6]                                                     conversion_50   |                                       
------ -------------------------------------------- ----------------------------- --------------- ----------- -------------------------- --- ----------------- ------------------- ----------------------------------- 
52     transpose_52 (Transpose, TRANSPOSE)          [b:1,h:6,w:6,c:80]                                                      transpose_51   |                                       
------ -------------------------------------------- ----------------------------- --------------- ----------- -------------------------- --- ----------------- ------------------- ----------------------------------- 
53     transpose_53 (Transpose, TRANSPOSE)          [b:1,h:80,w:6,c:6]                                                      transpose_52   |                                       
------ -------------------------------------------- ----------------------------- --------------- ----------- -------------------------- --- ----------------- ------------------- ----------------------------------- 
54     transpose_54 (Transpose, TRANSPOSE)          [b:1,h:6,w:6,c:80]                                                      transpose_53   |                                       
------ -------------------------------------------- ----------------------------- --------------- ----------- -------------------------- --- ----------------- ------------------- ----------------------------------- 
55     concat_55 (Concat, CONCATENATION)            [b:1,h:6,w:6,c:95]                                                     conversion_35   |                                       concat_oi8[67]                      
                                                                                                                           conversion_43   | 
                                                                                                                            transpose_54   | 
------ -------------------------------------------- ----------------------------- --------------- ----------- -------------------------- --- ----------------- ------------------- ----------------------------------- 
56     transpose_56 (Transpose, TRANSPOSE)          [b:1,h:95,w:6,c:6]                                                         concat_55   |                                       transpose_oi8[68]                   
------ -------------------------------------------- ----------------------------- --------------- ----------- -------------------------- --- ----------------- ------------------- ----------------------------------- 
57     reshape_57 (Reshape, RESHAPE)                [b:1,h:95,c:36]                                                         transpose_56   |                                       
------ -------------------------------------------- ----------------------------- --------------- ----------- -------------------------- --- ----------------- ------------------- ----------------------------------- 
58     transpose_58 (Transpose, TRANSPOSE)          [b:1,h:36,c:95]                                                           reshape_57   |                                       transpose_oi8[69]                   
------ -------------------------------------------- ----------------------------- --------------- ----------- -------------------------- --- ----------------- ------------------- ----------------------------------- 
59     pack_59 (Pack, PACK)                         [b:1,h:6,w:6,d:2,c:192]                                                    concat_25   |                                       pack_oi8[29]                        
                                                                                                                               concat_25   | 
------ -------------------------------------------- ----------------------------- --------------- ----------- -------------------------- --- ----------------- ------------------- ----------------------------------- 
60     pack_60 (Pack, PACK)                         [b:1,h:6,w:2,d:6,e:2,c:192]                                                  pack_59   |                                       pack_oi8[30]                        
                                                                                                                                 pack_59   | 
------ -------------------------------------------- ----------------------------- --------------- ----------- -------------------------- --- ----------------- ------------------- ----------------------------------- 
61     reshape_61 (Reshape, RESHAPE)                [b:1,h:12,w:12,c:192]                                                        pack_60   |                                       
------ -------------------------------------------- ----------------------------- --------------- ----------- -------------------------- --- ----------------- ------------------- ----------------------------------- 
62     concat_62 (Concat, CONCATENATION)            [b:1,h:12,w:12,c:288]                                                     reshape_61   |                                       concat_oi8[31]                      
                                                                                                                serving_default_input_20   | 
------ -------------------------------------------- ----------------------------- --------------- ----------- -------------------------- --- ----------------- ------------------- ----------------------------------- 
63     conv2d_63 (Conv2D, CONV_2D)                  [b:1,h:12,w:12,c:72]          20,808/21,024     2,986,056                  concat_62   |                                       conv2d_oi8[32]                      
       nl_63_nl (Nonlinearity, CONV_2D)             [b:1,h:12,w:12,c:72]                               10,368                  conv2d_63   |                   -10,368(-100.0%)    
------ -------------------------------------------- ----------------------------- --------------- ----------- -------------------------- --- ----------------- ------------------- ----------------------------------- 
64     pad_64 (Pad, PAD)                            [b:1,h:16,w:16,c:72]                                                        nl_63_nl   |                                       pad_oi8[33]                         
------ -------------------------------------------- ----------------------------- --------------- ----------- -------------------------- --- ----------------- ------------------- ----------------------------------- 
65     conv2d_65 (Conv2D, DEPTHWISE_CONV_2D)        [b:1,h:12,w:12,c:72]          1,872/2,088         259,272                     pad_64   |                                       conv2d_oi8[39]                      
       nl_65_nl (Nonlinearity, DEPTHWISE_CONV_2D)   [b:1,h:12,w:12,c:72]                               10,368                  conv2d_65   |                   -10,368(-100.0%)    
------ -------------------------------------------- ----------------------------- --------------- ----------- -------------------------- --- ----------------- ------------------- ----------------------------------- 
66     conv2d_66 (Conv2D, CONV_2D)                  [b:1,h:12,w:12,c:72]          5,256/5,472         746,568                   nl_65_nl   |                                       conv2d_oi8[40]                      
------ -------------------------------------------- ----------------------------- --------------- ----------- -------------------------- --- ----------------- ------------------- ----------------------------------- 
67     pad_67 (Pad, PAD)                            [b:1,h:16,w:16,c:72]                                                       conv2d_66   | +2,088(+100.0%)   +259,272(+100.0%)   conv2d_oi8[41]                      
------ -------------------------------------------- ----------------------------- --------------- ----------- -------------------------- --- ----------------- ------------------- ----------------------------------- 
68     conv2d_68 (Conv2D, DEPTHWISE_CONV_2D)        [b:1,h:12,w:12,c:72]          1,872/2,088         259,272                     pad_67   | -2,088(-100.0%)   -259,272(-100.0%)   
       nl_68_nl (Nonlinearity, DEPTHWISE_CONV_2D)   [b:1,h:12,w:12,c:72]                               10,368                  conv2d_68   |                   -10,368(-100.0%)    
------ -------------------------------------------- ----------------------------- --------------- ----------- -------------------------- --- ----------------- ------------------- ----------------------------------- 
69     conv2d_69 (Conv2D, CONV_2D)                  [b:1,h:12,w:12,c:72]          5,256/5,472         746,568                   nl_68_nl   |                                       conv2d_oi8[42]                      
------ -------------------------------------------- ----------------------------- --------------- ----------- -------------------------- --- ----------------- ------------------- ----------------------------------- 
70     conv2d_70 (Conv2D, CONV_2D)                  [b:1,h:12,w:12,c:3]           219/228              31,107                  conv2d_69   | -228(-100.0%)     -31,107(-100.0%)    
------ -------------------------------------------- ----------------------------- --------------- ----------- -------------------------- --- ----------------- ------------------- ----------------------------------- 
71     nl_71 (Nonlinearity, LOGISTIC)               [b:1,h:12,w:12,c:3]                                 4,320                  conv2d_70   | +228(+100.0%)     +27,219(+630.1%)    conv2d_oi8[47]                      
------ -------------------------------------------- ----------------------------- --------------- ----------- -------------------------- --- ----------------- ------------------- ----------------------------------- 
72     conversion_72 (Conversion, QUANTIZE)         [b:1,h:12,w:12,c:3]                                   864                      nl_71   |                   -864(-100.0%)       
------ -------------------------------------------- ----------------------------- --------------- ----------- -------------------------- --- ----------------- ------------------- ----------------------------------- 
73     conv2d_73 (Conv2D, CONV_2D)                  [b:1,h:12,w:12,c:80]          5,840/6,080         829,520                  conv2d_69   |                   +23,040(+2.8%)      conv2d_oi8/converter_of32[43, 44]   
------ -------------------------------------------- ----------------------------- --------------- ----------- -------------------------- --- ----------------- ------------------- ----------------------------------- 
74     transpose_74 (Transpose, TRANSPOSE)          [b:1,h:80,w:12,c:12]                                                       conv2d_73   |                                       
------ -------------------------------------------- ----------------------------- --------------- ----------- -------------------------- --- ----------------- ------------------- ----------------------------------- 
75     transpose_75 (Transpose, TRANSPOSE)          [b:1,h:12,w:12,c:80]                                                    transpose_74   |                                       
------ -------------------------------------------- ----------------------------- --------------- ----------- -------------------------- --- ----------------- ------------------- ----------------------------------- 
76     transpose_76 (Transpose, TRANSPOSE)          [b:1,h:12,w:80,c:12]                                                    transpose_75   |                                       
------ -------------------------------------------- ----------------------------- --------------- ----------- -------------------------- --- ----------------- ------------------- ----------------------------------- 
77     transpose_77 (Transpose, TRANSPOSE)          [b:1,h:12,w:12,c:80]                                                    transpose_76   |                                       
------ -------------------------------------------- ----------------------------- --------------- ----------- -------------------------- --- ----------------- ------------------- ----------------------------------- 
78     nl_78 (Nonlinearity, SOFTMAX)                [b:1,h:12,w:12,c:80]                              172,800               transpose_77   |                   +23,040(+13.3%)     nl_of32/converter_oi8[45, 46]       
------ -------------------------------------------- ----------------------------- --------------- ----------- -------------------------- --- ----------------- ------------------- ----------------------------------- 
79     conversion_79 (Conversion, QUANTIZE)         [b:1,h:12,w:12,c:80]                               23,040                      nl_78   |                   -23,040(-100.0%)    
------ -------------------------------------------- ----------------------------- --------------- ----------- -------------------------- --- ----------------- ------------------- ----------------------------------- 
80     transpose_80 (Transpose, TRANSPOSE)          [b:1,h:12,w:80,c:12]                                                   conversion_79   |                                       
------ -------------------------------------------- ----------------------------- --------------- ----------- -------------------------- --- ----------------- ------------------- ----------------------------------- 
81     transpose_81 (Transpose, TRANSPOSE)          [b:1,h:12,w:12,c:80]                                                    transpose_80   |                                       
------ -------------------------------------------- ----------------------------- --------------- ----------- -------------------------- --- ----------------- ------------------- ----------------------------------- 
82     transpose_82 (Transpose, TRANSPOSE)          [b:1,h:80,w:12,c:12]                                                    transpose_81   |                                       
------ -------------------------------------------- ----------------------------- --------------- ----------- -------------------------- --- ----------------- ------------------- ----------------------------------- 
83     transpose_83 (Transpose, TRANSPOSE)          [b:1,h:12,w:12,c:80]                                                    transpose_82   |                                       
------ -------------------------------------------- ----------------------------- --------------- ----------- -------------------------- --- ----------------- ------------------- ----------------------------------- 
84     conv2d_84 (Conv2D, DEPTHWISE_CONV_2D)        [b:1,h:12,w:12,c:72]          1,872/2,088         259,272                     pad_64   |                                       conv2d_oi8[34]                      
       nl_84_nl (Nonlinearity, DEPTHWISE_CONV_2D)   [b:1,h:12,w:12,c:72]                               10,368                  conv2d_84   |                   -10,368(-100.0%)    
------ -------------------------------------------- ----------------------------- --------------- ----------- -------------------------- --- ----------------- ------------------- ----------------------------------- 
85     conv2d_85 (Conv2D, CONV_2D)                  [b:1,h:12,w:12,c:72]          5,256/5,472         746,568                   nl_84_nl   |                                       conv2d_oi8[35]                      
------ -------------------------------------------- ----------------------------- --------------- ----------- -------------------------- --- ----------------- ------------------- ----------------------------------- 
86     pad_86 (Pad, PAD)                            [b:1,h:16,w:16,c:72]                                                       conv2d_85   | +2,088(+100.0%)   +259,272(+100.0%)   conv2d_oi8[36]                      
------ -------------------------------------------- ----------------------------- --------------- ----------- -------------------------- --- ----------------- ------------------- ----------------------------------- 
87     conv2d_87 (Conv2D, DEPTHWISE_CONV_2D)        [b:1,h:12,w:12,c:72]          1,872/2,088         259,272                     pad_86   | -2,088(-100.0%)   -259,272(-100.0%)   
       nl_87_nl (Nonlinearity, DEPTHWISE_CONV_2D)   [b:1,h:12,w:12,c:72]                               10,368                  conv2d_87   |                   -10,368(-100.0%)    
------ -------------------------------------------- ----------------------------- --------------- ----------- -------------------------- --- ----------------- ------------------- ----------------------------------- 
88     conv2d_88 (Conv2D, CONV_2D)                  [b:1,h:12,w:12,c:72]          5,256/5,472         746,568                   nl_87_nl   |                                       conv2d_oi8[37]                      
------ -------------------------------------------- ----------------------------- --------------- ----------- -------------------------- --- ----------------- ------------------- ----------------------------------- 
89     conv2d_89 (Conv2D, CONV_2D)                  [b:1,h:12,w:12,c:12]          876/912             124,428                  conv2d_88   | -912(-100.0%)     -124,428(-100.0%)   
------ -------------------------------------------- ----------------------------- --------------- ----------- -------------------------- --- ----------------- ------------------- ----------------------------------- 
90     nl_90 (Nonlinearity, LOGISTIC)               [b:1,h:12,w:12,c:12]                               17,280                  conv2d_89   | +912(+100.0%)     +108,876(+630.1%)   conv2d_oi8[38]                      
------ -------------------------------------------- ----------------------------- --------------- ----------- -------------------------- --- ----------------- ------------------- ----------------------------------- 
91     conversion_91 (Conversion, QUANTIZE)         [b:1,h:12,w:12,c:12]                                3,456                      nl_90   |                   -3,456(-100.0%)     
------ -------------------------------------------- ----------------------------- --------------- ----------- -------------------------- --- ----------------- ------------------- ----------------------------------- 
92     concat_92 (Concat, CONCATENATION)            [b:1,h:12,w:12,c:95]                                                   conversion_91   |                                       concat_oi8[48]                      
                                                                                                                           conversion_72   | 
                                                                                                                            transpose_83   | 
------ -------------------------------------------- ----------------------------- --------------- ----------- -------------------------- --- ----------------- ------------------- ----------------------------------- 
93     transpose_93 (Transpose, TRANSPOSE)          [b:1,h:95,w:12,c:12]                                                       concat_92   |                                       transpose_oi8[49]                   
------ -------------------------------------------- ----------------------------- --------------- ----------- -------------------------- --- ----------------- ------------------- ----------------------------------- 
94     reshape_94 (Reshape, RESHAPE)                [b:1,h:95,c:144]                                                        transpose_93   |                                       
------ -------------------------------------------- ----------------------------- --------------- ----------- -------------------------- --- ----------------- ------------------- ----------------------------------- 
95     transpose_95 (Transpose, TRANSPOSE)          [b:1,h:144,c:95]                                                          reshape_94   |                                       transpose_oi8[50]                   
------ -------------------------------------------- ----------------------------- --------------- ----------- -------------------------- --- ----------------- ------------------- ----------------------------------- 
96     concat_96 (Concat, CONCATENATION)            [b:1,h:180,c:95]                                                        transpose_95   |                                       concat_oi8[70]                      
                                                                                                                            transpose_58   | 
------ -------------------------------------------- ----------------------------- --------------- ----------- -------------------------- --- ----------------- ------------------- ----------------------------------- 
97     conversion_97 (Conversion, DEQUANTIZE)       [b:1,h:180,c:95]                                   34,200                  concat_96   |                                       converter_of32[o][71]               
------ -------------------------------------------- ----------------------------- --------------- ----------- -------------------------- --- ----------------- ------------------- ----------------------------------- 
model/c-model: macc=14,300,662/14,193,490 -107,172(-0.7%) weights=205,000/196,624 -8,376(-4.1%) activations=--/94,464 io=--/0



Generated C-graph summary
------------------------------------------------------------------------------------------------------------------------
model name            : model_post
c-name                : network_2
c-node #              : 72
c-array #             : 190
activations size      : 94464 (1 segment)
weights size          : 196624 (1 segment)
macc                  : 14193490
inputs                : ['serving_default_input_20_output']
outputs               : ['conversion_97_output']

C-Arrays (190)
------ --------------------------------- ------------- ------------------------- --------------- ------------- --------- 
c_id   name (*_array)                    item/size     domain/mem-pool           c-type          fmt           comment   
------ --------------------------------- ------------- ------------------------- --------------- ------------- --------- 
0      conv2d_22_weights                 9216/9216     weights/weights           const int8_t    ss8/ch(96)              
1      conv2d_22_bias                    96/384        weights/weights           const int32_t   ss32/ch(96)             
2      conv2d_23_weights                 864/864       weights/weights           const int8_t    ss8/ch(96)              
3      conv2d_23_bias                    96/384        weights/weights           const int32_t   ss32/ch(96)             
4      conv2d_24_weights                 9216/9216     weights/weights           const int8_t    ss8/ch(96)              
5      conv2d_24_bias                    96/384        weights/weights           const int32_t   ss32/ch(96)             
6      conv2d_63_weights                 20736/20736   weights/weights           const int8_t    ss8/ch(72)              
7      conv2d_63_bias                    72/288        weights/weights           const int32_t   ss32/ch(72)             
8      conv2d_84_weights                 1800/1800     weights/weights           const int8_t    ss8/ch(72)              
9      conv2d_84_bias                    72/288        weights/weights           const int32_t   ss32/ch(72)             
10     conv2d_85_weights                 5184/5184     weights/weights           const int8_t    ss8/ch(72)              
11     conv2d_85_bias                    72/288        weights/weights           const int32_t   ss32/ch(72)             
12     conv2d_87_weights                 1800/1800     weights/weights           const int8_t    ss8/ch(72)              
13     conv2d_87_bias                    72/288        weights/weights           const int32_t   ss32/ch(72)             
14     conv2d_88_weights                 5184/5184     weights/weights           const int8_t    ss8/ch(72)              
15     conv2d_88_bias                    72/288        weights/weights           const int32_t   ss32/ch(72)             
16     conv2d_89_weights                 864/864       weights/weights           const int8_t    ss8/ch(12)              
17     conv2d_89_bias                    12/48         weights/weights           const int32_t   ss32/ch(12)             
18     conv2d_65_weights                 1800/1800     weights/weights           const int8_t    ss8/ch(72)              
19     conv2d_65_bias                    72/288        weights/weights           const int32_t   ss32/ch(72)             
20     conv2d_66_weights                 5184/5184     weights/weights           const int8_t    ss8/ch(72)              
21     conv2d_66_bias                    72/288        weights/weights           const int32_t   ss32/ch(72)             
22     conv2d_68_weights                 1800/1800     weights/weights           const int8_t    ss8/ch(72)              
23     conv2d_68_bias                    72/288        weights/weights           const int32_t   ss32/ch(72)             
24     conv2d_69_weights                 5184/5184     weights/weights           const int8_t    ss8/ch(72)              
25     conv2d_69_bias                    72/288        weights/weights           const int32_t   ss32/ch(72)             
26     conv2d_73_weights                 5760/5760     weights/weights           const int8_t    ss8/ch(80)              
27     conv2d_73_bias                    80/320        weights/weights           const int32_t   ss32/ch(80)             
28     conv2d_70_weights                 216/216       weights/weights           const int8_t    ss8/ch(3)               
29     conv2d_70_bias                    3/12          weights/weights           const int32_t   ss32/ch(3)              
30     conv2d_26_weights                 13824/13824   weights/weights           const int8_t    ss8/ch(72)              
31     conv2d_26_bias                    72/288        weights/weights           const int32_t   ss32/ch(72)             
32     conv2d_36_weights                 1800/1800     weights/weights           const int8_t    ss8/ch(72)              
33     conv2d_36_bias                    72/288        weights/weights           const int32_t   ss32/ch(72)             
34     conv2d_37_weights                 5184/5184     weights/weights           const int8_t    ss8/ch(72)              
35     conv2d_37_bias                    72/288        weights/weights           const int32_t   ss32/ch(72)             
36     conv2d_39_weights                 1800/1800     weights/weights           const int8_t    ss8/ch(72)              
37     conv2d_39_bias                    72/288        weights/weights           const int32_t   ss32/ch(72)             
38     conv2d_40_weights                 5184/5184     weights/weights           const int8_t    ss8/ch(72)              
39     conv2d_40_bias                    72/288        weights/weights           const int32_t   ss32/ch(72)             
40     conv2d_44_bias                    80/320        weights/weights           const int32_t   ss32/ch(80)             
41     serving_default_input_20_output   13824/13824   activations/**default**   int8_t          sa8           /input    
42     conv2d_41_bias                    3/12          weights/weights           const int32_t   ss32/ch(3)              
43     conv2d_3_pad_before_output        18816/18816   activations/**default**   int8_t          sa8                     
44     conv2d_3_output                   3456/3456     activations/**default**   int8_t          sa8                     
45     conv2d_28_weights                 1800/1800     weights/weights           const int8_t    ss8/ch(72)              
46     conv2d_4_output                   3456/3456     activations/**default**   int8_t          sa8                     
47     conv2d_1_output                   13824/13824   activations/**default**   int8_t          sa8                     
48     conv2d_28_bias                    72/288        weights/weights           const int32_t   ss32/ch(72)             
49     conv2d_5_pad_before_output        18816/18816   activations/**default**   int8_t          sa8                     
50     conv2d_5_output                   3456/3456     activations/**default**   int8_t          sa8                     
51     conv2d_29_weights                 5184/5184     weights/weights           const int8_t    ss8/ch(72)              
52     conv2d_6_output                   3456/3456     activations/**default**   int8_t          sa8                     
53     concat_7_output                   6912/6912     activations/**default**   int8_t          sa8                     
54     conv2d_29_bias                    72/288        weights/weights           const int32_t   ss32/ch(72)             
55     gather_9_output                   3456/3456     activations/**default**   int8_t          sa8                     
56     conv2d_10_output                  3456/3456     activations/**default**   int8_t          sa8                     
57     conv2d_31_weights                 1800/1800     weights/weights           const int8_t    ss8/ch(72)              
58     conv2d_11_pad_before_output       6144/6144     activations/**default**   int8_t          sa8                     
59     conv2d_11_output                  3456/3456     activations/**default**   int8_t          sa8                     
60     conv2d_31_bias                    72/288        weights/weights           const int32_t   ss32/ch(72)             
61     conv2d_12_output                  3456/3456     activations/**default**   int8_t          sa8                     
62     gather_8_output                   3456/3456     activations/**default**   int8_t          sa8                     
63     conv2d_32_weights                 5184/5184     weights/weights           const int8_t    ss8/ch(72)              
64     concat_13_output                  6912/6912     activations/**default**   int8_t          sa8                     
65     gather_15_output                  3456/3456     activations/**default**   int8_t          sa8                     
66     conv2d_32_bias                    72/288        weights/weights           const int32_t   ss32/ch(72)             
67     conv2d_16_output                  3456/3456     activations/**default**   int8_t          sa8                     
68     conv2d_17_pad_before_output       6144/6144     activations/**default**   int8_t          sa8                     
69     conv2d_17_output                  3456/3456     activations/**default**   int8_t          sa8                     
70     conv2d_18_output                  3456/3456     activations/**default**   int8_t          sa8                     
71     conv2d_33_bias                    12/48         weights/weights           const int32_t   ss32/ch(12)             
72     gather_14_output                  3456/3456     activations/**default**   int8_t          sa8                     
73     concat_19_output                  6912/6912     activations/**default**   int8_t          sa8                     
74     conv2d_3_scratch0                 3553/3553     activations/**default**   int8_t          s8                      
75     gather_21_output                  3456/3456     activations/**default**   int8_t          sa8                     
76     conv2d_22_output                  3456/3456     activations/**default**   int8_t          sa8                     
77     conv2d_23_pad_before_output       6144/6144     activations/**default**   int8_t          sa8                     
78     conv2d_4_scratch0                 1344/1344     activations/**default**   int8_t          s8                      
79     conv2d_23_output                  3456/3456     activations/**default**   int8_t          sa8                     
80     conv2d_24_output                  3456/3456     activations/**default**   int8_t          sa8                     
81     conv2d_1_scratch0                 1344/1344     activations/**default**   int8_t          s8                      
82     gather_20_output                  3456/3456     activations/**default**   int8_t          sa8                     
83     concat_25_output                  6912/6912     activations/**default**   int8_t          sa8                     
84     pack_59_output                    13824/13824   activations/**default**   int8_t          sa8                     
85     conv2d_5_scratch0                 3553/3553     activations/**default**   int8_t          s8                      
86     pack_60_output                    27648/27648   activations/**default**   int8_t          sa8                     
87     concat_62_output                  41472/41472   activations/**default**   int8_t          sa8                     
88     conv2d_6_scratch0                 1344/1344     activations/**default**   int8_t          s8                      
89     conv2d_63_output                  10368/10368   activations/**default**   int8_t          sa8                     
90     pad_64_output                     18432/18432   activations/**default**   int8_t          sa8                     
91     conv2d_84_output                  10368/10368   activations/**default**   int8_t          sa8                     
92     conv2d_10_scratch0                1344/1344     activations/**default**   int8_t          s8                      
93     conv2d_85_output                  10368/10368   activations/**default**   int8_t          sa8                     
94     conv2d_87_output                  10368/10368   activations/**default**   int8_t          sa8                     
95     conv2d_11_scratch0                3553/3553     activations/**default**   int8_t          s8                      
96     conv2d_88_output                  10368/10368   activations/**default**   int8_t          sa8                     
97     conv2d_89_output                  1728/1728     activations/**default**   int8_t          sa8                     
98     conv2d_65_output                  10368/10368   activations/**default**   int8_t          sa8                     
99     conv2d_12_scratch0                1344/1344     activations/**default**   int8_t          s8                      
100    conv2d_66_output                  10368/10368   activations/**default**   int8_t          sa8                     
101    conv2d_68_output                  10368/10368   activations/**default**   int8_t          sa8                     
102    conv2d_16_scratch0                1344/1344     activations/**default**   int8_t          s8                      
103    conv2d_69_output                  10368/10368   activations/**default**   int8_t          sa8                     
104    conv2d_73_output                  11520/11520   activations/**default**   int8_t          sa8                     
105    conv2d_73_0_conversion_output     11520/46080   activations/**default**   float           float32                 
106    conv2d_17_scratch0                3553/3553     activations/**default**   int8_t          s8                      
107    nl_78_output                      11520/46080   activations/**default**   float           float32                 
108    nl_78_0_conversion_output         11520/11520   activations/**default**   int8_t          sa8                     
109    conv2d_18_scratch0                1344/1344     activations/**default**   int8_t          s8                      
110    conv2d_70_output                  432/432       activations/**default**   int8_t          sa8                     
111    concat_92_output                  13680/13680   activations/**default**   int8_t          sa8                     
112    transpose_93_output               13680/13680   activations/**default**   int8_t          sa8                     
113    conv2d_22_scratch0                1344/1344     activations/**default**   int8_t          s8                      
114    transpose_95_output               13680/13680   activations/**default**   int8_t          sa8                     
115    conv2d_26_output                  2592/2592     activations/**default**   int8_t          sa8                     
116    conv2d_23_scratch0                3553/3553     activations/**default**   int8_t          s8                      
117    pad_27_output                     7200/7200     activations/**default**   int8_t          sa8                     
118    conv2d_36_output                  2592/2592     activations/**default**   int8_t          sa8                     
119    conv2d_37_output                  2592/2592     activations/**default**   int8_t          sa8                     
120    conv2d_24_scratch0                1344/1344     activations/**default**   int8_t          s8                      
121    conv2d_39_output                  2592/2592     activations/**default**   int8_t          sa8                     
122    conv2d_40_output                  2592/2592     activations/**default**   int8_t          ss8                     
123    conv2d_63_scratch0                1872/1872     activations/**default**   int8_t          s8                      
124    conv2d_44_output                  2880/2880     activations/**default**   int8_t          sa8                     
125    conv2d_44_0_conversion_output     2880/11520    activations/**default**   float           float32                 
126    nl_49_output                      2880/11520    activations/**default**   float           float32                 
127    conv2d_84_scratch0                6121/6121     activations/**default**   int8_t          s8                      
128    nl_49_0_conversion_output         2880/2880     activations/**default**   int8_t          sa8                     
129    conv2d_41_output                  108/108       activations/**default**   int8_t          sa8                     
130    conv2d_85_scratch0                1008/1008     activations/**default**   int8_t          s8                      
131    conv2d_28_output                  2592/2592     activations/**default**   int8_t          sa8                     
132    conv2d_29_output                  2592/2592     activations/**default**   int8_t          sa8                     
133    conv2d_31_output                  2592/2592     activations/**default**   int8_t          sa8                     
134    conv2d_87_scratch0                6121/6121     activations/**default**   int8_t          s8                      
135    conv2d_32_output                  2592/2592     activations/**default**   int8_t          sa8                     
136    conv2d_33_output                  432/432       activations/**default**   int8_t          sa8                     
137    conv2d_88_scratch0                1008/1008     activations/**default**   int8_t          s8                      
138    concat_55_output                  3420/3420     activations/**default**   int8_t          sa8                     
139    transpose_56_output               3420/3420     activations/**default**   int8_t          sa8                     
140    transpose_58_output               3420/3420     activations/**default**   int8_t          sa8                     
141    conv2d_89_scratch0                408/408       activations/**default**   int8_t          s8                      
142    concat_96_output                  17100/17100   activations/**default**   int8_t          sa8                     
143    conv2d_89_scratch1                1728/1728     activations/**default**   int8_t          sa8                     
144    conversion_97_output              17100/68400   activations/**default**   float           float32       /output   
145    conv2d_65_scratch0                6121/6121     activations/**default**   int8_t          s8                      
146    conv2d_66_scratch0                1008/1008     activations/**default**   int8_t          s8                      
147    conv2d_68_scratch0                6121/6121     activations/**default**   int8_t          s8                      
148    conv2d_69_scratch0                1008/1008     activations/**default**   int8_t          s8                      
149    conv2d_73_scratch0                1088/1088     activations/**default**   int8_t          s8                      
150    conv2d_70_scratch0                318/318       activations/**default**   int8_t          s8                      
151    conv2d_70_scratch1                432/432       activations/**default**   int8_t          sa8                     
152    conv2d_26_scratch0                1488/1488     activations/**default**   int8_t          s8                      
153    conv2d_36_scratch0                6121/6121     activations/**default**   int8_t          s8                      
154    conv2d_37_scratch0                1008/1008     activations/**default**   int8_t          s8                      
155    conv2d_39_scratch0                6121/6121     activations/**default**   int8_t          s8                      
156    conv2d_40_scratch0                1008/1008     activations/**default**   int8_t          s8                      
157    conv2d_44_scratch0                1088/1088     activations/**default**   int8_t          s8                      
158    conv2d_41_scratch0                318/318       activations/**default**   int8_t          s8                      
159    conv2d_41_scratch1                108/108       activations/**default**   int8_t          sa8                     
160    conv2d_28_scratch0                6121/6121     activations/**default**   int8_t          s8                      
161    conv2d_29_scratch0                1008/1008     activations/**default**   int8_t          s8                      
162    conv2d_3_weights                  864/864       weights/weights           const int8_t    ss8/ch(96)              
163    conv2d_31_scratch0                6121/6121     activations/**default**   int8_t          s8                      
164    conv2d_3_bias                     96/384        weights/weights           const int32_t   ss32/ch(96)             
165    conv2d_32_scratch0                1008/1008     activations/**default**   int8_t          s8                      
166    conv2d_4_weights                  9216/9216     weights/weights           const int8_t    ss8/ch(96)              
167    conv2d_33_scratch0                408/408       activations/**default**   int8_t          s8                      
168    conv2d_4_bias                     96/384        weights/weights           const int32_t   ss32/ch(96)             
169    conv2d_33_scratch1                432/432       activations/**default**   int8_t          sa8                     
170    conv2d_1_weights                  9216/9216     weights/weights           const int8_t    ss8/ch(96)              
171    conv2d_1_bias                     96/384        weights/weights           const int32_t   ss32/ch(96)             
172    conv2d_5_weights                  864/864       weights/weights           const int8_t    ss8/ch(96)              
173    conv2d_5_bias                     96/384        weights/weights           const int32_t   ss32/ch(96)             
174    conv2d_6_weights                  9216/9216     weights/weights           const int8_t    ss8/ch(96)              
175    conv2d_6_bias                     96/384        weights/weights           const int32_t   ss32/ch(96)             
176    gather_9_indices                  96/384        weights/weights           const int32_t   s32                     
177    conv2d_10_weights                 9216/9216     weights/weights           const int8_t    ss8/ch(96)              
178    conv2d_10_bias                    96/384        weights/weights           const int32_t   ss32/ch(96)             
179    conv2d_11_weights                 864/864       weights/weights           const int8_t    ss8/ch(96)              
180    conv2d_11_bias                    96/384        weights/weights           const int32_t   ss32/ch(96)             
181    conv2d_12_weights                 9216/9216     weights/weights           const int8_t    ss8/ch(96)              
182    conv2d_12_bias                    96/384        weights/weights           const int32_t   ss32/ch(96)             
183    gather_8_indices                  96/384        weights/weights           const int32_t   s32                     
184    conv2d_16_weights                 9216/9216     weights/weights           const int8_t    ss8/ch(96)              
185    conv2d_16_bias                    96/384        weights/weights           const int32_t   ss32/ch(96)             
186    conv2d_17_weights                 864/864       weights/weights           const int8_t    ss8/ch(96)              
187    conv2d_17_bias                    96/384        weights/weights           const int32_t   ss32/ch(96)             
188    conv2d_18_weights                 9216/9216     weights/weights           const int8_t    ss8/ch(96)              
189    conv2d_18_bias                    96/384        weights/weights           const int32_t   ss32/ch(96)             
------ --------------------------------- ------------- ------------------------- --------------- ------------- --------- 

C-Layers (72)
------ ------------------------ ---- ------------ --------- ------- ------------------------------------ ---------------------- 
c_id   name (*_layer)           id   layer_type   macc      rom     tensors                              shape (array id)       
------ ------------------------ ---- ------------ --------- ------- ------------------------------------ ---------------------- 
0      conv2d_3_pad_before      0    pad          0         0       I: serving_default_input_20_output   (1,12,12,96) (41)      
                                                                    O: conv2d_3_pad_before_output        (1,14,14,96) (43)      
------ ------------------------ ---- ------------ --------- ------- ------------------------------------ ---------------------- 
1      conv2d_3                 3    conv2d       31200     1248    I: conv2d_3_pad_before_output        (1,14,14,96) (43)      
                                                                    S: conv2d_3_scratch0                                        
                                                                    W: conv2d_3_weights                  (96,1,3,3) (162)       
                                                                    W: conv2d_3_bias                     (1,1,1,96) (164)       
                                                                    O: conv2d_3_output                   (1,6,6,96) (44)        
------ ------------------------ ---- ------------ --------- ------- ------------------------------------ ---------------------- 
2      conv2d_4                 4    conv2d       331872    9600    I: conv2d_3_output                   (1,6,6,96) (44)        
                                                                    S: conv2d_4_scratch0                                        
                                                                    W: conv2d_4_weights                  (96,96,1,1) (166)      
                                                                    W: conv2d_4_bias                     (1,1,1,96) (168)       
                                                                    O: conv2d_4_output                   (1,6,6,96) (46)        
------ ------------------------ ---- ------------ --------- ------- ------------------------------------ ---------------------- 
3      conv2d_1                 1    conv2d       1327200   9600    I: serving_default_input_20_output   (1,12,12,96) (41)      
                                                                    S: conv2d_1_scratch0                                        
                                                                    W: conv2d_1_weights                  (96,96,1,1) (170)      
                                                                    W: conv2d_1_bias                     (1,1,1,96) (171)       
                                                                    O: conv2d_1_output                   (1,12,12,96) (47)      
------ ------------------------ ---- ------------ --------- ------- ------------------------------------ ---------------------- 
4      conv2d_5_pad_before      2    pad          0         0       I: conv2d_1_output                   (1,12,12,96) (47)      
                                                                    O: conv2d_5_pad_before_output        (1,14,14,96) (49)      
------ ------------------------ ---- ------------ --------- ------- ------------------------------------ ---------------------- 
5      conv2d_5                 5    conv2d       31200     1248    I: conv2d_5_pad_before_output        (1,14,14,96) (49)      
                                                                    S: conv2d_5_scratch0                                        
                                                                    W: conv2d_5_weights                  (96,1,3,3) (172)       
                                                                    W: conv2d_5_bias                     (1,1,1,96) (173)       
                                                                    O: conv2d_5_output                   (1,6,6,96) (50)        
------ ------------------------ ---- ------------ --------- ------- ------------------------------------ ---------------------- 
6      conv2d_6                 6    conv2d       331872    9600    I: conv2d_5_output                   (1,6,6,96) (50)        
                                                                    S: conv2d_6_scratch0                                        
                                                                    W: conv2d_6_weights                  (96,96,1,1) (174)      
                                                                    W: conv2d_6_bias                     (1,1,1,96) (175)       
                                                                    O: conv2d_6_output                   (1,6,6,96) (52)        
------ ------------------------ ---- ------------ --------- ------- ------------------------------------ ---------------------- 
7      concat_7                 7    concat       0         0       I: conv2d_4_output                   (1,6,6,96) (46)        
                                                                    I: conv2d_6_output                   (1,6,6,96) (52)        
                                                                    O: concat_7_output                   (1,6,6,192) (53)       
------ ------------------------ ---- ------------ --------- ------- ------------------------------------ ---------------------- 
8      gather_9                 9    gather       0         384     I: concat_7_output                   (1,6,6,192) (53)       
                                                                    W: gather_9_indices                  (1,1,96,1) (176)       
                                                                    O: gather_9_output                   (1,6,6,96) (55)        
------ ------------------------ ---- ------------ --------- ------- ------------------------------------ ---------------------- 
9      conv2d_10                10   conv2d       331872    9600    I: gather_9_output                   (1,6,6,96) (55)        
                                                                    S: conv2d_10_scratch0                                       
                                                                    W: conv2d_10_weights                 (96,96,1,1) (177)      
                                                                    W: conv2d_10_bias                    (1,1,1,96) (178)       
                                                                    O: conv2d_10_output                  (1,6,6,96) (56)        
------ ------------------------ ---- ------------ --------- ------- ------------------------------------ ---------------------- 
10     conv2d_11_pad_before     11   pad          0         0       I: conv2d_10_output                  (1,6,6,96) (56)        
                                                                    O: conv2d_11_pad_before_output       (1,8,8,96) (58)        
------ ------------------------ ---- ------------ --------- ------- ------------------------------------ ---------------------- 
11     conv2d_11                11   conv2d       31200     1248    I: conv2d_11_pad_before_output       (1,8,8,96) (58)        
                                                                    S: conv2d_11_scratch0                                       
                                                                    W: conv2d_11_weights                 (96,1,3,3) (179)       
                                                                    W: conv2d_11_bias                    (1,1,1,96) (180)       
                                                                    O: conv2d_11_output                  (1,6,6,96) (59)        
------ ------------------------ ---- ------------ --------- ------- ------------------------------------ ---------------------- 
12     conv2d_12                12   conv2d       331872    9600    I: conv2d_11_output                  (1,6,6,96) (59)        
                                                                    S: conv2d_12_scratch0                                       
                                                                    W: conv2d_12_weights                 (96,96,1,1) (181)      
                                                                    W: conv2d_12_bias                    (1,1,1,96) (182)       
                                                                    O: conv2d_12_output                  (1,6,6,96) (61)        
------ ------------------------ ---- ------------ --------- ------- ------------------------------------ ---------------------- 
13     gather_8                 8    gather       0         384     I: concat_7_output                   (1,6,6,192) (53)       
                                                                    W: gather_8_indices                  (1,1,96,1) (183)       
                                                                    O: gather_8_output                   (1,6,6,96) (62)        
------ ------------------------ ---- ------------ --------- ------- ------------------------------------ ---------------------- 
14     concat_13                13   concat       0         0       I: gather_8_output                   (1,6,6,96) (62)        
                                                                    I: conv2d_12_output                  (1,6,6,96) (61)        
                                                                    O: concat_13_output                  (1,6,6,192) (64)       
------ ------------------------ ---- ------------ --------- ------- ------------------------------------ ---------------------- 
15     gather_15                15   gather       0         384     I: concat_13_output                  (1,6,6,192) (64)       
                                                                    W: gather_9_indices                  (1,1,96,1) (176)       
                                                                    O: gather_15_output                  (1,6,6,96) (65)        
------ ------------------------ ---- ------------ --------- ------- ------------------------------------ ---------------------- 
16     conv2d_16                16   conv2d       331872    9600    I: gather_15_output                  (1,6,6,96) (65)        
                                                                    S: conv2d_16_scratch0                                       
                                                                    W: conv2d_16_weights                 (96,96,1,1) (184)      
                                                                    W: conv2d_16_bias                    (1,1,1,96) (185)       
                                                                    O: conv2d_16_output                  (1,6,6,96) (67)        
------ ------------------------ ---- ------------ --------- ------- ------------------------------------ ---------------------- 
17     conv2d_17_pad_before     17   pad          0         0       I: conv2d_16_output                  (1,6,6,96) (67)        
                                                                    O: conv2d_17_pad_before_output       (1,8,8,96) (68)        
------ ------------------------ ---- ------------ --------- ------- ------------------------------------ ---------------------- 
18     conv2d_17                17   conv2d       31200     1248    I: conv2d_17_pad_before_output       (1,8,8,96) (68)        
                                                                    S: conv2d_17_scratch0                                       
                                                                    W: conv2d_17_weights                 (96,1,3,3) (186)       
                                                                    W: conv2d_17_bias                    (1,1,1,96) (187)       
                                                                    O: conv2d_17_output                  (1,6,6,96) (69)        
------ ------------------------ ---- ------------ --------- ------- ------------------------------------ ---------------------- 
19     conv2d_18                18   conv2d       331872    9600    I: conv2d_17_output                  (1,6,6,96) (69)        
                                                                    S: conv2d_18_scratch0                                       
                                                                    W: conv2d_18_weights                 (96,96,1,1) (188)      
                                                                    W: conv2d_18_bias                    (1,1,1,96) (189)       
                                                                    O: conv2d_18_output                  (1,6,6,96) (70)        
------ ------------------------ ---- ------------ --------- ------- ------------------------------------ ---------------------- 
20     gather_14                14   gather       0         384     I: concat_13_output                  (1,6,6,192) (64)       
                                                                    W: gather_8_indices                  (1,1,96,1) (183)       
                                                                    O: gather_14_output                  (1,6,6,96) (72)        
------ ------------------------ ---- ------------ --------- ------- ------------------------------------ ---------------------- 
21     concat_19                19   concat       0         0       I: gather_14_output                  (1,6,6,96) (72)        
                                                                    I: conv2d_18_output                  (1,6,6,96) (70)        
                                                                    O: concat_19_output                  (1,6,6,192) (73)       
------ ------------------------ ---- ------------ --------- ------- ------------------------------------ ---------------------- 
22     gather_21                21   gather       0         384     I: concat_19_output                  (1,6,6,192) (73)       
                                                                    W: gather_9_indices                  (1,1,96,1) (176)       
                                                                    O: gather_21_output                  (1,6,6,96) (75)        
------ ------------------------ ---- ------------ --------- ------- ------------------------------------ ---------------------- 
23     conv2d_22                22   conv2d       331872    9600    I: gather_21_output                  (1,6,6,96) (75)        
                                                                    S: conv2d_22_scratch0                                       
                                                                    W: conv2d_22_weights                 (96,96,1,1) (0)        
                                                                    W: conv2d_22_bias                    (1,1,1,96) (1)         
                                                                    O: conv2d_22_output                  (1,6,6,96) (76)        
------ ------------------------ ---- ------------ --------- ------- ------------------------------------ ---------------------- 
24     conv2d_23_pad_before     23   pad          0         0       I: conv2d_22_output                  (1,6,6,96) (76)        
                                                                    O: conv2d_23_pad_before_output       (1,8,8,96) (77)        
------ ------------------------ ---- ------------ --------- ------- ------------------------------------ ---------------------- 
25     conv2d_23                23   conv2d       31200     1248    I: conv2d_23_pad_before_output       (1,8,8,96) (77)        
                                                                    S: conv2d_23_scratch0                                       
                                                                    W: conv2d_23_weights                 (96,1,3,3) (2)         
                                                                    W: conv2d_23_bias                    (1,1,1,96) (3)         
                                                                    O: conv2d_23_output                  (1,6,6,96) (79)        
------ ------------------------ ---- ------------ --------- ------- ------------------------------------ ---------------------- 
26     conv2d_24                24   conv2d       331872    9600    I: conv2d_23_output                  (1,6,6,96) (79)        
                                                                    S: conv2d_24_scratch0                                       
                                                                    W: conv2d_24_weights                 (96,96,1,1) (4)        
                                                                    W: conv2d_24_bias                    (1,1,1,96) (5)         
                                                                    O: conv2d_24_output                  (1,6,6,96) (80)        
------ ------------------------ ---- ------------ --------- ------- ------------------------------------ ---------------------- 
27     gather_20                20   gather       0         384     I: concat_19_output                  (1,6,6,192) (73)       
                                                                    W: gather_8_indices                  (1,1,96,1) (183)       
                                                                    O: gather_20_output                  (1,6,6,96) (82)        
------ ------------------------ ---- ------------ --------- ------- ------------------------------------ ---------------------- 
28     concat_25                25   concat       0         0       I: gather_20_output                  (1,6,6,96) (82)        
                                                                    I: conv2d_24_output                  (1,6,6,96) (80)        
                                                                    O: concat_25_output                  (1,6,6,192) (83)       
------ ------------------------ ---- ------------ --------- ------- ------------------------------------ ---------------------- 
29     pack_59                  59   pack         0         0       I: concat_25_output                  (1,6,6,192) (83)       
                                                                    I: concat_25_output                  (1,6,6,192) (83)       
                                                                    O: pack_59_output                    (1,6,6,2,192) (84)     
------ ------------------------ ---- ------------ --------- ------- ------------------------------------ ---------------------- 
30     pack_60                  60   pack         0         0       I: pack_59_output                    (1,6,6,2,192) (84)     
                                                                    I: pack_59_output                    (1,6,6,2,192) (84)     
                                                                    O: pack_60_output                    (1,6,2,6,2,192) (86)   
------ ------------------------ ---- ------------ --------- ------- ------------------------------------ ---------------------- 
31     concat_62                62   concat       0         0       I: pack_60_output0                   (1,12,12,192) (86)     
                                                                    I: serving_default_input_20_output   (1,12,12,96) (41)      
                                                                    O: concat_62_output                  (1,12,12,288) (87)     
------ ------------------------ ---- ------------ --------- ------- ------------------------------------ ---------------------- 
32     conv2d_63                63   conv2d       2986056   21024   I: concat_62_output                  (1,12,12,288) (87)     
                                                                    S: conv2d_63_scratch0                                       
                                                                    W: conv2d_63_weights                 (288,72,1,1) (6)       
                                                                    W: conv2d_63_bias                    (1,1,1,72) (7)         
                                                                    O: conv2d_63_output                  (1,12,12,72) (89)      
------ ------------------------ ---- ------------ --------- ------- ------------------------------------ ---------------------- 
33     pad_64                   64   pad          0         0       I: conv2d_63_output                  (1,12,12,72) (89)      
                                                                    O: pad_64_output                     (1,16,16,72) (90)      
------ ------------------------ ---- ------------ --------- ------- ------------------------------------ ---------------------- 
34     conv2d_84                84   conv2d       259272    2088    I: pad_64_output                     (1,16,16,72) (90)      
                                                                    S: conv2d_84_scratch0                                       
                                                                    W: conv2d_84_weights                 (72,1,5,5) (8)         
                                                                    W: conv2d_84_bias                    (1,1,1,72) (9)         
                                                                    O: conv2d_84_output                  (1,12,12,72) (91)      
------ ------------------------ ---- ------------ --------- ------- ------------------------------------ ---------------------- 
35     conv2d_85                85   conv2d       746568    5472    I: conv2d_84_output                  (1,12,12,72) (91)      
                                                                    S: conv2d_85_scratch0                                       
                                                                    W: conv2d_85_weights                 (72,72,1,1) (10)       
                                                                    W: conv2d_85_bias                    (1,1,1,72) (11)        
                                                                    O: conv2d_85_output                  (1,12,12,72) (93)      
------ ------------------------ ---- ------------ --------- ------- ------------------------------------ ---------------------- 
36     conv2d_87                86   conv2d       259272    2088    I: conv2d_85_output                  (1,12,12,72) (93)      
                                                                    S: conv2d_87_scratch0                                       
                                                                    W: conv2d_87_weights                 (72,1,5,5) (12)        
                                                                    W: conv2d_87_bias                    (1,1,1,72) (13)        
                                                                    O: conv2d_87_output                  (1,12,12,72) (94)      
------ ------------------------ ---- ------------ --------- ------- ------------------------------------ ---------------------- 
37     conv2d_88                88   conv2d       746568    5472    I: conv2d_87_output                  (1,12,12,72) (94)      
                                                                    S: conv2d_88_scratch0                                       
                                                                    W: conv2d_88_weights                 (72,72,1,1) (14)       
                                                                    W: conv2d_88_bias                    (1,1,1,72) (15)        
                                                                    O: conv2d_88_output                  (1,12,12,72) (96)      
------ ------------------------ ---- ------------ --------- ------- ------------------------------------ ---------------------- 
38     conv2d_89                90   conv2d       126156    912     I: conv2d_88_output                  (1,12,12,72) (96)      
                                                                    S: conv2d_89_scratch0                                       
                                                                    S: conv2d_89_scratch1                                       
                                                                    W: conv2d_89_weights                 (72,12,1,1) (16)       
                                                                    W: conv2d_89_bias                    (1,1,1,12) (17)        
                                                                    O: conv2d_89_output                  (1,12,12,12) (97)      
------ ------------------------ ---- ------------ --------- ------- ------------------------------------ ---------------------- 
39     conv2d_65                65   conv2d       259272    2088    I: pad_64_output                     (1,16,16,72) (90)      
                                                                    S: conv2d_65_scratch0                                       
                                                                    W: conv2d_65_weights                 (72,1,5,5) (18)        
                                                                    W: conv2d_65_bias                    (1,1,1,72) (19)        
                                                                    O: conv2d_65_output                  (1,12,12,72) (98)      
------ ------------------------ ---- ------------ --------- ------- ------------------------------------ ---------------------- 
40     conv2d_66                66   conv2d       746568    5472    I: conv2d_65_output                  (1,12,12,72) (98)      
                                                                    S: conv2d_66_scratch0                                       
                                                                    W: conv2d_66_weights                 (72,72,1,1) (20)       
                                                                    W: conv2d_66_bias                    (1,1,1,72) (21)        
                                                                    O: conv2d_66_output                  (1,12,12,72) (100)     
------ ------------------------ ---- ------------ --------- ------- ------------------------------------ ---------------------- 
41     conv2d_68                67   conv2d       259272    2088    I: conv2d_66_output                  (1,12,12,72) (100)     
                                                                    S: conv2d_68_scratch0                                       
                                                                    W: conv2d_68_weights                 (72,1,5,5) (22)        
                                                                    W: conv2d_68_bias                    (1,1,1,72) (23)        
                                                                    O: conv2d_68_output                  (1,12,12,72) (101)     
------ ------------------------ ---- ------------ --------- ------- ------------------------------------ ---------------------- 
42     conv2d_69                69   conv2d       746568    5472    I: conv2d_68_output                  (1,12,12,72) (101)     
                                                                    S: conv2d_69_scratch0                                       
                                                                    W: conv2d_69_weights                 (72,72,1,1) (24)       
                                                                    W: conv2d_69_bias                    (1,1,1,72) (25)        
                                                                    O: conv2d_69_output                  (1,12,12,72) (103)     
------ ------------------------ ---- ------------ --------- ------- ------------------------------------ ---------------------- 
43     conv2d_73                73   conv2d       829520    6080    I: conv2d_69_output                  (1,12,12,72) (103)     
                                                                    S: conv2d_73_scratch0                                       
                                                                    W: conv2d_73_weights                 (72,80,1,1) (26)       
                                                                    W: conv2d_73_bias                    (1,1,1,80) (27)        
                                                                    O: conv2d_73_output                  (1,12,12,80) (104)     
------ ------------------------ ---- ------------ --------- ------- ------------------------------------ ---------------------- 
44     conv2d_73_0_conversion   73   converter    23040     0       I: conv2d_73_output                  (1,12,12,80) (104)     
                                                                    O: conv2d_73_0_conversion_output     (1,12,12,80) (105)     
------ ------------------------ ---- ------------ --------- ------- ------------------------------------ ---------------------- 
45     nl_78                    78   nl           172800    0       I: conv2d_73_0_conversion_output     (1,12,12,80) (105)     
                                                                    O: nl_78_output                      (1,12,12,80) (107)     
------ ------------------------ ---- ------------ --------- ------- ------------------------------------ ---------------------- 
46     nl_78_0_conversion       78   converter    23040     0       I: nl_78_output                      (1,12,12,80) (107)     
                                                                    O: nl_78_0_conversion_output         (1,12,12,80) (108)     
------ ------------------------ ---- ------------ --------- ------- ------------------------------------ ---------------------- 
47     conv2d_70                71   conv2d       31539     228     I: conv2d_69_output                  (1,12,12,72) (103)     
                                                                    S: conv2d_70_scratch0                                       
                                                                    S: conv2d_70_scratch1                                       
                                                                    W: conv2d_70_weights                 (72,3,1,1) (28)        
                                                                    W: conv2d_70_bias                    (1,1,1,3) (29)         
                                                                    O: conv2d_70_output                  (1,12,12,3) (110)      
------ ------------------------ ---- ------------ --------- ------- ------------------------------------ ---------------------- 
48     concat_92                92   concat       0         0       I: conv2d_89_output                  (1,12,12,12) (97)      
                                                                    I: conv2d_70_output                  (1,12,12,3) (110)      
                                                                    I: nl_78_0_conversion_output         (1,12,12,80) (108)     
                                                                    O: concat_92_output                  (1,12,12,95) (111)     
------ ------------------------ ---- ------------ --------- ------- ------------------------------------ ---------------------- 
49     transpose_93             93   transpose    0         0       I: concat_92_output                  (1,12,12,95) (111)     
                                                                    O: transpose_93_output               (1,95,12,12) (112)     
------ ------------------------ ---- ------------ --------- ------- ------------------------------------ ---------------------- 
50     transpose_95             95   transpose    0         0       I: transpose_93_output0              (1,95,1,144) (112)     
                                                                    O: transpose_95_output               (1,144,1,95) (114)     
------ ------------------------ ---- ------------ --------- ------- ------------------------------------ ---------------------- 
51     conv2d_26                26   conv2d       497736    14112   I: concat_25_output                  (1,6,6,192) (83)       
                                                                    S: conv2d_26_scratch0                                       
                                                                    W: conv2d_26_weights                 (192,72,1,1) (30)      
                                                                    W: conv2d_26_bias                    (1,1,1,72) (31)        
                                                                    O: conv2d_26_output                  (1,6,6,72) (115)       
------ ------------------------ ---- ------------ --------- ------- ------------------------------------ ---------------------- 
52     pad_27                   27   pad          0         0       I: conv2d_26_output                  (1,6,6,72) (115)       
                                                                    O: pad_27_output                     (1,10,10,72) (117)     
------ ------------------------ ---- ------------ --------- ------- ------------------------------------ ---------------------- 
53     conv2d_36                36   conv2d       64872     2088    I: pad_27_output                     (1,10,10,72) (117)     
                                                                    S: conv2d_36_scratch0                                       
                                                                    W: conv2d_36_weights                 (72,1,5,5) (32)        
                                                                    W: conv2d_36_bias                    (1,1,1,72) (33)        
                                                                    O: conv2d_36_output                  (1,6,6,72) (118)       
------ ------------------------ ---- ------------ --------- ------- ------------------------------------ ---------------------- 
54     conv2d_37                37   conv2d       186696    5472    I: conv2d_36_output                  (1,6,6,72) (118)       
                                                                    S: conv2d_37_scratch0                                       
                                                                    W: conv2d_37_weights                 (72,72,1,1) (34)       
                                                                    W: conv2d_37_bias                    (1,1,1,72) (35)        
                                                                    O: conv2d_37_output                  (1,6,6,72) (119)       
------ ------------------------ ---- ------------ --------- ------- ------------------------------------ ---------------------- 
55     conv2d_39                38   conv2d       64872     2088    I: conv2d_37_output                  (1,6,6,72) (119)       
                                                                    S: conv2d_39_scratch0                                       
                                                                    W: conv2d_39_weights                 (72,1,5,5) (36)        
                                                                    W: conv2d_39_bias                    (1,1,1,72) (37)        
                                                                    O: conv2d_39_output                  (1,6,6,72) (121)       
------ ------------------------ ---- ------------ --------- ------- ------------------------------------ ---------------------- 
56     conv2d_40                40   conv2d       186696    5472    I: conv2d_39_output                  (1,6,6,72) (121)       
                                                                    S: conv2d_40_scratch0                                       
                                                                    W: conv2d_40_weights                 (72,72,1,1) (38)       
                                                                    W: conv2d_40_bias                    (1,1,1,72) (39)        
                                                                    O: conv2d_40_output                  (1,6,6,72) (122)       
------ ------------------------ ---- ------------ --------- ------- ------------------------------------ ---------------------- 
57     conv2d_44                44   conv2d       207440    6080    I: conv2d_40_output                  (1,6,6,72) (122)       
                                                                    S: conv2d_44_scratch0                                       
                                                                    W: conv2d_73_weights                 (72,80,1,1) (26)       
                                                                    W: conv2d_44_bias                    (1,1,1,80) (40)        
                                                                    O: conv2d_44_output                  (1,6,6,80) (124)       
------ ------------------------ ---- ------------ --------- ------- ------------------------------------ ---------------------- 
58     conv2d_44_0_conversion   44   converter    5760      0       I: conv2d_44_output                  (1,6,6,80) (124)       
                                                                    O: conv2d_44_0_conversion_output     (1,6,6,80) (125)       
------ ------------------------ ---- ------------ --------- ------- ------------------------------------ ---------------------- 
59     nl_49                    49   nl           43200     0       I: conv2d_44_0_conversion_output     (1,6,6,80) (125)       
                                                                    O: nl_49_output                      (1,6,6,80) (126)       
------ ------------------------ ---- ------------ --------- ------- ------------------------------------ ---------------------- 
60     nl_49_0_conversion       49   converter    5760      0       I: nl_49_output                      (1,6,6,80) (126)       
                                                                    O: nl_49_0_conversion_output         (1,6,6,80) (128)       
------ ------------------------ ---- ------------ --------- ------- ------------------------------------ ---------------------- 
61     conv2d_41                42   conv2d       7887      228     I: conv2d_40_output                  (1,6,6,72) (122)       
                                                                    S: conv2d_41_scratch0                                       
                                                                    S: conv2d_41_scratch1                                       
                                                                    W: conv2d_70_weights                 (72,3,1,1) (28)        
                                                                    W: conv2d_41_bias                    (1,1,1,3) (42)         
                                                                    O: conv2d_41_output                  (1,6,6,3) (129)        
------ ------------------------ ---- ------------ --------- ------- ------------------------------------ ---------------------- 
62     conv2d_28                28   conv2d       64872     2088    I: pad_27_output                     (1,10,10,72) (117)     
                                                                    S: conv2d_28_scratch0                                       
                                                                    W: conv2d_28_weights                 (72,1,5,5) (45)        
                                                                    W: conv2d_28_bias                    (1,1,1,72) (48)        
                                                                    O: conv2d_28_output                  (1,6,6,72) (131)       
------ ------------------------ ---- ------------ --------- ------- ------------------------------------ ---------------------- 
63     conv2d_29                29   conv2d       186696    5472    I: conv2d_28_output                  (1,6,6,72) (131)       
                                                                    S: conv2d_29_scratch0                                       
                                                                    W: conv2d_29_weights                 (72,72,1,1) (51)       
                                                                    W: conv2d_29_bias                    (1,1,1,72) (54)        
                                                                    O: conv2d_29_output                  (1,6,6,72) (132)       
------ ------------------------ ---- ------------ --------- ------- ------------------------------------ ---------------------- 
64     conv2d_31                30   conv2d       64872     2088    I: conv2d_29_output                  (1,6,6,72) (132)       
                                                                    S: conv2d_31_scratch0                                       
                                                                    W: conv2d_31_weights                 (72,1,5,5) (57)        
                                                                    W: conv2d_31_bias                    (1,1,1,72) (60)        
                                                                    O: conv2d_31_output                  (1,6,6,72) (133)       
------ ------------------------ ---- ------------ --------- ------- ------------------------------------ ---------------------- 
65     conv2d_32                32   conv2d       186696    5472    I: conv2d_31_output                  (1,6,6,72) (133)       
                                                                    S: conv2d_32_scratch0                                       
                                                                    W: conv2d_32_weights                 (72,72,1,1) (63)       
                                                                    W: conv2d_32_bias                    (1,1,1,72) (66)        
                                                                    O: conv2d_32_output                  (1,6,6,72) (135)       
------ ------------------------ ---- ------------ --------- ------- ------------------------------------ ---------------------- 
66     conv2d_33                34   conv2d       31548     912     I: conv2d_32_output                  (1,6,6,72) (135)       
                                                                    S: conv2d_33_scratch0                                       
                                                                    S: conv2d_33_scratch1                                       
                                                                    W: conv2d_89_weights                 (72,12,1,1) (16)       
                                                                    W: conv2d_33_bias                    (1,1,1,12) (71)        
                                                                    O: conv2d_33_output                  (1,6,6,12) (136)       
------ ------------------------ ---- ------------ --------- ------- ------------------------------------ ---------------------- 
67     concat_55                55   concat       0         0       I: conv2d_33_output                  (1,6,6,12) (136)       
                                                                    I: conv2d_41_output                  (1,6,6,3) (129)        
                                                                    I: nl_49_0_conversion_output         (1,6,6,80) (128)       
                                                                    O: concat_55_output                  (1,6,6,95) (138)       
------ ------------------------ ---- ------------ --------- ------- ------------------------------------ ---------------------- 
68     transpose_56             56   transpose    0         0       I: concat_55_output                  (1,6,6,95) (138)       
                                                                    O: transpose_56_output               (1,95,6,6) (139)       
------ ------------------------ ---- ------------ --------- ------- ------------------------------------ ---------------------- 
69     transpose_58             58   transpose    0         0       I: transpose_56_output0              (1,95,1,36) (139)      
                                                                    O: transpose_58_output               (1,36,1,95) (140)      
------ ------------------------ ---- ------------ --------- ------- ------------------------------------ ---------------------- 
70     concat_96                96   concat       0         0       I: transpose_95_output               (1,144,1,95) (114)     
                                                                    I: transpose_58_output               (1,36,1,95) (140)      
                                                                    O: concat_96_output                  (1,180,1,95) (142)     
------ ------------------------ ---- ------------ --------- ------- ------------------------------------ ---------------------- 
71     conversion_97            97   converter    34200     0       I: concat_96_output                  (1,180,1,95) (142)     
                                                                    O: conversion_97_output              (1,180,1,95) (144)     
------ ------------------------ ---- ------------ --------- ------- ------------------------------------ ---------------------- 



Number of operations per c-layer
------- ------ ------------------------------------ ------------ ------------- --------- ---------- 
c_id    m_id   name (type)                                   #op          type    #param   sparsity 
------- ------ ------------------------------------ ------------ ------------- --------- ---------- 
0       0      conv2d_3_pad_before (pad)                       0    smul_s8_s8           
1       3      conv2d_3 (conv2d)                          31,200    smul_s8_s8       960     0.0031 
2       4      conv2d_4 (conv2d)                         331,872    smul_s8_s8     9,312     0.0104 
3       1      conv2d_1 (conv2d)                       1,327,200    smul_s8_s8     9,312     0.0083 
4       2      conv2d_5_pad_before (pad)                       0    smul_s8_s8           
5       5      conv2d_5 (conv2d)                          31,200    smul_s8_s8       960     0.0021 
6       6      conv2d_6 (conv2d)                         331,872    smul_s8_s8     9,312     0.0148 
7       7      concat_7 (concat)                               0      op_s8_s8           
8       9      gather_9 (gather)                               0   smul_s8_s32        96     0.0000 
9       10     conv2d_10 (conv2d)                        331,872    smul_s8_s8     9,312     0.0090 
10      11     conv2d_11_pad_before (pad)                      0    smul_s8_s8           
11      11     conv2d_11 (conv2d)                         31,200    smul_s8_s8       960     0.0052 
12      12     conv2d_12 (conv2d)                        331,872    smul_s8_s8     9,312     0.0110 
13      8      gather_8 (gather)                               0   smul_s8_s32        96     0.0104 
14      13     concat_13 (concat)                              0      op_s8_s8           
15      15     gather_15 (gather)                              0   smul_s8_s32        96     0.0000 
16      16     conv2d_16 (conv2d)                        331,872    smul_s8_s8     9,312     0.0082 
17      17     conv2d_17_pad_before (pad)                      0    smul_s8_s8           
18      17     conv2d_17 (conv2d)                         31,200    smul_s8_s8       960     0.0042 
19      18     conv2d_18 (conv2d)                        331,872    smul_s8_s8     9,312     0.0126 
20      14     gather_14 (gather)                              0   smul_s8_s32        96     0.0104 
21      19     concat_19 (concat)                              0      op_s8_s8           
22      21     gather_21 (gather)                              0   smul_s8_s32        96     0.0000 
23      22     conv2d_22 (conv2d)                        331,872    smul_s8_s8     9,312     0.0103 
24      23     conv2d_23_pad_before (pad)                      0    smul_s8_s8           
25      23     conv2d_23 (conv2d)                         31,200    smul_s8_s8       960     0.0083 
26      24     conv2d_24 (conv2d)                        331,872    smul_s8_s8     9,312     0.0123 
27      20     gather_20 (gather)                              0   smul_s8_s32        96     0.0104 
28      25     concat_25 (concat)                              0      op_s8_s8           
29      59     pack_59 (pack)                                  0      op_s8_s8           
30      60     pack_60 (pack)                                  0      op_s8_s8           
31      62     concat_62 (concat)                              0      op_s8_s8           
32      63     conv2d_63 (conv2d)                      2,986,056    smul_s8_s8    20,808     0.0135 
33      64     pad_64 (pad)                                    0    smul_s8_s8           
34      84     conv2d_84 (conv2d)                        259,272    smul_s8_s8     1,872     0.0262 
35      85     conv2d_85 (conv2d)                        746,568    smul_s8_s8     5,256     0.0181 
36      86     conv2d_87 (conv2d)                        259,272    smul_s8_s8     1,872     0.0433 
37      88     conv2d_88 (conv2d)                        746,568    smul_s8_s8     5,256     0.0082 
38      90     conv2d_89 (conv2d)                        126,156    smul_s8_s8       876     0.0068 
39      65     conv2d_65 (conv2d)                        259,272    smul_s8_s8     1,872     0.0150 
40      66     conv2d_66 (conv2d)                        746,568    smul_s8_s8     5,256     0.0148 
41      67     conv2d_68 (conv2d)                        259,272    smul_s8_s8     1,872     0.0166 
42      69     conv2d_69 (conv2d)                        746,568    smul_s8_s8     5,256     0.0133 
43      73     conv2d_73 (conv2d)                        829,520    smul_s8_s8     5,840     0.0074 
44      73     conv2d_73_0_conversion (converter)         23,040   smul_s8_f32           
45      78     nl_78 (nl)                                172,800    op_f32_f32           
46      78     nl_78_0_conversion (converter)             23,040   smul_f32_s8           
47      71     conv2d_70 (conv2d)                         31,539    smul_s8_s8       219     0.2283 
48      92     concat_92 (concat)                              0      op_s8_s8           
49      93     transpose_93 (transpose)                        0    smul_s8_s8           
50      95     transpose_95 (transpose)                        0    smul_s8_s8           
51      26     conv2d_26 (conv2d)                        497,736    smul_s8_s8    13,896     0.0122 
52      27     pad_27 (pad)                                    0    smul_s8_s8           
53      36     conv2d_36 (conv2d)                         64,872    smul_s8_s8     1,872     0.0107 
54      37     conv2d_37 (conv2d)                        186,696    smul_s8_s8     5,256     0.0145 
55      38     conv2d_39 (conv2d)                         64,872    smul_s8_s8     1,872     0.0101 
56      40     conv2d_40 (conv2d)                        186,696    smul_s8_s8     5,256     0.0103 
57      44     conv2d_44 (conv2d)                        207,440    smul_s8_s8     5,840     0.0074 
58      44     conv2d_44_0_conversion (converter)          5,760   smul_s8_f32           
59      49     nl_49 (nl)                                 43,200    op_f32_f32           
60      49     nl_49_0_conversion (converter)              5,760   smul_f32_s8           
61      42     conv2d_41 (conv2d)                          7,887    smul_s8_s8       219     0.2283 
62      28     conv2d_28 (conv2d)                         64,872    smul_s8_s8     1,872     0.0155 
63      29     conv2d_29 (conv2d)                        186,696    smul_s8_s8     5,256     0.0215 
64      30     conv2d_31 (conv2d)                         64,872    smul_s8_s8     1,872     0.0342 
65      32     conv2d_32 (conv2d)                        186,696    smul_s8_s8     5,256     0.0093 
66      34     conv2d_33 (conv2d)                         31,548    smul_s8_s8       876     0.0068 
67      55     concat_55 (concat)                              0      op_s8_s8           
68      56     transpose_56 (transpose)                        0    smul_s8_s8           
69      58     transpose_58 (transpose)                        0    smul_s8_s8           
70      96     concat_96 (concat)                              0      op_s8_s8           
71      97     conversion_97 (converter)                  34,200   smul_s8_f32           
------- ------ ------------------------------------ ------------ ------------- --------- ---------- 
total                                                 14,193,490                 194,782     0.0127 

Number of operation types
---------------- ------------ ----------- 
operation type              #           % 
---------------- ------------ ----------- 
smul_s8_s8         13,885,690       97.8% 
op_s8_s8                    0        0.0% 
smul_s8_s32                 0        0.0% 
smul_s8_f32            63,000        0.4% 
op_f32_f32            216,000        1.5% 
smul_f32_s8            28,800        0.2% 

Complexity report (model)
------ -------------------------- ------------------------- ------------------------- ---------- 
m_id   name                       c_macc                    c_rom                     c_id       
------ -------------------------- ------------------------- ------------------------- ---------- 
0      serving_default_input_20   |                  0.0%   |                  0.0%   [0]        
1      conv2d_1                   |||||||            9.4%   |||||||            4.9%   [3]        
2      pad_2                      |                  0.0%   |                  0.0%   [4]        
3      conv2d_3                   |                  0.2%   |                  0.6%   [1]        
4      conv2d_4                   ||                 2.3%   |||||||            4.9%   [2]        
5      conv2d_5                   |                  0.2%   |                  0.6%   [5]        
6      conv2d_6                   ||                 2.3%   |||||||            4.9%   [6]        
7      concat_7                   |                  0.0%   |                  0.0%   [7]        
8      gather_8                   |                  0.0%   |                  0.2%   [13]       
9      gather_9                   |                  0.0%   |                  0.2%   [8]        
10     conv2d_10                  ||                 2.3%   |||||||            4.9%   [9]        
11     conv2d_11                  |                  0.2%   |                  0.6%   [10, 11]   
12     conv2d_12                  ||                 2.3%   |||||||            4.9%   [12]       
13     concat_13                  |                  0.0%   |                  0.0%   [14]       
14     gather_14                  |                  0.0%   |                  0.2%   [20]       
15     gather_15                  |                  0.0%   |                  0.2%   [15]       
16     conv2d_16                  ||                 2.3%   |||||||            4.9%   [16]       
17     conv2d_17                  |                  0.2%   |                  0.6%   [17, 18]   
18     conv2d_18                  ||                 2.3%   |||||||            4.9%   [19]       
19     concat_19                  |                  0.0%   |                  0.0%   [21]       
20     gather_20                  |                  0.0%   |                  0.2%   [27]       
21     gather_21                  |                  0.0%   |                  0.2%   [22]       
22     conv2d_22                  ||                 2.3%   |||||||            4.9%   [23]       
23     conv2d_23                  |                  0.2%   |                  0.6%   [24, 25]   
24     conv2d_24                  ||                 2.3%   |||||||            4.9%   [26]       
25     concat_25                  |                  0.0%   |                  0.0%   [28]       
26     conv2d_26                  |||                3.5%   |||||||||||        7.2%   [51]       
27     pad_27                     |                  0.0%   |                  0.0%   [52]       
28     conv2d_28                  |                  0.5%   ||                 1.1%   [62]       
29     conv2d_29                  |                  1.3%   ||||               2.8%   [63]       
30     pad_30                     |                  0.5%   ||                 1.1%   [64]       
32     conv2d_32                  |                  1.3%   ||||               2.8%   [65]       
34     nl_34                      |                  0.2%   |                  0.5%   [66]       
36     conv2d_36                  |                  0.5%   ||                 1.1%   [53]       
37     conv2d_37                  |                  1.3%   ||||               2.8%   [54]       
38     pad_38                     |                  0.5%   ||                 1.1%   [55]       
40     conv2d_40                  |                  1.3%   ||||               2.8%   [56]       
42     nl_42                      |                  0.1%   |                  0.1%   [61]       
44     conv2d_44                  ||                 1.5%   |||||              3.1%   [57, 58]   
49     nl_49                      |                  0.3%   |                  0.0%   [59, 60]   
55     concat_55                  |                  0.0%   |                  0.0%   [67]       
56     transpose_56               |                  0.0%   |                  0.0%   [68]       
58     transpose_58               |                  0.0%   |                  0.0%   [69]       
59     pack_59                    |                  0.0%   |                  0.0%   [29]       
60     pack_60                    |                  0.0%   |                  0.0%   [30]       
62     concat_62                  |                  0.0%   |                  0.0%   [31]       
63     conv2d_63                  ||||||||||||||||  21.0%   ||||||||||||||||  10.7%   [32]       
64     pad_64                     |                  0.0%   |                  0.0%   [33]       
65     conv2d_65                  ||                 1.8%   ||                 1.1%   [39]       
66     conv2d_66                  ||||               5.3%   ||||               2.8%   [40]       
67     pad_67                     ||                 1.8%   ||                 1.1%   [41]       
69     conv2d_69                  ||||               5.3%   ||||               2.8%   [42]       
71     nl_71                      |                  0.2%   |                  0.1%   [47]       
73     conv2d_73                  |||||              6.0%   |||||              3.1%   [43, 44]   
78     nl_78                      |                  1.4%   |                  0.0%   [45, 46]   
84     conv2d_84                  ||                 1.8%   ||                 1.1%   [34]       
85     conv2d_85                  ||||               5.3%   ||||               2.8%   [35]       
86     pad_86                     ||                 1.8%   ||                 1.1%   [36]       
88     conv2d_88                  ||||               5.3%   ||||               2.8%   [37]       
90     nl_90                      |                  0.9%   |                  0.5%   [38]       
92     concat_92                  |                  0.0%   |                  0.0%   [48]       
93     transpose_93               |                  0.0%   |                  0.0%   [49]       
95     transpose_95               |                  0.0%   |                  0.0%   [50]       
96     concat_96                  |                  0.0%   |                  0.0%   [70]       
97     conversion_97              |                  0.2%   |                  0.0%   [71]       
------ -------------------------- ------------------------- ------------------------- ---------- 
macc=14,193,490 weights=196,624 act=94,464 ram_io=0

Generated files (7)
------------------------------------------------------------------------------------------------------------------------------------ 
F:\MyWork\PyWork\gd32ai-modelzoo\object_detection\yolo_fastestv2\results\deploy\coco_sp_0000\Edge_AI\model\network_2_config.h        
F:\MyWork\PyWork\gd32ai-modelzoo\object_detection\yolo_fastestv2\results\deploy\coco_sp_0000\Edge_AI\model\network_2.h               
F:\MyWork\PyWork\gd32ai-modelzoo\object_detection\yolo_fastestv2\results\deploy\coco_sp_0000\Edge_AI\model\network_2.c               
F:\MyWork\PyWork\gd32ai-modelzoo\object_detection\yolo_fastestv2\results\deploy\coco_sp_0000\Edge_AI\model\network_2_data_params.h   
F:\MyWork\PyWork\gd32ai-modelzoo\object_detection\yolo_fastestv2\results\deploy\coco_sp_0000\Edge_AI\model\network_2_data_params.c   
F:\MyWork\PyWork\gd32ai-modelzoo\object_detection\yolo_fastestv2\results\deploy\coco_sp_0000\Edge_AI\model\network_2_data.h          
F:\MyWork\PyWork\gd32ai-modelzoo\object_detection\yolo_fastestv2\results\deploy\coco_sp_0000\Edge_AI\model\network_2_data.c          
